…
I0530 22:55:58.518625 26600 net.cpp:294] The NetState phase (0) differed from the phase (1) specified by a rule in layer accuracy
I0530 22:55:58.518632 26600 net.cpp:294] The NetState phase (0) differed from the phase (1) specified by a rule in layer loss
I0530 22:55:58.518754 26600 net.cpp:51] Initializing net from parameters: 
name: "pointnet_cls_basic"
state {
  phase: TRAIN
  level: 0
  stage: ""
}
layer {
  name: "data"
  type: "HDF5Data"
  top: "data"
  top: "label"
  include {
    phase: TRAIN
  }
  hdf5_data_param {
    source: "data/modelnet40_ply_hdf5_2048/train_files.txt"
    batch_size: 32
  }
}
layer {
  name: "aug"
  type: "Python"
  bottom: "data"
  bottom: "label"
  top: "aug_data"
  top: "aug_label"
  include {
    phase: TRAIN
  }
  python_param {
    module: "points_aug_layer"
    layer: "PointsAugLayer"
  }
}
layer {
  name: "reshape"
  type: "Reshape"
  bottom: "aug_data"
  top: "data_reshape"
  include {
    phase: TRAIN
  }
  reshape_param {
    shape {
      dim: 0
      dim: 1
      dim: -1
      dim: 3
    }
  }
}
layer {
  name: "conv1"
  type: "Convolution"
  bottom: "data_reshape"
  top: "conv1"
  param {
    lr_mult: 1
  }
  param {
    lr_mult: 2
  }
  convolution_param {
    num_output: 64
    pad: 0
    stride: 1
    weight_filler {
      type: "xavier"
    }
    bias_filler {
      type: "constant"
      value: 0
    }
    kernel_h: 1
    kernel_w: 3
  }
}
layer {
  name: "bn1"
  type: "BatchNorm"
  bottom: "conv1"
  top: "bn1"
}
layer {
  name: "scale1"
  type: "Scale"
  bottom: "bn1"
  top: "scale1"
  scale_param {
    bias_term: true
  }
}
layer {
  name: "relu1"
  type: "ReLU"
  bottom: "scale1"
  top: "scale1"
}
layer {
  name: "conv2"
  type: "Convolution"
  bottom: "scale1"
  top: "conv2"
  param {
    lr_mult: 1
  }
  param {
    lr_mult: 2
  }
  convolution_param {
    num_output: 64
    pad: 0
    stride: 1
    weight_filler {
      type: "xavier"
    }
    bias_filler {
      type: "constant"
      value: 0
    }
    kernel_h: 1
    kernel_w: 1
  }
}
layer {
  name: "bn2"
  type: "BatchNorm"
  bottom: "conv2"
  top: "bn2"
}
layer {
  name: "scale2"
  type: "Scale"
  bottom: "bn2"
  top: "scale2"
  scale_param {
    bias_term: true
  }
}
layer {
  name: "relu2"
  type: "ReLU"
  bottom: "scale2"
  top: "scale2"
}
layer {
  name: "conv3"
  type: "Convolution"
  bottom: "scale2"
  top: "conv3"
  param {
    lr_mult: 1
  }
  param {
    lr_mult: 2
  }
  convolution_param {
    num_output: 64
    pad: 0
    stride: 1
    weight_filler {
      type: "xavier"
    }
    bias_filler {
      type: "constant"
      value: 0
    }
    kernel_h: 1
    kernel_w: 1
  }
}
layer {
  name: "bn3"
  type: "BatchNorm"
  bottom: "conv3"
  top: "bn3"
}
layer {
  name: "scale3"
  type: "Scale"
  bottom: "bn3"
  top: "scale3"
  scale_param {
    bias_term: true
  }
}
layer {
  name: "relu3"
  type: "ReLU"
  bottom: "scale3"
  top: "scale3"
}
layer {
  name: "conv4"
  type: "Convolution"
  bottom: "scale3"
  top: "conv4"
  param {
    lr_mult: 1
  }
  param {
    lr_mult: 2
  }
  convolution_param {
    num_output: 128
    pad: 0
    stride: 1
    weight_filler {
      type: "xavier"
    }
    bias_filler {
      type: "constant"
      value: 0
    }
    kernel_h: 1
    kernel_w: 1
  }
}
layer {
  name: "bn4"
  type: "BatchNorm"
  bottom: "conv4"
  top: "bn4"
}
layer {
  name: "scale4"
  type: "Scale"
  bottom: "bn4"
  top: "scale4"
  scale_param {
    bias_term: true
  }
}
layer {
  name: "relu4"
  type: "ReLU"
  bottom: "scale4"
  top: "scale4"
}
layer {
  name: "conv5"
  type: "Convolution"
  bottom: "scale4"
  top: "conv5"
  param {
    lr_mult: 1
  }
  param {
    lr_mult: 2
  }
  convolution_param {
    num_output: 1024
    pad: 0
    stride: 1
    weight_filler {
      type: "xavier"
    }
    bias_filler {
      type: "constant"
      value: 0
    }
    kernel_h: 1
    kernel_w: 1
  }
}
layer {
  name: "bn5"
  type: "BatchNorm"
  bottom: "conv5"
  top: "bn5"
}
layer {
  name: "scale5"
  type: "Scale"
  bottom: "bn5"
  top: "scale5"
  scale_param {
    bias_term: true
  }
}
layer {
  name: "relu5"
  type: "ReLU"
  bottom: "scale5"
  top: "scale5"
}
layer {
  name: "pool"
  type: "Pooling"
  bottom: "scale5"
  top: "global_feat"
  pooling_param {
    pool: MAX
    stride: 1
    pad: 0
    kernel_h: 2048
    kernel_w: 1
  }
}
layer {
  name: "fc1"
  type: "InnerProduct"
  bottom: "global_feat"
  top: "fc1"
  param {
    lr_mult: 1
    decay_mult: 1
  }
  param {
    lr_mult: 1
    decay_mult: 1
  }
  inner_product_param {
    num_output: 512
    weight_filler {
      type: "gaussian"
      std: 0.001
    }
    bias_filler {
      type: "constant"
      value: 0
    }
  }
}
layer {
  name: "bn6"
  type: "BatchNorm"
  bottom: "fc1"
  top: "bn6"
}
layer {
  name: "scale6"
  type: "Scale"
  bottom: "bn6"
  top: "scale6"
  scale_param {
    bias_term: true
  }
}
layer {
  name: "relu6"
  type: "ReLU"
  bottom: "scale6"
  top: "scale6"
}
layer {
  name: "fc2"
  type: "InnerProduct"
  bottom: "scale6"
  top: "fc2"
  param {
    lr_mult: 1
    decay_mult: 1
  }
  param {
    lr_mult: 1
    decay_mult: 1
  }
  inner_product_param {
    num_output: 256
    weight_filler {
      type: "gaussian"
      std: 0.001
    }
    bias_filler {
      type: "constant"
      value: 0
    }
  }
}
layer {
  name: "bn7"
  type: "BatchNorm"
  bottom: "fc2"
  top: "bn7"
}
layer {
  name: "scale7"
  type: "Scale"
  bottom: "bn7"
  top: "scale7"
  scale_param {
    bias_term: true
  }
}
layer {
  name: "relu7"
  type: "ReLU"
  bottom: "scale7"
  top: "scale7"
}
layer {
  name: "drop1"
  type: "Dropout"
  bottom: "scale7"
  top: "drop1"
  dropout_param {
    dropout_ratio: 0.3
  }
}
layer {
  name: "fc3"
  type: "InnerProduct"
  bottom: "drop1"
  top: "fc3"
  param {
    lr_mult: 1
    decay_mult: 1
  }
  param {
    lr_mult: 1
    decay_mult: 1
  }
  inner_product_param {
    num_output: 40
    weight_filler {
      type: "gaussian"
      std: 0.001
    }
    bias_filler {
      type: "constant"
      value: 0
    }
  }
}
layer {
  name: "loss"
  type: "SoftmaxWithLoss"
  bottom: "fc3"
  bottom: "aug_label"
  top: "loss"
  include {
    phase: TRAIN
  }
}
I0530 22:55:58.518864 26600 layer_factory.hpp:77] Creating layer data
I0530 22:55:58.518877 26600 net.cpp:84] Creating Layer data
I0530 22:55:58.518892 26600 net.cpp:380] data -> data
I0530 22:55:58.518908 26600 net.cpp:380] data -> label
I0530 22:55:58.518919 26600 hdf5_data_layer.cpp:80] Loading list of HDF5 filenames from: data/modelnet40_ply_hdf5_2048/train_files.txt
I0530 22:55:58.518942 26600 hdf5_data_layer.cpp:94] Number of HDF5 files: 5
I0530 22:55:58.519559 26600 hdf5.cpp:32] Datatype class: H5T_FLOAT
I0530 22:55:58.863929 26600 hdf5.cpp:35] Datatype class: H5T_INTEGER
I0530 22:55:58.864655 26600 net.cpp:122] Setting up data
I0530 22:55:58.864672 26600 net.cpp:129] Top shape: 32 2048 3 (196608)
I0530 22:55:58.864677 26600 net.cpp:129] Top shape: 32 1 (32)
I0530 22:55:58.864681 26600 net.cpp:137] Memory required for data: 786560
I0530 22:55:58.864686 26600 layer_factory.hpp:77] Creating layer aug
I0530 22:55:59.416000 26600 net.cpp:84] Creating Layer aug
I0530 22:55:59.416028 26600 net.cpp:406] aug <- data
I0530 22:55:59.416039 26600 net.cpp:406] aug <- label
I0530 22:55:59.416048 26600 net.cpp:380] aug -> aug_data
I0530 22:55:59.416071 26600 net.cpp:380] aug -> aug_label
I0530 22:55:59.416838 26600 net.cpp:122] Setting up aug
I0530 22:55:59.416887 26600 net.cpp:129] Top shape: 32 2048 3 (196608)
I0530 22:55:59.416900 26600 net.cpp:129] Top shape: 32 (32)
I0530 22:55:59.416903 26600 net.cpp:137] Memory required for data: 1573120
I0530 22:55:59.416911 26600 layer_factory.hpp:77] Creating layer reshape
I0530 22:55:59.416923 26600 net.cpp:84] Creating Layer reshape
I0530 22:55:59.416929 26600 net.cpp:406] reshape <- aug_data
I0530 22:55:59.416936 26600 net.cpp:380] reshape -> data_reshape
I0530 22:55:59.416972 26600 net.cpp:122] Setting up reshape
I0530 22:55:59.416980 26600 net.cpp:129] Top shape: 32 1 2048 3 (196608)
I0530 22:55:59.416981 26600 net.cpp:137] Memory required for data: 2359552
I0530 22:55:59.416985 26600 layer_factory.hpp:77] Creating layer conv1
I0530 22:55:59.417004 26600 net.cpp:84] Creating Layer conv1
I0530 22:55:59.417011 26600 net.cpp:406] conv1 <- data_reshape
I0530 22:55:59.417019 26600 net.cpp:380] conv1 -> conv1
I0530 22:56:00.093619 26600 net.cpp:122] Setting up conv1
I0530 22:56:00.093646 26600 net.cpp:129] Top shape: 32 64 2048 1 (4194304)
I0530 22:56:00.093649 26600 net.cpp:137] Memory required for data: 19136768
I0530 22:56:00.093667 26600 layer_factory.hpp:77] Creating layer bn1
I0530 22:56:00.093679 26600 net.cpp:84] Creating Layer bn1
I0530 22:56:00.093685 26600 net.cpp:406] bn1 <- conv1
I0530 22:56:00.093694 26600 net.cpp:380] bn1 -> bn1
I0530 22:56:00.093911 26600 net.cpp:122] Setting up bn1
I0530 22:56:00.093924 26600 net.cpp:129] Top shape: 32 64 2048 1 (4194304)
I0530 22:56:00.093928 26600 net.cpp:137] Memory required for data: 35913984
I0530 22:56:00.093941 26600 layer_factory.hpp:77] Creating layer scale1
I0530 22:56:00.093952 26600 net.cpp:84] Creating Layer scale1
I0530 22:56:00.093958 26600 net.cpp:406] scale1 <- bn1
I0530 22:56:00.093966 26600 net.cpp:380] scale1 -> scale1
I0530 22:56:00.094013 26600 layer_factory.hpp:77] Creating layer scale1
I0530 22:56:00.094130 26600 net.cpp:122] Setting up scale1
I0530 22:56:00.094139 26600 net.cpp:129] Top shape: 32 64 2048 1 (4194304)
I0530 22:56:00.094144 26600 net.cpp:137] Memory required for data: 52691200
I0530 22:56:00.094152 26600 layer_factory.hpp:77] Creating layer relu1
I0530 22:56:00.094161 26600 net.cpp:84] Creating Layer relu1
I0530 22:56:00.094167 26600 net.cpp:406] relu1 <- scale1
I0530 22:56:00.094174 26600 net.cpp:367] relu1 -> scale1 (in-place)
I0530 22:56:00.094607 26600 net.cpp:122] Setting up relu1
I0530 22:56:00.094622 26600 net.cpp:129] Top shape: 32 64 2048 1 (4194304)
I0530 22:56:00.094630 26600 net.cpp:137] Memory required for data: 69468416
I0530 22:56:00.094635 26600 layer_factory.hpp:77] Creating layer conv2
I0530 22:56:00.094650 26600 net.cpp:84] Creating Layer conv2
I0530 22:56:00.094656 26600 net.cpp:406] conv2 <- scale1
I0530 22:56:00.094664 26600 net.cpp:380] conv2 -> conv2
I0530 22:56:00.095933 26600 net.cpp:122] Setting up conv2
I0530 22:56:00.095947 26600 net.cpp:129] Top shape: 32 64 2048 1 (4194304)
I0530 22:56:00.095949 26600 net.cpp:137] Memory required for data: 86245632
I0530 22:56:00.095957 26600 layer_factory.hpp:77] Creating layer bn2
I0530 22:56:00.095966 26600 net.cpp:84] Creating Layer bn2
I0530 22:56:00.095970 26600 net.cpp:406] bn2 <- conv2
I0530 22:56:00.095974 26600 net.cpp:380] bn2 -> bn2
I0530 22:56:00.096197 26600 net.cpp:122] Setting up bn2
I0530 22:56:00.096210 26600 net.cpp:129] Top shape: 32 64 2048 1 (4194304)
I0530 22:56:00.096215 26600 net.cpp:137] Memory required for data: 103022848
I0530 22:56:00.096226 26600 layer_factory.hpp:77] Creating layer scale2
I0530 22:56:00.096236 26600 net.cpp:84] Creating Layer scale2
I0530 22:56:00.096242 26600 net.cpp:406] scale2 <- bn2
I0530 22:56:00.096251 26600 net.cpp:380] scale2 -> scale2
I0530 22:56:00.096293 26600 layer_factory.hpp:77] Creating layer scale2
I0530 22:56:00.096411 26600 net.cpp:122] Setting up scale2
I0530 22:56:00.096421 26600 net.cpp:129] Top shape: 32 64 2048 1 (4194304)
I0530 22:56:00.096426 26600 net.cpp:137] Memory required for data: 119800064
I0530 22:56:00.096452 26600 layer_factory.hpp:77] Creating layer relu2
I0530 22:56:00.096462 26600 net.cpp:84] Creating Layer relu2
I0530 22:56:00.096467 26600 net.cpp:406] relu2 <- scale2
I0530 22:56:00.096472 26600 net.cpp:367] relu2 -> scale2 (in-place)
I0530 22:56:00.096684 26600 net.cpp:122] Setting up relu2
I0530 22:56:00.096698 26600 net.cpp:129] Top shape: 32 64 2048 1 (4194304)
I0530 22:56:00.096704 26600 net.cpp:137] Memory required for data: 136577280
I0530 22:56:00.096709 26600 layer_factory.hpp:77] Creating layer conv3
I0530 22:56:00.096724 26600 net.cpp:84] Creating Layer conv3
I0530 22:56:00.096729 26600 net.cpp:406] conv3 <- scale2
I0530 22:56:00.096737 26600 net.cpp:380] conv3 -> conv3
I0530 22:56:00.098073 26600 net.cpp:122] Setting up conv3
I0530 22:56:00.098085 26600 net.cpp:129] Top shape: 32 64 2048 1 (4194304)
I0530 22:56:00.098088 26600 net.cpp:137] Memory required for data: 153354496
I0530 22:56:00.098093 26600 layer_factory.hpp:77] Creating layer bn3
I0530 22:56:00.098100 26600 net.cpp:84] Creating Layer bn3
I0530 22:56:00.098104 26600 net.cpp:406] bn3 <- conv3
I0530 22:56:00.098112 26600 net.cpp:380] bn3 -> bn3
I0530 22:56:00.098331 26600 net.cpp:122] Setting up bn3
I0530 22:56:00.098343 26600 net.cpp:129] Top shape: 32 64 2048 1 (4194304)
I0530 22:56:00.098350 26600 net.cpp:137] Memory required for data: 170131712
I0530 22:56:00.098366 26600 layer_factory.hpp:77] Creating layer scale3
I0530 22:56:00.098373 26600 net.cpp:84] Creating Layer scale3
I0530 22:56:00.098381 26600 net.cpp:406] scale3 <- bn3
I0530 22:56:00.098387 26600 net.cpp:380] scale3 -> scale3
I0530 22:56:00.098430 26600 layer_factory.hpp:77] Creating layer scale3
I0530 22:56:00.098546 26600 net.cpp:122] Setting up scale3
I0530 22:56:00.098556 26600 net.cpp:129] Top shape: 32 64 2048 1 (4194304)
I0530 22:56:00.098562 26600 net.cpp:137] Memory required for data: 186908928
I0530 22:56:00.098569 26600 layer_factory.hpp:77] Creating layer relu3
I0530 22:56:00.098579 26600 net.cpp:84] Creating Layer relu3
I0530 22:56:00.098585 26600 net.cpp:406] relu3 <- scale3
I0530 22:56:00.098592 26600 net.cpp:367] relu3 -> scale3 (in-place)
I0530 22:56:00.099035 26600 net.cpp:122] Setting up relu3
I0530 22:56:00.099050 26600 net.cpp:129] Top shape: 32 64 2048 1 (4194304)
I0530 22:56:00.099057 26600 net.cpp:137] Memory required for data: 203686144
I0530 22:56:00.099063 26600 layer_factory.hpp:77] Creating layer conv4
I0530 22:56:00.099076 26600 net.cpp:84] Creating Layer conv4
I0530 22:56:00.099082 26600 net.cpp:406] conv4 <- scale3
I0530 22:56:00.099092 26600 net.cpp:380] conv4 -> conv4
I0530 22:56:00.100785 26600 net.cpp:122] Setting up conv4
I0530 22:56:00.100800 26600 net.cpp:129] Top shape: 32 128 2048 1 (8388608)
I0530 22:56:00.100803 26600 net.cpp:137] Memory required for data: 237240576
I0530 22:56:00.100809 26600 layer_factory.hpp:77] Creating layer bn4
I0530 22:56:00.100816 26600 net.cpp:84] Creating Layer bn4
I0530 22:56:00.100821 26600 net.cpp:406] bn4 <- conv4
I0530 22:56:00.100831 26600 net.cpp:380] bn4 -> bn4
I0530 22:56:00.101055 26600 net.cpp:122] Setting up bn4
I0530 22:56:00.101068 26600 net.cpp:129] Top shape: 32 128 2048 1 (8388608)
I0530 22:56:00.101073 26600 net.cpp:137] Memory required for data: 270795008
I0530 22:56:00.101084 26600 layer_factory.hpp:77] Creating layer scale4
I0530 22:56:00.101096 26600 net.cpp:84] Creating Layer scale4
I0530 22:56:00.101102 26600 net.cpp:406] scale4 <- bn4
I0530 22:56:00.101109 26600 net.cpp:380] scale4 -> scale4
I0530 22:56:00.101156 26600 layer_factory.hpp:77] Creating layer scale4
I0530 22:56:00.101269 26600 net.cpp:122] Setting up scale4
I0530 22:56:00.101279 26600 net.cpp:129] Top shape: 32 128 2048 1 (8388608)
I0530 22:56:00.101284 26600 net.cpp:137] Memory required for data: 304349440
I0530 22:56:00.101291 26600 layer_factory.hpp:77] Creating layer relu4
I0530 22:56:00.101300 26600 net.cpp:84] Creating Layer relu4
I0530 22:56:00.101305 26600 net.cpp:406] relu4 <- scale4
I0530 22:56:00.101315 26600 net.cpp:367] relu4 -> scale4 (in-place)
I0530 22:56:00.101529 26600 net.cpp:122] Setting up relu4
I0530 22:56:00.101555 26600 net.cpp:129] Top shape: 32 128 2048 1 (8388608)
I0530 22:56:00.101562 26600 net.cpp:137] Memory required for data: 337903872
I0530 22:56:00.101568 26600 layer_factory.hpp:77] Creating layer conv5
I0530 22:56:00.101580 26600 net.cpp:84] Creating Layer conv5
I0530 22:56:00.101588 26600 net.cpp:406] conv5 <- scale4
I0530 22:56:00.101595 26600 net.cpp:380] conv5 -> conv5
I0530 22:56:00.104221 26600 net.cpp:122] Setting up conv5
I0530 22:56:00.104235 26600 net.cpp:129] Top shape: 32 1024 2048 1 (67108864)
I0530 22:56:00.104238 26600 net.cpp:137] Memory required for data: 606339328
I0530 22:56:00.104245 26600 layer_factory.hpp:77] Creating layer bn5
I0530 22:56:00.104252 26600 net.cpp:84] Creating Layer bn5
I0530 22:56:00.104259 26600 net.cpp:406] bn5 <- conv5
I0530 22:56:00.104265 26600 net.cpp:380] bn5 -> bn5
I0530 22:56:00.104490 26600 net.cpp:122] Setting up bn5
I0530 22:56:00.104501 26600 net.cpp:129] Top shape: 32 1024 2048 1 (67108864)
I0530 22:56:00.104506 26600 net.cpp:137] Memory required for data: 874774784
I0530 22:56:00.104526 26600 layer_factory.hpp:77] Creating layer scale5
I0530 22:56:00.104535 26600 net.cpp:84] Creating Layer scale5
I0530 22:56:00.104542 26600 net.cpp:406] scale5 <- bn5
I0530 22:56:00.104548 26600 net.cpp:380] scale5 -> scale5
I0530 22:56:00.104591 26600 layer_factory.hpp:77] Creating layer scale5
I0530 22:56:00.104707 26600 net.cpp:122] Setting up scale5
I0530 22:56:00.104717 26600 net.cpp:129] Top shape: 32 1024 2048 1 (67108864)
I0530 22:56:00.104723 26600 net.cpp:137] Memory required for data: 1143210240
I0530 22:56:00.104730 26600 layer_factory.hpp:77] Creating layer relu5
I0530 22:56:00.104738 26600 net.cpp:84] Creating Layer relu5
I0530 22:56:00.104744 26600 net.cpp:406] relu5 <- scale5
I0530 22:56:00.104753 26600 net.cpp:367] relu5 -> scale5 (in-place)
I0530 22:56:00.105216 26600 net.cpp:122] Setting up relu5
I0530 22:56:00.105232 26600 net.cpp:129] Top shape: 32 1024 2048 1 (67108864)
I0530 22:56:00.105237 26600 net.cpp:137] Memory required for data: 1411645696
I0530 22:56:00.105243 26600 layer_factory.hpp:77] Creating layer pool
I0530 22:56:00.105254 26600 net.cpp:84] Creating Layer pool
I0530 22:56:00.105260 26600 net.cpp:406] pool <- scale5
I0530 22:56:00.105268 26600 net.cpp:380] pool -> global_feat
I0530 22:56:00.105324 26600 net.cpp:122] Setting up pool
I0530 22:56:00.105334 26600 net.cpp:129] Top shape: 32 1024 1 1 (32768)
I0530 22:56:00.105338 26600 net.cpp:137] Memory required for data: 1411776768
I0530 22:56:00.105343 26600 layer_factory.hpp:77] Creating layer fc1
I0530 22:56:00.105356 26600 net.cpp:84] Creating Layer fc1
I0530 22:56:00.105362 26600 net.cpp:406] fc1 <- global_feat
I0530 22:56:00.105371 26600 net.cpp:380] fc1 -> fc1
I0530 22:56:00.117815 26600 net.cpp:122] Setting up fc1
I0530 22:56:00.117842 26600 net.cpp:129] Top shape: 32 512 (16384)
I0530 22:56:00.117846 26600 net.cpp:137] Memory required for data: 1411842304
I0530 22:56:00.117853 26600 layer_factory.hpp:77] Creating layer bn6
I0530 22:56:00.117862 26600 net.cpp:84] Creating Layer bn6
I0530 22:56:00.117867 26600 net.cpp:406] bn6 <- fc1
I0530 22:56:00.117874 26600 net.cpp:380] bn6 -> bn6
I0530 22:56:00.118096 26600 net.cpp:122] Setting up bn6
I0530 22:56:00.118108 26600 net.cpp:129] Top shape: 32 512 (16384)
I0530 22:56:00.118113 26600 net.cpp:137] Memory required for data: 1411907840
I0530 22:56:00.118125 26600 layer_factory.hpp:77] Creating layer scale6
I0530 22:56:00.118134 26600 net.cpp:84] Creating Layer scale6
I0530 22:56:00.118139 26600 net.cpp:406] scale6 <- bn6
I0530 22:56:00.118146 26600 net.cpp:380] scale6 -> scale6
I0530 22:56:00.118191 26600 layer_factory.hpp:77] Creating layer scale6
I0530 22:56:00.118312 26600 net.cpp:122] Setting up scale6
I0530 22:56:00.118321 26600 net.cpp:129] Top shape: 32 512 (16384)
I0530 22:56:00.118327 26600 net.cpp:137] Memory required for data: 1411973376
I0530 22:56:00.118338 26600 layer_factory.hpp:77] Creating layer relu6
I0530 22:56:00.118347 26600 net.cpp:84] Creating Layer relu6
I0530 22:56:00.118352 26600 net.cpp:406] relu6 <- scale6
I0530 22:56:00.118376 26600 net.cpp:367] relu6 -> scale6 (in-place)
I0530 22:56:00.118966 26600 net.cpp:122] Setting up relu6
I0530 22:56:00.118981 26600 net.cpp:129] Top shape: 32 512 (16384)
I0530 22:56:00.118988 26600 net.cpp:137] Memory required for data: 1412038912
I0530 22:56:00.118994 26600 layer_factory.hpp:77] Creating layer fc2
I0530 22:56:00.119005 26600 net.cpp:84] Creating Layer fc2
I0530 22:56:00.119011 26600 net.cpp:406] fc2 <- scale6
I0530 22:56:00.119020 26600 net.cpp:380] fc2 -> fc2
I0530 22:56:00.122261 26600 net.cpp:122] Setting up fc2
I0530 22:56:00.122272 26600 net.cpp:129] Top shape: 32 256 (8192)
I0530 22:56:00.122277 26600 net.cpp:137] Memory required for data: 1412071680
I0530 22:56:00.122282 26600 layer_factory.hpp:77] Creating layer bn7
I0530 22:56:00.122287 26600 net.cpp:84] Creating Layer bn7
I0530 22:56:00.122292 26600 net.cpp:406] bn7 <- fc2
I0530 22:56:00.122295 26600 net.cpp:380] bn7 -> bn7
I0530 22:56:00.122514 26600 net.cpp:122] Setting up bn7
I0530 22:56:00.122525 26600 net.cpp:129] Top shape: 32 256 (8192)
I0530 22:56:00.122531 26600 net.cpp:137] Memory required for data: 1412104448
I0530 22:56:00.122541 26600 layer_factory.hpp:77] Creating layer scale7
I0530 22:56:00.122551 26600 net.cpp:84] Creating Layer scale7
I0530 22:56:00.122557 26600 net.cpp:406] scale7 <- bn7
I0530 22:56:00.122565 26600 net.cpp:380] scale7 -> scale7
I0530 22:56:00.122611 26600 layer_factory.hpp:77] Creating layer scale7
I0530 22:56:00.122722 26600 net.cpp:122] Setting up scale7
I0530 22:56:00.122731 26600 net.cpp:129] Top shape: 32 256 (8192)
I0530 22:56:00.122736 26600 net.cpp:137] Memory required for data: 1412137216
I0530 22:56:00.122745 26600 layer_factory.hpp:77] Creating layer relu7
I0530 22:56:00.122752 26600 net.cpp:84] Creating Layer relu7
I0530 22:56:00.122758 26600 net.cpp:406] relu7 <- scale7
I0530 22:56:00.122766 26600 net.cpp:367] relu7 -> scale7 (in-place)
I0530 22:56:00.123014 26600 net.cpp:122] Setting up relu7
I0530 22:56:00.123028 26600 net.cpp:129] Top shape: 32 256 (8192)
I0530 22:56:00.123034 26600 net.cpp:137] Memory required for data: 1412169984
I0530 22:56:00.123039 26600 layer_factory.hpp:77] Creating layer drop1
I0530 22:56:00.123054 26600 net.cpp:84] Creating Layer drop1
I0530 22:56:00.123060 26600 net.cpp:406] drop1 <- scale7
I0530 22:56:00.123067 26600 net.cpp:380] drop1 -> drop1
I0530 22:56:00.123118 26600 net.cpp:122] Setting up drop1
I0530 22:56:00.123126 26600 net.cpp:129] Top shape: 32 256 (8192)
I0530 22:56:00.123132 26600 net.cpp:137] Memory required for data: 1412202752
I0530 22:56:00.123136 26600 layer_factory.hpp:77] Creating layer fc3
I0530 22:56:00.123147 26600 net.cpp:84] Creating Layer fc3
I0530 22:56:00.123153 26600 net.cpp:406] fc3 <- drop1
I0530 22:56:00.123159 26600 net.cpp:380] fc3 -> fc3
I0530 22:56:00.123651 26600 net.cpp:122] Setting up fc3
I0530 22:56:00.123662 26600 net.cpp:129] Top shape: 32 40 (1280)
I0530 22:56:00.123668 26600 net.cpp:137] Memory required for data: 1412207872
I0530 22:56:00.123677 26600 layer_factory.hpp:77] Creating layer loss
I0530 22:56:00.123688 26600 net.cpp:84] Creating Layer loss
I0530 22:56:00.123694 26600 net.cpp:406] loss <- fc3
I0530 22:56:00.123700 26600 net.cpp:406] loss <- aug_label
I0530 22:56:00.123708 26600 net.cpp:380] loss -> loss
I0530 22:56:00.123721 26600 layer_factory.hpp:77] Creating layer loss
…
I0530 22:56:00.125720 26600 net.cpp:294] The NetState phase (1) differed from the phase (0) specified by a rule in layer reshape
I0530 22:56:00.125743 26600 net.cpp:294] The NetState phase (1) differed from the phase (0) specified by a rule in layer loss
I0530 22:56:00.125947 26600 net.cpp:51] Initializing net from parameters: 
name: "pointnet_cls_basic"
state {
  phase: TEST
}
layer {
  name: "data"
  type: "HDF5Data"
  top: "data"
  top: "label"
  include {
    phase: TEST
  }
  hdf5_data_param {
    source: "data/modelnet40_ply_hdf5_2048/test_files.txt"
    batch_size: 32
  }
}
layer {
  name: "reshape"
  type: "Reshape"
  bottom: "data"
  top: "data_reshape"
  include {
    phase: TEST
  }
  reshape_param {
    shape {
      dim: 0
      dim: 1
      dim: -1
      dim: 3
    }
  }
}
layer {
  name: "conv1"
  type: "Convolution"
  bottom: "data_reshape"
  top: "conv1"
  param {
    lr_mult: 1
  }
  param {
    lr_mult: 2
  }
  convolution_param {
    num_output: 64
    pad: 0
    stride: 1
    weight_filler {
      type: "xavier"
    }
    bias_filler {
      type: "constant"
      value: 0
    }
    kernel_h: 1
    kernel_w: 3
  }
}
layer {
  name: "bn1"
  type: "BatchNorm"
  bottom: "conv1"
  top: "bn1"
}
layer {
  name: "scale1"
  type: "Scale"
  bottom: "bn1"
  top: "scale1"
  scale_param {
    bias_term: true
  }
}
layer {
  name: "relu1"
  type: "ReLU"
  bottom: "scale1"
  top: "scale1"
}
layer {
  name: "conv2"
  type: "Convolution"
  bottom: "scale1"
  top: "conv2"
  param {
    lr_mult: 1
  }
  param {
    lr_mult: 2
  }
  convolution_param {
    num_output: 64
    pad: 0
    stride: 1
    weight_filler {
      type: "xavier"
    }
    bias_filler {
      type: "constant"
      value: 0
    }
    kernel_h: 1
    kernel_w: 1
  }
}
layer {
  name: "bn2"
  type: "BatchNorm"
  bottom: "conv2"
  top: "bn2"
}
layer {
  name: "scale2"
  type: "Scale"
  bottom: "bn2"
  top: "scale2"
  scale_param {
    bias_term: true
  }
}
layer {
  name: "relu2"
  type: "ReLU"
  bottom: "scale2"
  top: "scale2"
}
layer {
  name: "conv3"
  type: "Convolution"
  bottom: "scale2"
  top: "conv3"
  param {
    lr_mult: 1
  }
  param {
    lr_mult: 2
  }
  convolution_param {
    num_output: 64
    pad: 0
    stride: 1
    weight_filler {
      type: "xavier"
    }
    bias_filler {
      type: "constant"
      value: 0
    }
    kernel_h: 1
    kernel_w: 1
  }
}
layer {
  name: "bn3"
  type: "BatchNorm"
  bottom: "conv3"
  top: "bn3"
}
layer {
  name: "scale3"
  type: "Scale"
  bottom: "bn3"
  top: "scale3"
  scale_param {
    bias_term: true
  }
}
layer {
  name: "relu3"
  type: "ReLU"
  bottom: "scale3"
  top: "scale3"
}
layer {
  name: "conv4"
  type: "Convolution"
  bottom: "scale3"
  top: "conv4"
  param {
    lr_mult: 1
  }
  param {
    lr_mult: 2
  }
  convolution_param {
    num_output: 128
    pad: 0
    stride: 1
    weight_filler {
      type: "xavier"
    }
    bias_filler {
      type: "constant"
      value: 0
    }
    kernel_h: 1
    kernel_w: 1
  }
}
layer {
  name: "bn4"
  type: "BatchNorm"
  bottom: "conv4"
  top: "bn4"
}
layer {
  name: "scale4"
  type: "Scale"
  bottom: "bn4"
  top: "scale4"
  scale_param {
    bias_term: true
  }
}
layer {
  name: "relu4"
  type: "ReLU"
  bottom: "scale4"
  top: "scale4"
}
layer {
  name: "conv5"
  type: "Convolution"
  bottom: "scale4"
  top: "conv5"
  param {
    lr_mult: 1
  }
  param {
    lr_mult: 2
  }
  convolution_param {
    num_output: 1024
    pad: 0
    stride: 1
    weight_filler {
      type: "xavier"
    }
    bias_filler {
      type: "constant"
      value: 0
    }
    kernel_h: 1
    kernel_w: 1
  }
}
layer {
  name: "bn5"
  type: "BatchNorm"
  bottom: "conv5"
  top: "bn5"
}
layer {
  name: "scale5"
  type: "Scale"
  bottom: "bn5"
  top: "scale5"
  scale_param {
    bias_term: true
  }
}
layer {
  name: "relu5"
  type: "ReLU"
  bottom: "scale5"
  top: "scale5"
}
layer {
  name: "pool"
  type: "Pooling"
  bottom: "scale5"
  top: "global_feat"
  pooling_param {
    pool: MAX
    stride: 1
    pad: 0
    kernel_h: 2048
    kernel_w: 1
  }
}
layer {
  name: "fc1"
  type: "InnerProduct"
  bottom: "global_feat"
  top: "fc1"
  param {
    lr_mult: 1
    decay_mult: 1
  }
  param {
    lr_mult: 1
    decay_mult: 1
  }
  inner_product_param {
    num_output: 512
    weight_filler {
      type: "gaussian"
      std: 0.001
    }
    bias_filler {
      type: "constant"
      value: 0
    }
  }
}
layer {
  name: "bn6"
  type: "BatchNorm"
  bottom: "fc1"
  top: "bn6"
}
layer {
  name: "scale6"
  type: "Scale"
  bottom: "bn6"
  top: "scale6"
  scale_param {
    bias_term: true
  }
}
layer {
  name: "relu6"
  type: "ReLU"
  bottom: "scale6"
  top: "scale6"
}
layer {
  name: "fc2"
  type: "InnerProduct"
  bottom: "scale6"
  top: "fc2"
  param {
    lr_mult: 1
    decay_mult: 1
  }
  param {
    lr_mult: 1
    decay_mult: 1
  }
  inner_product_param {
    num_output: 256
    weight_filler {
      type: "gaussian"
      std: 0.001
    }
    bias_filler {
      type: "constant"
      value: 0
    }
  }
}
layer {
  name: "bn7"
  type: "BatchNorm"
  bottom: "fc2"
  top: "bn7"
}
layer {
  name: "scale7"
  type: "Scale"
  bottom: "bn7"
  top: "scale7"
  scale_param {
    bias_term: true
  }
}
layer {
  name: "relu7"
  type: "ReLU"
  bottom: "scale7"
  top: "scale7"
}
layer {
  name: "drop1"
  type: "Dropout"
  bottom: "scale7"
  top: "drop1"
  dropout_param {
    dropout_ratio: 0.3
  }
}
layer {
  name: "fc3"
  type: "InnerProduct"
  bottom: "drop1"
  top: "fc3"
  param {
    lr_mult: 1
    decay_mult: 1
  }
  param {
    lr_mult: 1
    decay_mult: 1
  }
  inner_product_param {
    num_output: 40
    weight_filler {
      type: "gaussian"
      std: 0.001
    }
    bias_filler {
      type: "constant"
      value: 0
    }
  }
}
layer {
  name: "accuracy"
  type: "Accuracy"
  bottom: "fc3"
  bottom: "label"
  top: "accuracy"
  include {
    phase: TEST
  }
}
layer {
  name: "loss"
  type: "SoftmaxWithLoss"
  bottom: "fc3"
  bottom: "label"
  top: "loss"
  include {
    phase: TEST
  }
}
I0530 22:56:00.126112 26600 layer_factory.hpp:77] Creating layer data
I0530 22:56:00.126125 26600 net.cpp:84] Creating Layer data
I0530 22:56:00.126132 26600 net.cpp:380] data -> data
I0530 22:56:00.126140 26600 net.cpp:380] data -> label
I0530 22:56:00.126150 26600 hdf5_data_layer.cpp:80] Loading list of HDF5 filenames from: data/modelnet40_ply_hdf5_2048/test_files.txt
I0530 22:56:00.126176 26600 hdf5_data_layer.cpp:94] Number of HDF5 files: 2
I0530 22:56:00.467283 26600 net.cpp:122] Setting up data
I0530 22:56:00.467308 26600 net.cpp:129] Top shape: 32 2048 3 (196608)
I0530 22:56:00.467314 26600 net.cpp:129] Top shape: 32 1 (32)
I0530 22:56:00.467315 26600 net.cpp:137] Memory required for data: 786560
I0530 22:56:00.467320 26600 layer_factory.hpp:77] Creating layer label_data_1_split
I0530 22:56:00.467330 26600 net.cpp:84] Creating Layer label_data_1_split
I0530 22:56:00.467334 26600 net.cpp:406] label_data_1_split <- label
I0530 22:56:00.467340 26600 net.cpp:380] label_data_1_split -> label_data_1_split_0
I0530 22:56:00.467350 26600 net.cpp:380] label_data_1_split -> label_data_1_split_1
I0530 22:56:00.467391 26600 net.cpp:122] Setting up label_data_1_split
I0530 22:56:00.467399 26600 net.cpp:129] Top shape: 32 1 (32)
I0530 22:56:00.467403 26600 net.cpp:129] Top shape: 32 1 (32)
I0530 22:56:00.467406 26600 net.cpp:137] Memory required for data: 786816
I0530 22:56:00.467409 26600 layer_factory.hpp:77] Creating layer reshape
I0530 22:56:00.467420 26600 net.cpp:84] Creating Layer reshape
I0530 22:56:00.467424 26600 net.cpp:406] reshape <- data
I0530 22:56:00.467429 26600 net.cpp:380] reshape -> data_reshape
I0530 22:56:00.467458 26600 net.cpp:122] Setting up reshape
I0530 22:56:00.467465 26600 net.cpp:129] Top shape: 32 1 2048 3 (196608)
I0530 22:56:00.467468 26600 net.cpp:137] Memory required for data: 1573248
I0530 22:56:00.467470 26600 layer_factory.hpp:77] Creating layer conv1
I0530 22:56:00.467479 26600 net.cpp:84] Creating Layer conv1
I0530 22:56:00.467483 26600 net.cpp:406] conv1 <- data_reshape
I0530 22:56:00.467489 26600 net.cpp:380] conv1 -> conv1
I0530 22:56:00.469513 26600 net.cpp:122] Setting up conv1
I0530 22:56:00.469527 26600 net.cpp:129] Top shape: 32 64 2048 1 (4194304)
I0530 22:56:00.469530 26600 net.cpp:137] Memory required for data: 18350464
I0530 22:56:00.469539 26600 layer_factory.hpp:77] Creating layer bn1
I0530 22:56:00.469547 26600 net.cpp:84] Creating Layer bn1
I0530 22:56:00.469550 26600 net.cpp:406] bn1 <- conv1
I0530 22:56:00.469555 26600 net.cpp:380] bn1 -> bn1
I0530 22:56:00.469713 26600 net.cpp:122] Setting up bn1
I0530 22:56:00.469720 26600 net.cpp:129] Top shape: 32 64 2048 1 (4194304)
I0530 22:56:00.469723 26600 net.cpp:137] Memory required for data: 35127680
I0530 22:56:00.469732 26600 layer_factory.hpp:77] Creating layer scale1
I0530 22:56:00.469736 26600 net.cpp:84] Creating Layer scale1
I0530 22:56:00.469739 26600 net.cpp:406] scale1 <- bn1
I0530 22:56:00.469743 26600 net.cpp:380] scale1 -> scale1
I0530 22:56:00.469779 26600 layer_factory.hpp:77] Creating layer scale1
I0530 22:56:00.469866 26600 net.cpp:122] Setting up scale1
I0530 22:56:00.469871 26600 net.cpp:129] Top shape: 32 64 2048 1 (4194304)
I0530 22:56:00.469874 26600 net.cpp:137] Memory required for data: 51904896
I0530 22:56:00.469879 26600 layer_factory.hpp:77] Creating layer relu1
I0530 22:56:00.469884 26600 net.cpp:84] Creating Layer relu1
I0530 22:56:00.469887 26600 net.cpp:406] relu1 <- scale1
I0530 22:56:00.469892 26600 net.cpp:367] relu1 -> scale1 (in-place)
I0530 22:56:00.471244 26600 net.cpp:122] Setting up relu1
I0530 22:56:00.471266 26600 net.cpp:129] Top shape: 32 64 2048 1 (4194304)
I0530 22:56:00.471269 26600 net.cpp:137] Memory required for data: 68682112
I0530 22:56:00.471272 26600 layer_factory.hpp:77] Creating layer conv2
I0530 22:56:00.471280 26600 net.cpp:84] Creating Layer conv2
I0530 22:56:00.471284 26600 net.cpp:406] conv2 <- scale1
I0530 22:56:00.471289 26600 net.cpp:380] conv2 -> conv2
I0530 22:56:00.478134 26600 net.cpp:122] Setting up conv2
I0530 22:56:00.478147 26600 net.cpp:129] Top shape: 32 64 2048 1 (4194304)
I0530 22:56:00.478150 26600 net.cpp:137] Memory required for data: 85459328
I0530 22:56:00.478158 26600 layer_factory.hpp:77] Creating layer bn2
I0530 22:56:00.478165 26600 net.cpp:84] Creating Layer bn2
I0530 22:56:00.478168 26600 net.cpp:406] bn2 <- conv2
I0530 22:56:00.478173 26600 net.cpp:380] bn2 -> bn2
I0530 22:56:00.478328 26600 net.cpp:122] Setting up bn2
I0530 22:56:00.478334 26600 net.cpp:129] Top shape: 32 64 2048 1 (4194304)
I0530 22:56:00.478338 26600 net.cpp:137] Memory required for data: 102236544
I0530 22:56:00.478343 26600 layer_factory.hpp:77] Creating layer scale2
I0530 22:56:00.478361 26600 net.cpp:84] Creating Layer scale2
I0530 22:56:00.478366 26600 net.cpp:406] scale2 <- bn2
I0530 22:56:00.478374 26600 net.cpp:380] scale2 -> scale2
I0530 22:56:00.478417 26600 layer_factory.hpp:77] Creating layer scale2
I0530 22:56:00.478513 26600 net.cpp:122] Setting up scale2
I0530 22:56:00.478523 26600 net.cpp:129] Top shape: 32 64 2048 1 (4194304)
I0530 22:56:00.478528 26600 net.cpp:137] Memory required for data: 119013760
I0530 22:56:00.478538 26600 layer_factory.hpp:77] Creating layer relu2
I0530 22:56:00.478559 26600 net.cpp:84] Creating Layer relu2
I0530 22:56:00.478565 26600 net.cpp:406] relu2 <- scale2
I0530 22:56:00.478572 26600 net.cpp:367] relu2 -> scale2 (in-place)
I0530 22:56:00.480341 26600 net.cpp:122] Setting up relu2
I0530 22:56:00.480355 26600 net.cpp:129] Top shape: 32 64 2048 1 (4194304)
I0530 22:56:00.480360 26600 net.cpp:137] Memory required for data: 135790976
I0530 22:56:00.480365 26600 layer_factory.hpp:77] Creating layer conv3
I0530 22:56:00.480378 26600 net.cpp:84] Creating Layer conv3
I0530 22:56:00.480384 26600 net.cpp:406] conv3 <- scale2
I0530 22:56:00.480392 26600 net.cpp:380] conv3 -> conv3
I0530 22:56:00.487202 26600 net.cpp:122] Setting up conv3
I0530 22:56:00.487221 26600 net.cpp:129] Top shape: 32 64 2048 1 (4194304)
I0530 22:56:00.487226 26600 net.cpp:137] Memory required for data: 152568192
I0530 22:56:00.487236 26600 layer_factory.hpp:77] Creating layer bn3
I0530 22:56:00.487263 26600 net.cpp:84] Creating Layer bn3
I0530 22:56:00.487269 26600 net.cpp:406] bn3 <- conv3
I0530 22:56:00.487279 26600 net.cpp:380] bn3 -> bn3
I0530 22:56:00.487455 26600 net.cpp:122] Setting up bn3
I0530 22:56:00.487465 26600 net.cpp:129] Top shape: 32 64 2048 1 (4194304)
I0530 22:56:00.487470 26600 net.cpp:137] Memory required for data: 169345408
I0530 22:56:00.487486 26600 layer_factory.hpp:77] Creating layer scale3
I0530 22:56:00.487495 26600 net.cpp:84] Creating Layer scale3
I0530 22:56:00.487501 26600 net.cpp:406] scale3 <- bn3
I0530 22:56:00.487509 26600 net.cpp:380] scale3 -> scale3
I0530 22:56:00.487553 26600 layer_factory.hpp:77] Creating layer scale3
I0530 22:56:00.487649 26600 net.cpp:122] Setting up scale3
I0530 22:56:00.487658 26600 net.cpp:129] Top shape: 32 64 2048 1 (4194304)
I0530 22:56:00.487663 26600 net.cpp:137] Memory required for data: 186122624
I0530 22:56:00.487673 26600 layer_factory.hpp:77] Creating layer relu3
I0530 22:56:00.487682 26600 net.cpp:84] Creating Layer relu3
I0530 22:56:00.487689 26600 net.cpp:406] relu3 <- scale3
I0530 22:56:00.487695 26600 net.cpp:367] relu3 -> scale3 (in-place)
I0530 22:56:00.488337 26600 net.cpp:122] Setting up relu3
I0530 22:56:00.488350 26600 net.cpp:129] Top shape: 32 64 2048 1 (4194304)
I0530 22:56:00.488356 26600 net.cpp:137] Memory required for data: 202899840
I0530 22:56:00.488361 26600 layer_factory.hpp:77] Creating layer conv4
I0530 22:56:00.488375 26600 net.cpp:84] Creating Layer conv4
I0530 22:56:00.488395 26600 net.cpp:406] conv4 <- scale3
I0530 22:56:00.488405 26600 net.cpp:380] conv4 -> conv4
I0530 22:56:00.492844 26600 net.cpp:122] Setting up conv4
I0530 22:56:00.492863 26600 net.cpp:129] Top shape: 32 128 2048 1 (8388608)
I0530 22:56:00.492871 26600 net.cpp:137] Memory required for data: 236454272
I0530 22:56:00.492882 26600 layer_factory.hpp:77] Creating layer bn4
I0530 22:56:00.492893 26600 net.cpp:84] Creating Layer bn4
I0530 22:56:00.492897 26600 net.cpp:406] bn4 <- conv4
I0530 22:56:00.492904 26600 net.cpp:380] bn4 -> bn4
I0530 22:56:00.493067 26600 net.cpp:122] Setting up bn4
I0530 22:56:00.493077 26600 net.cpp:129] Top shape: 32 128 2048 1 (8388608)
I0530 22:56:00.493082 26600 net.cpp:137] Memory required for data: 270008704
I0530 22:56:00.493093 26600 layer_factory.hpp:77] Creating layer scale4
I0530 22:56:00.493100 26600 net.cpp:84] Creating Layer scale4
I0530 22:56:00.493106 26600 net.cpp:406] scale4 <- bn4
I0530 22:56:00.493114 26600 net.cpp:380] scale4 -> scale4
I0530 22:56:00.493155 26600 layer_factory.hpp:77] Creating layer scale4
I0530 22:56:00.493244 26600 net.cpp:122] Setting up scale4
I0530 22:56:00.493253 26600 net.cpp:129] Top shape: 32 128 2048 1 (8388608)
I0530 22:56:00.493258 26600 net.cpp:137] Memory required for data: 303563136
I0530 22:56:00.493268 26600 layer_factory.hpp:77] Creating layer relu4
I0530 22:56:00.493275 26600 net.cpp:84] Creating Layer relu4
I0530 22:56:00.493281 26600 net.cpp:406] relu4 <- scale4
I0530 22:56:00.493289 26600 net.cpp:367] relu4 -> scale4 (in-place)
I0530 22:56:00.493980 26600 net.cpp:122] Setting up relu4
I0530 22:56:00.493993 26600 net.cpp:129] Top shape: 32 128 2048 1 (8388608)
I0530 22:56:00.493999 26600 net.cpp:137] Memory required for data: 337117568
I0530 22:56:00.494005 26600 layer_factory.hpp:77] Creating layer conv5
I0530 22:56:00.494019 26600 net.cpp:84] Creating Layer conv5
I0530 22:56:00.494024 26600 net.cpp:406] conv5 <- scale4
I0530 22:56:00.494032 26600 net.cpp:380] conv5 -> conv5
I0530 22:56:00.499203 26600 net.cpp:122] Setting up conv5
I0530 22:56:00.499222 26600 net.cpp:129] Top shape: 32 1024 2048 1 (67108864)
I0530 22:56:00.499227 26600 net.cpp:137] Memory required for data: 605553024
I0530 22:56:00.499236 26600 layer_factory.hpp:77] Creating layer bn5
I0530 22:56:00.499248 26600 net.cpp:84] Creating Layer bn5
I0530 22:56:00.499255 26600 net.cpp:406] bn5 <- conv5
I0530 22:56:00.499264 26600 net.cpp:380] bn5 -> bn5
I0530 22:56:00.499434 26600 net.cpp:122] Setting up bn5
I0530 22:56:00.499444 26600 net.cpp:129] Top shape: 32 1024 2048 1 (67108864)
I0530 22:56:00.499449 26600 net.cpp:137] Memory required for data: 873988480
I0530 22:56:00.499465 26600 layer_factory.hpp:77] Creating layer scale5
I0530 22:56:00.499474 26600 net.cpp:84] Creating Layer scale5
I0530 22:56:00.499480 26600 net.cpp:406] scale5 <- bn5
I0530 22:56:00.499488 26600 net.cpp:380] scale5 -> scale5
I0530 22:56:00.499529 26600 layer_factory.hpp:77] Creating layer scale5
I0530 22:56:00.499621 26600 net.cpp:122] Setting up scale5
I0530 22:56:00.499630 26600 net.cpp:129] Top shape: 32 1024 2048 1 (67108864)
I0530 22:56:00.499636 26600 net.cpp:137] Memory required for data: 1142423936
I0530 22:56:00.499646 26600 layer_factory.hpp:77] Creating layer relu5
I0530 22:56:00.499655 26600 net.cpp:84] Creating Layer relu5
I0530 22:56:00.499661 26600 net.cpp:406] relu5 <- scale5
I0530 22:56:00.499668 26600 net.cpp:367] relu5 -> scale5 (in-place)
I0530 22:56:00.501302 26600 net.cpp:122] Setting up relu5
I0530 22:56:00.501317 26600 net.cpp:129] Top shape: 32 1024 2048 1 (67108864)
I0530 22:56:00.501323 26600 net.cpp:137] Memory required for data: 1410859392
I0530 22:56:00.501328 26600 layer_factory.hpp:77] Creating layer pool
I0530 22:56:00.501338 26600 net.cpp:84] Creating Layer pool
I0530 22:56:00.501345 26600 net.cpp:406] pool <- scale5
I0530 22:56:00.501353 26600 net.cpp:380] pool -> global_feat
I0530 22:56:00.501400 26600 net.cpp:122] Setting up pool
I0530 22:56:00.501410 26600 net.cpp:129] Top shape: 32 1024 1 1 (32768)
I0530 22:56:00.501415 26600 net.cpp:137] Memory required for data: 1410990464
I0530 22:56:00.501436 26600 layer_factory.hpp:77] Creating layer fc1
I0530 22:56:00.501447 26600 net.cpp:84] Creating Layer fc1
I0530 22:56:00.501453 26600 net.cpp:406] fc1 <- global_feat
I0530 22:56:00.501461 26600 net.cpp:380] fc1 -> fc1
I0530 22:56:00.513833 26600 net.cpp:122] Setting up fc1
I0530 22:56:00.513864 26600 net.cpp:129] Top shape: 32 512 (16384)
I0530 22:56:00.513870 26600 net.cpp:137] Memory required for data: 1411056000
I0530 22:56:00.513881 26600 layer_factory.hpp:77] Creating layer bn6
I0530 22:56:00.513892 26600 net.cpp:84] Creating Layer bn6
I0530 22:56:00.513900 26600 net.cpp:406] bn6 <- fc1
I0530 22:56:00.513911 26600 net.cpp:380] bn6 -> bn6
I0530 22:56:00.514082 26600 net.cpp:122] Setting up bn6
I0530 22:56:00.514091 26600 net.cpp:129] Top shape: 32 512 (16384)
I0530 22:56:00.514096 26600 net.cpp:137] Memory required for data: 1411121536
I0530 22:56:00.514106 26600 layer_factory.hpp:77] Creating layer scale6
I0530 22:56:00.514116 26600 net.cpp:84] Creating Layer scale6
I0530 22:56:00.514122 26600 net.cpp:406] scale6 <- bn6
I0530 22:56:00.514129 26600 net.cpp:380] scale6 -> scale6
I0530 22:56:00.514169 26600 layer_factory.hpp:77] Creating layer scale6
I0530 22:56:00.514263 26600 net.cpp:122] Setting up scale6
I0530 22:56:00.514272 26600 net.cpp:129] Top shape: 32 512 (16384)
I0530 22:56:00.514277 26600 net.cpp:137] Memory required for data: 1411187072
I0530 22:56:00.514286 26600 layer_factory.hpp:77] Creating layer relu6
I0530 22:56:00.514294 26600 net.cpp:84] Creating Layer relu6
I0530 22:56:00.514300 26600 net.cpp:406] relu6 <- scale6
I0530 22:56:00.514307 26600 net.cpp:367] relu6 -> scale6 (in-place)
I0530 22:56:00.514520 26600 net.cpp:122] Setting up relu6
I0530 22:56:00.514530 26600 net.cpp:129] Top shape: 32 512 (16384)
I0530 22:56:00.514535 26600 net.cpp:137] Memory required for data: 1411252608
I0530 22:56:00.514541 26600 layer_factory.hpp:77] Creating layer fc2
I0530 22:56:00.514552 26600 net.cpp:84] Creating Layer fc2
I0530 22:56:00.514559 26600 net.cpp:406] fc2 <- scale6
I0530 22:56:00.514566 26600 net.cpp:380] fc2 -> fc2
I0530 22:56:00.517627 26600 net.cpp:122] Setting up fc2
I0530 22:56:00.517650 26600 net.cpp:129] Top shape: 32 256 (8192)
I0530 22:56:00.517655 26600 net.cpp:137] Memory required for data: 1411285376
I0530 22:56:00.517668 26600 layer_factory.hpp:77] Creating layer bn7
I0530 22:56:00.517678 26600 net.cpp:84] Creating Layer bn7
I0530 22:56:00.517706 26600 net.cpp:406] bn7 <- fc2
I0530 22:56:00.517719 26600 net.cpp:380] bn7 -> bn7
I0530 22:56:00.517887 26600 net.cpp:122] Setting up bn7
I0530 22:56:00.517896 26600 net.cpp:129] Top shape: 32 256 (8192)
I0530 22:56:00.517901 26600 net.cpp:137] Memory required for data: 1411318144
I0530 22:56:00.517912 26600 layer_factory.hpp:77] Creating layer scale7
I0530 22:56:00.517921 26600 net.cpp:84] Creating Layer scale7
I0530 22:56:00.517926 26600 net.cpp:406] scale7 <- bn7
I0530 22:56:00.517935 26600 net.cpp:380] scale7 -> scale7
I0530 22:56:00.517979 26600 layer_factory.hpp:77] Creating layer scale7
I0530 22:56:00.518071 26600 net.cpp:122] Setting up scale7
I0530 22:56:00.518080 26600 net.cpp:129] Top shape: 32 256 (8192)
I0530 22:56:00.518085 26600 net.cpp:137] Memory required for data: 1411350912
I0530 22:56:00.518093 26600 layer_factory.hpp:77] Creating layer relu7
I0530 22:56:00.518101 26600 net.cpp:84] Creating Layer relu7
I0530 22:56:00.518106 26600 net.cpp:406] relu7 <- scale7
I0530 22:56:00.518113 26600 net.cpp:367] relu7 -> scale7 (in-place)
I0530 22:56:00.518678 26600 net.cpp:122] Setting up relu7
I0530 22:56:00.518692 26600 net.cpp:129] Top shape: 32 256 (8192)
I0530 22:56:00.518698 26600 net.cpp:137] Memory required for data: 1411383680
I0530 22:56:00.518703 26600 layer_factory.hpp:77] Creating layer drop1
I0530 22:56:00.518718 26600 net.cpp:84] Creating Layer drop1
I0530 22:56:00.518725 26600 net.cpp:406] drop1 <- scale7
I0530 22:56:00.518734 26600 net.cpp:380] drop1 -> drop1
I0530 22:56:00.518785 26600 net.cpp:122] Setting up drop1
I0530 22:56:00.518795 26600 net.cpp:129] Top shape: 32 256 (8192)
I0530 22:56:00.518820 26600 net.cpp:137] Memory required for data: 1411416448
I0530 22:56:00.518826 26600 layer_factory.hpp:77] Creating layer fc3
I0530 22:56:00.518836 26600 net.cpp:84] Creating Layer fc3
I0530 22:56:00.518843 26600 net.cpp:406] fc3 <- drop1
I0530 22:56:00.518852 26600 net.cpp:380] fc3 -> fc3
I0530 22:56:00.519196 26600 net.cpp:122] Setting up fc3
I0530 22:56:00.519207 26600 net.cpp:129] Top shape: 32 40 (1280)
I0530 22:56:00.519212 26600 net.cpp:137] Memory required for data: 1411421568
I0530 22:56:00.519222 26600 layer_factory.hpp:77] Creating layer fc3_fc3_0_split
I0530 22:56:00.519229 26600 net.cpp:84] Creating Layer fc3_fc3_0_split
I0530 22:56:00.519235 26600 net.cpp:406] fc3_fc3_0_split <- fc3
I0530 22:56:00.519243 26600 net.cpp:380] fc3_fc3_0_split -> fc3_fc3_0_split_0
I0530 22:56:00.519253 26600 net.cpp:380] fc3_fc3_0_split -> fc3_fc3_0_split_1
I0530 22:56:00.519297 26600 net.cpp:122] Setting up fc3_fc3_0_split
I0530 22:56:00.519307 26600 net.cpp:129] Top shape: 32 40 (1280)
I0530 22:56:00.519312 26600 net.cpp:129] Top shape: 32 40 (1280)
I0530 22:56:00.519317 26600 net.cpp:137] Memory required for data: 1411431808
I0530 22:56:00.519322 26600 layer_factory.hpp:77] Creating layer accuracy
I0530 22:56:00.519332 26600 net.cpp:84] Creating Layer accuracy
I0530 22:56:00.519338 26600 net.cpp:406] accuracy <- fc3_fc3_0_split_0
I0530 22:56:00.519345 26600 net.cpp:406] accuracy <- label_data_1_split_0
I0530 22:56:00.519353 26600 net.cpp:380] accuracy -> accuracy
…
