…
I0531 19:34:51.365847 14335 net.cpp:294] The NetState phase (0) differed from the phase (1) specified by a rule in layer data
I0531 19:34:51.365878 14335 net.cpp:294] The NetState phase (0) differed from the phase (1) specified by a rule in layer accuracy
I0531 19:34:51.366071 14335 net.cpp:51] Initializing net from parameters: 
name: "pointnet_cls_basic"
state {
  phase: TRAIN
  level: 0
  stage: ""
}
layer {
  name: "data"
  type: "HDF5Data"
  top: "data"
  top: "label"
  include {
    phase: TRAIN
  }
  hdf5_data_param {
    source: "data/modelnet40_ply_hdf5_2048/train_files.txt"
    batch_size: 32
  }
}
layer {
  name: "reshape"
  type: "Reshape"
  bottom: "data"
  top: "data_reshape"
  reshape_param {
    shape {
      dim: 0
      dim: 1
      dim: -1
      dim: 3
    }
  }
}
layer {
  name: "conv1_tnet1"
  type: "Convolution"
  bottom: "data_reshape"
  top: "conv1_tnet1"
  param {
    lr_mult: 1
  }
  param {
    lr_mult: 2
  }
  convolution_param {
    num_output: 64
    pad: 0
    stride: 1
    weight_filler {
      type: "xavier"
    }
    bias_filler {
      type: "constant"
      value: 0
    }
    kernel_h: 1
    kernel_w: 3
  }
}
layer {
  name: "bn1_tnet1"
  type: "BatchNorm"
  bottom: "conv1_tnet1"
  top: "bn1_tnet1"
}
layer {
  name: "scale1_tnet1"
  type: "Scale"
  bottom: "bn1_tnet1"
  top: "scale1_tnet1"
  scale_param {
    bias_term: true
  }
}
layer {
  name: "relu1_tnet1"
  type: "ReLU"
  bottom: "scale1_tnet1"
  top: "scale1_tnet1"
}
layer {
  name: "conv2_tnet1"
  type: "Convolution"
  bottom: "scale1_tnet1"
  top: "conv2_tnet1"
  param {
    lr_mult: 1
  }
  param {
    lr_mult: 2
  }
  convolution_param {
    num_output: 128
    pad: 0
    stride: 1
    weight_filler {
      type: "xavier"
    }
    bias_filler {
      type: "constant"
      value: 0
    }
    kernel_h: 1
    kernel_w: 1
  }
}
layer {
  name: "bn2_tnet1"
  type: "BatchNorm"
  bottom: "conv2_tnet1"
  top: "bn2_tnet1"
}
layer {
  name: "scale2_tnet1"
  type: "Scale"
  bottom: "bn2_tnet1"
  top: "scale2_tnet1"
  scale_param {
    bias_term: true
  }
}
layer {
  name: "relu2_tnet1"
  type: "ReLU"
  bottom: "scale2_tnet1"
  top: "scale2_tnet1"
}
layer {
  name: "conv3_tnet1"
  type: "Convolution"
  bottom: "scale2_tnet1"
  top: "conv3_tnet1"
  param {
    lr_mult: 1
  }
  param {
    lr_mult: 2
  }
  convolution_param {
    num_output: 1024
    pad: 0
    stride: 1
    weight_filler {
      type: "xavier"
    }
    bias_filler {
      type: "constant"
      value: 0
    }
    kernel_h: 1
    kernel_w: 1
  }
}
layer {
  name: "bn3_tnet1"
  type: "BatchNorm"
  bottom: "conv3_tnet1"
  top: "bn3_tnet1"
}
layer {
  name: "scale3_tnet1"
  type: "Scale"
  bottom: "bn3_tnet1"
  top: "scale3_tnet1"
  scale_param {
    bias_term: true
  }
}
layer {
  name: "relu3_tnet1"
  type: "ReLU"
  bottom: "scale3_tnet1"
  top: "scale3_tnet1"
}
layer {
  name: "pool_tnet1"
  type: "Pooling"
  bottom: "scale3_tnet1"
  top: "global_feat_tnet1"
  pooling_param {
    pool: MAX
    stride: 1
    pad: 0
    kernel_h: 2048
    kernel_w: 1
  }
}
layer {
  name: "fc1_tnet1"
  type: "InnerProduct"
  bottom: "global_feat_tnet1"
  top: "fc1_tnet1"
  param {
    lr_mult: 1
    decay_mult: 1
  }
  param {
    lr_mult: 1
    decay_mult: 1
  }
  inner_product_param {
    num_output: 512
    weight_filler {
      type: "gaussian"
      std: 0.001
    }
    bias_filler {
      type: "constant"
      value: 0
    }
  }
}
layer {
  name: "bn6_tnet1"
  type: "BatchNorm"
  bottom: "fc1_tnet1"
  top: "bn6_tnet1"
}
layer {
  name: "scale6_tnet1"
  type: "Scale"
  bottom: "bn6_tnet1"
  top: "scale6_tnet1"
  scale_param {
    bias_term: true
  }
}
layer {
  name: "relu6_tnet1"
  type: "ReLU"
  bottom: "scale6_tnet1"
  top: "scale6_tnet1"
}
layer {
  name: "fc2_tnet1"
  type: "InnerProduct"
  bottom: "scale6_tnet1"
  top: "fc2_tnet1"
  param {
    lr_mult: 1
    decay_mult: 1
  }
  param {
    lr_mult: 1
    decay_mult: 1
  }
  inner_product_param {
    num_output: 256
    weight_filler {
      type: "gaussian"
      std: 0.001
    }
    bias_filler {
      type: "constant"
      value: 0
    }
  }
}
layer {
  name: "bn7_tnet1"
  type: "BatchNorm"
  bottom: "fc2_tnet1"
  top: "bn7_tnet1"
}
layer {
  name: "scale7_tnet1"
  type: "Scale"
  bottom: "bn7_tnet1"
  top: "scale7_tnet1"
  scale_param {
    bias_term: true
  }
}
layer {
  name: "relu7_tnet1"
  type: "ReLU"
  bottom: "scale7_tnet1"
  top: "scale7_tnet1"
}
layer {
  name: "fc3_tnet1"
  type: "InnerProduct"
  bottom: "scale7_tnet1"
  top: "fc3_tnet1"
  param {
    lr_mult: 1
    decay_mult: 1
  }
  param {
    lr_mult: 1
    decay_mult: 1
  }
  inner_product_param {
    num_output: 9
    weight_filler {
      type: "constant"
      value: 0
    }
    bias_filler {
      type: "constant"
      value: 0
    }
  }
}
layer {
  name: "reshape_tnet1"
  type: "Reshape"
  bottom: "fc3_tnet1"
  top: "fc3_tnet1_reshape"
  reshape_param {
    shape {
      dim: -1
      dim: 3
      dim: 3
    }
  }
}
layer {
  name: "eye_tnet1"
  type: "Python"
  bottom: "fc3_tnet1"
  top: "eye_tnet1"
  python_param {
    module: "eye_matrix_layer"
    layer: "EyeMatrixLayer"
    param_str: "{\'K\': 3}"
  }
}
layer {
  name: "eltwise_sum_tnet1"
  type: "Eltwise"
  bottom: "fc3_tnet1_reshape"
  bottom: "eye_tnet1"
  top: "transform1"
  eltwise_param {
    operation: SUM
  }
}
layer {
  name: "matmul_input"
  type: "MatrixMultiplication"
  bottom: "data"
  bottom: "transform1"
  top: "data_transform1"
}
layer {
  name: "reshape"
  type: "Reshape"
  bottom: "data_transform1"
  top: "data_transform1_reshape"
  reshape_param {
    shape {
      dim: 0
      dim: 1
      dim: -1
      dim: 3
    }
  }
}
layer {
  name: "conv1"
  type: "Convolution"
  bottom: "data_transform1_reshape"
  top: "conv1"
  param {
    lr_mult: 1
  }
  param {
    lr_mult: 2
  }
  convolution_param {
    num_output: 64
    pad: 0
    stride: 1
    weight_filler {
      type: "xavier"
    }
    bias_filler {
      type: "constant"
      value: 0
    }
    kernel_h: 1
    kernel_w: 3
  }
}
layer {
  name: "bn1"
  type: "BatchNorm"
  bottom: "conv1"
  top: "bn1"
}
layer {
  name: "scale1"
  type: "Scale"
  bottom: "bn1"
  top: "scale1"
  scale_param {
    bias_term: true
  }
}
layer {
  name: "relu1"
  type: "ReLU"
  bottom: "scale1"
  top: "scale1"
}
layer {
  name: "conv2"
  type: "Convolution"
  bottom: "scale1"
  top: "conv2"
  param {
    lr_mult: 1
  }
  param {
    lr_mult: 2
  }
  convolution_param {
    num_output: 64
    pad: 0
    stride: 1
    weight_filler {
      type: "xavier"
    }
    bias_filler {
      type: "constant"
      value: 0
    }
    kernel_h: 1
    kernel_w: 1
  }
}
layer {
  name: "bn2"
  type: "BatchNorm"
  bottom: "conv2"
  top: "bn2"
}
layer {
  name: "scale2"
  type: "Scale"
  bottom: "bn2"
  top: "scale2"
  scale_param {
    bias_term: true
  }
}
layer {
  name: "relu2"
  type: "ReLU"
  bottom: "scale2"
  top: "scale2"
}
layer {
  name: "conv3"
  type: "Convolution"
  bottom: "scale2"
  top: "conv3"
  param {
    lr_mult: 1
  }
  param {
    lr_mult: 2
  }
  convolution_param {
    num_output: 64
    pad: 0
    stride: 1
    weight_filler {
      type: "xavier"
    }
    bias_filler {
      type: "constant"
      value: 0
    }
    kernel_h: 1
    kernel_w: 1
  }
}
layer {
  name: "bn3"
  type: "BatchNorm"
  bottom: "conv3"
  top: "bn3"
}
layer {
  name: "scale3"
  type: "Scale"
  bottom: "bn3"
  top: "scale3"
  scale_param {
    bias_term: true
  }
}
layer {
  name: "relu3"
  type: "ReLU"
  bottom: "scale3"
  top: "scale3"
}
layer {
  name: "conv4"
  type: "Convolution"
  bottom: "scale3"
  top: "conv4"
  param {
    lr_mult: 1
  }
  param {
    lr_mult: 2
  }
  convolution_param {
    num_output: 128
    pad: 0
    stride: 1
    weight_filler {
      type: "xavier"
    }
    bias_filler {
      type: "constant"
      value: 0
    }
    kernel_h: 1
    kernel_w: 1
  }
}
layer {
  name: "bn4"
  type: "BatchNorm"
  bottom: "conv4"
  top: "bn4"
}
layer {
  name: "scale4"
  type: "Scale"
  bottom: "bn4"
  top: "scale4"
  scale_param {
    bias_term: true
  }
}
layer {
  name: "relu4"
  type: "ReLU"
  bottom: "scale4"
  top: "scale4"
}
layer {
  name: "conv5"
  type: "Convolution"
  bottom: "scale4"
  top: "conv5"
  param {
    lr_mult: 1
  }
  param {
    lr_mult: 2
  }
  convolution_param {
    num_output: 1024
    pad: 0
    stride: 1
    weight_filler {
      type: "xavier"
    }
    bias_filler {
      type: "constant"
      value: 0
    }
    kernel_h: 1
    kernel_w: 1
  }
}
layer {
  name: "bn5"
  type: "BatchNorm"
  bottom: "conv5"
  top: "bn5"
}
layer {
  name: "scale5"
  type: "Scale"
  bottom: "bn5"
  top: "scale5"
  scale_param {
    bias_term: true
  }
}
layer {
  name: "relu5"
  type: "ReLU"
  bottom: "scale5"
  top: "scale5"
}
layer {
  name: "pool"
  type: "Pooling"
  bottom: "scale5"
  top: "global_feat"
  pooling_param {
    pool: MAX
    stride: 1
    pad: 0
    kernel_h: 2048
    kernel_w: 1
  }
}
layer {
  name: "fc1"
  type: "InnerProduct"
  bottom: "global_feat"
  top: "fc1"
  param {
    lr_mult: 1
    decay_mult: 1
  }
  param {
    lr_mult: 1
    decay_mult: 1
  }
  inner_product_param {
    num_output: 512
    weight_filler {
      type: "gaussian"
      std: 0.001
    }
    bias_filler {
      type: "constant"
      value: 0
    }
  }
}
layer {
  name: "bn6"
  type: "BatchNorm"
  bottom: "fc1"
  top: "bn6"
}
layer {
  name: "scale6"
  type: "Scale"
  bottom: "bn6"
  top: "scale6"
  scale_param {
    bias_term: true
  }
}
layer {
  name: "relu6"
  type: "ReLU"
  bottom: "scale6"
  top: "scale6"
}
layer {
  name: "fc2"
  type: "InnerProduct"
  bottom: "scale6"
  top: "fc2"
  param {
    lr_mult: 1
    decay_mult: 1
  }
  param {
    lr_mult: 1
    decay_mult: 1
  }
  inner_product_param {
    num_output: 256
    weight_filler {
      type: "gaussian"
      std: 0.001
    }
    bias_filler {
      type: "constant"
      value: 0
    }
  }
}
layer {
  name: "bn7"
  type: "BatchNorm"
  bottom: "fc2"
  top: "bn7"
}
layer {
  name: "scale7"
  type: "Scale"
  bottom: "bn7"
  top: "scale7"
  scale_param {
    bias_term: true
  }
}
layer {
  name: "relu7"
  type: "ReLU"
  bottom: "scale7"
  top: "scale7"
}
layer {
  name: "drop1"
  type: "Dropout"
  bottom: "scale7"
  top: "drop1"
  dropout_param {
    dropout_ratio: 0.3
  }
}
layer {
  name: "fc3"
  type: "InnerProduct"
  bottom: "drop1"
  top: "fc3"
  param {
    lr_mult: 1
    decay_mult: 1
  }
  param {
    lr_mult: 1
    decay_mult: 1
  }
  inner_product_param {
    num_output: 40
    weight_filler {
      type: "gaussian"
      std: 0.001
    }
    bias_filler {
      type: "constant"
      value: 0
    }
  }
}
layer {
  name: "loss"
  type: "SoftmaxWithLoss"
  bottom: "fc3"
  bottom: "label"
  top: "loss"
}
I0531 19:34:51.366267 14335 layer_factory.hpp:77] Creating layer data
I0531 19:34:51.366281 14335 net.cpp:84] Creating Layer data
I0531 19:34:51.366286 14335 net.cpp:380] data -> data
I0531 19:34:51.366300 14335 net.cpp:380] data -> label
I0531 19:34:51.366308 14335 hdf5_data_layer.cpp:80] Loading list of HDF5 filenames from: data/modelnet40_ply_hdf5_2048/train_files.txt
I0531 19:34:51.366330 14335 hdf5_data_layer.cpp:94] Number of HDF5 files: 5
I0531 19:34:51.366968 14335 hdf5.cpp:32] Datatype class: H5T_FLOAT
I0531 19:34:51.704685 14335 hdf5.cpp:35] Datatype class: H5T_INTEGER
I0531 19:34:51.705426 14335 net.cpp:122] Setting up data
I0531 19:34:51.705443 14335 net.cpp:129] Top shape: 32 2048 3 (196608)
I0531 19:34:51.705451 14335 net.cpp:129] Top shape: 32 1 (32)
I0531 19:34:51.705457 14335 net.cpp:137] Memory required for data: 786560
I0531 19:34:51.705466 14335 layer_factory.hpp:77] Creating layer data_data_0_split
I0531 19:34:51.705492 14335 net.cpp:84] Creating Layer data_data_0_split
I0531 19:34:51.705498 14335 net.cpp:406] data_data_0_split <- data
I0531 19:34:51.705509 14335 net.cpp:380] data_data_0_split -> data_data_0_split_0
I0531 19:34:51.705520 14335 net.cpp:380] data_data_0_split -> data_data_0_split_1
I0531 19:34:51.705552 14335 net.cpp:122] Setting up data_data_0_split
I0531 19:34:51.705559 14335 net.cpp:129] Top shape: 32 2048 3 (196608)
I0531 19:34:51.705562 14335 net.cpp:129] Top shape: 32 2048 3 (196608)
I0531 19:34:51.705566 14335 net.cpp:137] Memory required for data: 2359424
I0531 19:34:51.705571 14335 layer_factory.hpp:77] Creating layer reshape
I0531 19:34:51.705581 14335 net.cpp:84] Creating Layer reshape
I0531 19:34:51.705585 14335 net.cpp:406] reshape <- data_data_0_split_0
I0531 19:34:51.705590 14335 net.cpp:380] reshape -> data_reshape
I0531 19:34:51.705616 14335 net.cpp:122] Setting up reshape
I0531 19:34:51.705622 14335 net.cpp:129] Top shape: 32 1 2048 3 (196608)
I0531 19:34:51.705626 14335 net.cpp:137] Memory required for data: 3145856
I0531 19:34:51.705629 14335 layer_factory.hpp:77] Creating layer conv1_tnet1
I0531 19:34:51.705646 14335 net.cpp:84] Creating Layer conv1_tnet1
I0531 19:34:51.705653 14335 net.cpp:406] conv1_tnet1 <- data_reshape
I0531 19:34:51.705660 14335 net.cpp:380] conv1_tnet1 -> conv1_tnet1
I0531 19:34:51.964982 14335 net.cpp:122] Setting up conv1_tnet1
I0531 19:34:51.965011 14335 net.cpp:129] Top shape: 32 64 2048 1 (4194304)
I0531 19:34:51.965014 14335 net.cpp:137] Memory required for data: 19923072
I0531 19:34:51.965032 14335 layer_factory.hpp:77] Creating layer bn1_tnet1
I0531 19:34:51.965045 14335 net.cpp:84] Creating Layer bn1_tnet1
I0531 19:34:51.965052 14335 net.cpp:406] bn1_tnet1 <- conv1_tnet1
I0531 19:34:51.965060 14335 net.cpp:380] bn1_tnet1 -> bn1_tnet1
I0531 19:34:51.965219 14335 net.cpp:122] Setting up bn1_tnet1
I0531 19:34:51.965225 14335 net.cpp:129] Top shape: 32 64 2048 1 (4194304)
I0531 19:34:51.965229 14335 net.cpp:137] Memory required for data: 36700288
I0531 19:34:51.965237 14335 layer_factory.hpp:77] Creating layer scale1_tnet1
I0531 19:34:51.965247 14335 net.cpp:84] Creating Layer scale1_tnet1
I0531 19:34:51.965252 14335 net.cpp:406] scale1_tnet1 <- bn1_tnet1
I0531 19:34:51.965256 14335 net.cpp:380] scale1_tnet1 -> scale1_tnet1
I0531 19:34:51.965294 14335 layer_factory.hpp:77] Creating layer scale1_tnet1
I0531 19:34:51.965384 14335 net.cpp:122] Setting up scale1_tnet1
I0531 19:34:51.965390 14335 net.cpp:129] Top shape: 32 64 2048 1 (4194304)
I0531 19:34:51.965392 14335 net.cpp:137] Memory required for data: 53477504
I0531 19:34:51.965400 14335 layer_factory.hpp:77] Creating layer relu1_tnet1
I0531 19:34:51.965407 14335 net.cpp:84] Creating Layer relu1_tnet1
I0531 19:34:51.965412 14335 net.cpp:406] relu1_tnet1 <- scale1_tnet1
I0531 19:34:51.965418 14335 net.cpp:367] relu1_tnet1 -> scale1_tnet1 (in-place)
I0531 19:34:51.965715 14335 net.cpp:122] Setting up relu1_tnet1
I0531 19:34:51.965728 14335 net.cpp:129] Top shape: 32 64 2048 1 (4194304)
I0531 19:34:51.965734 14335 net.cpp:137] Memory required for data: 70254720
I0531 19:34:51.965739 14335 layer_factory.hpp:77] Creating layer conv2_tnet1
I0531 19:34:51.965750 14335 net.cpp:84] Creating Layer conv2_tnet1
I0531 19:34:51.965755 14335 net.cpp:406] conv2_tnet1 <- scale1_tnet1
I0531 19:34:51.965764 14335 net.cpp:380] conv2_tnet1 -> conv2_tnet1
I0531 19:34:51.967130 14335 net.cpp:122] Setting up conv2_tnet1
I0531 19:34:51.967146 14335 net.cpp:129] Top shape: 32 128 2048 1 (8388608)
I0531 19:34:51.967151 14335 net.cpp:137] Memory required for data: 103809152
I0531 19:34:51.967162 14335 layer_factory.hpp:77] Creating layer bn2_tnet1
I0531 19:34:51.967175 14335 net.cpp:84] Creating Layer bn2_tnet1
I0531 19:34:51.967177 14335 net.cpp:406] bn2_tnet1 <- conv2_tnet1
I0531 19:34:51.967182 14335 net.cpp:380] bn2_tnet1 -> bn2_tnet1
I0531 19:34:51.967334 14335 net.cpp:122] Setting up bn2_tnet1
I0531 19:34:51.967341 14335 net.cpp:129] Top shape: 32 128 2048 1 (8388608)
I0531 19:34:51.967344 14335 net.cpp:137] Memory required for data: 137363584
I0531 19:34:51.967370 14335 layer_factory.hpp:77] Creating layer scale2_tnet1
I0531 19:34:51.967377 14335 net.cpp:84] Creating Layer scale2_tnet1
I0531 19:34:51.967381 14335 net.cpp:406] scale2_tnet1 <- bn2_tnet1
I0531 19:34:51.967392 14335 net.cpp:380] scale2_tnet1 -> scale2_tnet1
I0531 19:34:51.967432 14335 layer_factory.hpp:77] Creating layer scale2_tnet1
I0531 19:34:51.967512 14335 net.cpp:122] Setting up scale2_tnet1
I0531 19:34:51.967519 14335 net.cpp:129] Top shape: 32 128 2048 1 (8388608)
I0531 19:34:51.967525 14335 net.cpp:137] Memory required for data: 170918016
I0531 19:34:51.967530 14335 layer_factory.hpp:77] Creating layer relu2_tnet1
I0531 19:34:51.967538 14335 net.cpp:84] Creating Layer relu2_tnet1
I0531 19:34:51.967543 14335 net.cpp:406] relu2_tnet1 <- scale2_tnet1
I0531 19:34:51.967546 14335 net.cpp:367] relu2_tnet1 -> scale2_tnet1 (in-place)
I0531 19:34:51.967710 14335 net.cpp:122] Setting up relu2_tnet1
I0531 19:34:51.967718 14335 net.cpp:129] Top shape: 32 128 2048 1 (8388608)
I0531 19:34:51.967725 14335 net.cpp:137] Memory required for data: 204472448
I0531 19:34:51.967727 14335 layer_factory.hpp:77] Creating layer conv3_tnet1
I0531 19:34:51.967737 14335 net.cpp:84] Creating Layer conv3_tnet1
I0531 19:34:51.967741 14335 net.cpp:406] conv3_tnet1 <- scale2_tnet1
I0531 19:34:51.967749 14335 net.cpp:380] conv3_tnet1 -> conv3_tnet1
I0531 19:34:51.970244 14335 net.cpp:122] Setting up conv3_tnet1
I0531 19:34:51.970273 14335 net.cpp:129] Top shape: 32 1024 2048 1 (67108864)
I0531 19:34:51.970278 14335 net.cpp:137] Memory required for data: 472907904
I0531 19:34:51.970288 14335 layer_factory.hpp:77] Creating layer bn3_tnet1
I0531 19:34:51.970299 14335 net.cpp:84] Creating Layer bn3_tnet1
I0531 19:34:51.970302 14335 net.cpp:406] bn3_tnet1 <- conv3_tnet1
I0531 19:34:51.970309 14335 net.cpp:380] bn3_tnet1 -> bn3_tnet1
I0531 19:34:51.970465 14335 net.cpp:122] Setting up bn3_tnet1
I0531 19:34:51.970472 14335 net.cpp:129] Top shape: 32 1024 2048 1 (67108864)
I0531 19:34:51.970476 14335 net.cpp:137] Memory required for data: 741343360
I0531 19:34:51.970487 14335 layer_factory.hpp:77] Creating layer scale3_tnet1
I0531 19:34:51.970494 14335 net.cpp:84] Creating Layer scale3_tnet1
I0531 19:34:51.970497 14335 net.cpp:406] scale3_tnet1 <- bn3_tnet1
I0531 19:34:51.970501 14335 net.cpp:380] scale3_tnet1 -> scale3_tnet1
I0531 19:34:51.970533 14335 layer_factory.hpp:77] Creating layer scale3_tnet1
I0531 19:34:51.970618 14335 net.cpp:122] Setting up scale3_tnet1
I0531 19:34:51.970624 14335 net.cpp:129] Top shape: 32 1024 2048 1 (67108864)
I0531 19:34:51.970628 14335 net.cpp:137] Memory required for data: 1009778816
I0531 19:34:51.970633 14335 layer_factory.hpp:77] Creating layer relu3_tnet1
I0531 19:34:51.970638 14335 net.cpp:84] Creating Layer relu3_tnet1
I0531 19:34:51.970641 14335 net.cpp:406] relu3_tnet1 <- scale3_tnet1
I0531 19:34:51.970646 14335 net.cpp:367] relu3_tnet1 -> scale3_tnet1 (in-place)
I0531 19:34:51.970950 14335 net.cpp:122] Setting up relu3_tnet1
I0531 19:34:51.970962 14335 net.cpp:129] Top shape: 32 1024 2048 1 (67108864)
I0531 19:34:51.970965 14335 net.cpp:137] Memory required for data: 1278214272
I0531 19:34:51.970968 14335 layer_factory.hpp:77] Creating layer pool_tnet1
I0531 19:34:51.970975 14335 net.cpp:84] Creating Layer pool_tnet1
I0531 19:34:51.970979 14335 net.cpp:406] pool_tnet1 <- scale3_tnet1
I0531 19:34:51.970983 14335 net.cpp:380] pool_tnet1 -> global_feat_tnet1
I0531 19:34:51.971025 14335 net.cpp:122] Setting up pool_tnet1
I0531 19:34:51.971031 14335 net.cpp:129] Top shape: 32 1024 1 1 (32768)
I0531 19:34:51.971035 14335 net.cpp:137] Memory required for data: 1278345344
I0531 19:34:51.971037 14335 layer_factory.hpp:77] Creating layer fc1_tnet1
I0531 19:34:51.971046 14335 net.cpp:84] Creating Layer fc1_tnet1
I0531 19:34:51.971050 14335 net.cpp:406] fc1_tnet1 <- global_feat_tnet1
I0531 19:34:51.971055 14335 net.cpp:380] fc1_tnet1 -> fc1_tnet1
I0531 19:34:51.982977 14335 net.cpp:122] Setting up fc1_tnet1
I0531 19:34:51.983002 14335 net.cpp:129] Top shape: 32 512 (16384)
I0531 19:34:51.983021 14335 net.cpp:137] Memory required for data: 1278410880
I0531 19:34:51.983032 14335 layer_factory.hpp:77] Creating layer bn6_tnet1
I0531 19:34:51.983042 14335 net.cpp:84] Creating Layer bn6_tnet1
I0531 19:34:51.983049 14335 net.cpp:406] bn6_tnet1 <- fc1_tnet1
I0531 19:34:51.983058 14335 net.cpp:380] bn6_tnet1 -> bn6_tnet1
I0531 19:34:51.983223 14335 net.cpp:122] Setting up bn6_tnet1
I0531 19:34:51.983232 14335 net.cpp:129] Top shape: 32 512 (16384)
I0531 19:34:51.983238 14335 net.cpp:137] Memory required for data: 1278476416
I0531 19:34:51.983249 14335 layer_factory.hpp:77] Creating layer scale6_tnet1
I0531 19:34:51.983258 14335 net.cpp:84] Creating Layer scale6_tnet1
I0531 19:34:51.983263 14335 net.cpp:406] scale6_tnet1 <- bn6_tnet1
I0531 19:34:51.983269 14335 net.cpp:380] scale6_tnet1 -> scale6_tnet1
I0531 19:34:51.983304 14335 layer_factory.hpp:77] Creating layer scale6_tnet1
I0531 19:34:51.983391 14335 net.cpp:122] Setting up scale6_tnet1
I0531 19:34:51.983397 14335 net.cpp:129] Top shape: 32 512 (16384)
I0531 19:34:51.983399 14335 net.cpp:137] Memory required for data: 1278541952
I0531 19:34:51.983404 14335 layer_factory.hpp:77] Creating layer relu6_tnet1
I0531 19:34:51.983410 14335 net.cpp:84] Creating Layer relu6_tnet1
I0531 19:34:51.983414 14335 net.cpp:406] relu6_tnet1 <- scale6_tnet1
I0531 19:34:51.983418 14335 net.cpp:367] relu6_tnet1 -> scale6_tnet1 (in-place)
I0531 19:34:51.983618 14335 net.cpp:122] Setting up relu6_tnet1
I0531 19:34:51.983625 14335 net.cpp:129] Top shape: 32 512 (16384)
I0531 19:34:51.983629 14335 net.cpp:137] Memory required for data: 1278607488
I0531 19:34:51.983633 14335 layer_factory.hpp:77] Creating layer fc2_tnet1
I0531 19:34:51.983641 14335 net.cpp:84] Creating Layer fc2_tnet1
I0531 19:34:51.983646 14335 net.cpp:406] fc2_tnet1 <- scale6_tnet1
I0531 19:34:51.983655 14335 net.cpp:380] fc2_tnet1 -> fc2_tnet1
I0531 19:34:51.986518 14335 net.cpp:122] Setting up fc2_tnet1
I0531 19:34:51.986528 14335 net.cpp:129] Top shape: 32 256 (8192)
I0531 19:34:51.986534 14335 net.cpp:137] Memory required for data: 1278640256
I0531 19:34:51.986543 14335 layer_factory.hpp:77] Creating layer bn7_tnet1
I0531 19:34:51.986552 14335 net.cpp:84] Creating Layer bn7_tnet1
I0531 19:34:51.986557 14335 net.cpp:406] bn7_tnet1 <- fc2_tnet1
I0531 19:34:51.986563 14335 net.cpp:380] bn7_tnet1 -> bn7_tnet1
I0531 19:34:51.986712 14335 net.cpp:122] Setting up bn7_tnet1
I0531 19:34:51.986721 14335 net.cpp:129] Top shape: 32 256 (8192)
I0531 19:34:51.986726 14335 net.cpp:137] Memory required for data: 1278673024
I0531 19:34:51.986740 14335 layer_factory.hpp:77] Creating layer scale7_tnet1
I0531 19:34:51.986747 14335 net.cpp:84] Creating Layer scale7_tnet1
I0531 19:34:51.986752 14335 net.cpp:406] scale7_tnet1 <- bn7_tnet1
I0531 19:34:51.986759 14335 net.cpp:380] scale7_tnet1 -> scale7_tnet1
I0531 19:34:51.986798 14335 layer_factory.hpp:77] Creating layer scale7_tnet1
I0531 19:34:51.986876 14335 net.cpp:122] Setting up scale7_tnet1
I0531 19:34:51.986882 14335 net.cpp:129] Top shape: 32 256 (8192)
I0531 19:34:51.986886 14335 net.cpp:137] Memory required for data: 1278705792
I0531 19:34:51.986891 14335 layer_factory.hpp:77] Creating layer relu7_tnet1
I0531 19:34:51.986896 14335 net.cpp:84] Creating Layer relu7_tnet1
I0531 19:34:51.986898 14335 net.cpp:406] relu7_tnet1 <- scale7_tnet1
I0531 19:34:51.986903 14335 net.cpp:367] relu7_tnet1 -> scale7_tnet1 (in-place)
I0531 19:34:51.987254 14335 net.cpp:122] Setting up relu7_tnet1
I0531 19:34:51.987265 14335 net.cpp:129] Top shape: 32 256 (8192)
I0531 19:34:51.987268 14335 net.cpp:137] Memory required for data: 1278738560
I0531 19:34:51.987272 14335 layer_factory.hpp:77] Creating layer fc3_tnet1
I0531 19:34:51.987277 14335 net.cpp:84] Creating Layer fc3_tnet1
I0531 19:34:51.987282 14335 net.cpp:406] fc3_tnet1 <- scale7_tnet1
I0531 19:34:51.987287 14335 net.cpp:380] fc3_tnet1 -> fc3_tnet1
I0531 19:34:51.987375 14335 net.cpp:122] Setting up fc3_tnet1
I0531 19:34:51.987381 14335 net.cpp:129] Top shape: 32 9 (288)
I0531 19:34:51.987385 14335 net.cpp:137] Memory required for data: 1278739712
I0531 19:34:51.987398 14335 layer_factory.hpp:77] Creating layer fc3_tnet1_fc3_tnet1_0_split
I0531 19:34:51.987406 14335 net.cpp:84] Creating Layer fc3_tnet1_fc3_tnet1_0_split
I0531 19:34:51.987409 14335 net.cpp:406] fc3_tnet1_fc3_tnet1_0_split <- fc3_tnet1
I0531 19:34:51.987413 14335 net.cpp:380] fc3_tnet1_fc3_tnet1_0_split -> fc3_tnet1_fc3_tnet1_0_split_0
I0531 19:34:51.987419 14335 net.cpp:380] fc3_tnet1_fc3_tnet1_0_split -> fc3_tnet1_fc3_tnet1_0_split_1
I0531 19:34:51.987448 14335 net.cpp:122] Setting up fc3_tnet1_fc3_tnet1_0_split
I0531 19:34:51.987453 14335 net.cpp:129] Top shape: 32 9 (288)
I0531 19:34:51.987458 14335 net.cpp:129] Top shape: 32 9 (288)
I0531 19:34:51.987460 14335 net.cpp:137] Memory required for data: 1278742016
I0531 19:34:51.987463 14335 layer_factory.hpp:77] Creating layer reshape_tnet1
I0531 19:34:51.987469 14335 net.cpp:84] Creating Layer reshape_tnet1
I0531 19:34:51.987473 14335 net.cpp:406] reshape_tnet1 <- fc3_tnet1_fc3_tnet1_0_split_0
I0531 19:34:51.987478 14335 net.cpp:380] reshape_tnet1 -> fc3_tnet1_reshape
I0531 19:34:51.987496 14335 net.cpp:122] Setting up reshape_tnet1
I0531 19:34:51.987502 14335 net.cpp:129] Top shape: 32 3 3 (288)
I0531 19:34:51.987505 14335 net.cpp:137] Memory required for data: 1278743168
I0531 19:34:51.987507 14335 layer_factory.hpp:77] Creating layer eye_tnet1
I0531 19:34:52.476322 14335 net.cpp:84] Creating Layer eye_tnet1
I0531 19:34:52.476349 14335 net.cpp:406] eye_tnet1 <- fc3_tnet1_fc3_tnet1_0_split_1
I0531 19:34:52.476361 14335 net.cpp:380] eye_tnet1 -> eye_tnet1
I0531 19:34:52.476585 14335 net.cpp:122] Setting up eye_tnet1
I0531 19:34:52.476599 14335 net.cpp:129] Top shape: 32 3 3 (288)
I0531 19:34:52.476603 14335 net.cpp:137] Memory required for data: 1278744320
I0531 19:34:52.476608 14335 layer_factory.hpp:77] Creating layer eltwise_sum_tnet1
I0531 19:34:52.476615 14335 net.cpp:84] Creating Layer eltwise_sum_tnet1
I0531 19:34:52.476620 14335 net.cpp:406] eltwise_sum_tnet1 <- fc3_tnet1_reshape
I0531 19:34:52.476624 14335 net.cpp:406] eltwise_sum_tnet1 <- eye_tnet1
I0531 19:34:52.476629 14335 net.cpp:380] eltwise_sum_tnet1 -> transform1
I0531 19:34:52.476655 14335 net.cpp:122] Setting up eltwise_sum_tnet1
I0531 19:34:52.476661 14335 net.cpp:129] Top shape: 32 3 3 (288)
I0531 19:34:52.476665 14335 net.cpp:137] Memory required for data: 1278745472
I0531 19:34:52.476668 14335 layer_factory.hpp:77] Creating layer matmul_input
I0531 19:34:52.476673 14335 net.cpp:84] Creating Layer matmul_input
I0531 19:34:52.476677 14335 net.cpp:406] matmul_input <- data_data_0_split_1
I0531 19:34:52.476681 14335 net.cpp:406] matmul_input <- transform1
I0531 19:34:52.476686 14335 net.cpp:380] matmul_input -> data_transform1
I0531 19:34:52.476704 14335 net.cpp:122] Setting up matmul_input
I0531 19:34:52.476709 14335 net.cpp:129] Top shape: 32 2048 3 (196608)
I0531 19:34:52.476713 14335 net.cpp:137] Memory required for data: 1279531904
I0531 19:34:52.476716 14335 layer_factory.hpp:77] Creating layer reshape
I0531 19:34:52.476722 14335 net.cpp:84] Creating Layer reshape
I0531 19:34:52.476724 14335 net.cpp:406] reshape <- data_transform1
I0531 19:34:52.476728 14335 net.cpp:380] reshape -> data_transform1_reshape
I0531 19:34:52.476754 14335 net.cpp:122] Setting up reshape
I0531 19:34:52.476760 14335 net.cpp:129] Top shape: 32 1 2048 3 (196608)
I0531 19:34:52.476763 14335 net.cpp:137] Memory required for data: 1280318336
I0531 19:34:52.476765 14335 layer_factory.hpp:77] Creating layer conv1
I0531 19:34:52.476774 14335 net.cpp:84] Creating Layer conv1
I0531 19:34:52.476778 14335 net.cpp:406] conv1 <- data_transform1_reshape
I0531 19:34:52.476783 14335 net.cpp:380] conv1 -> conv1
I0531 19:34:52.477967 14335 net.cpp:122] Setting up conv1
I0531 19:34:52.477982 14335 net.cpp:129] Top shape: 32 64 2048 1 (4194304)
I0531 19:34:52.477984 14335 net.cpp:137] Memory required for data: 1297095552
I0531 19:34:52.477993 14335 layer_factory.hpp:77] Creating layer bn1
I0531 19:34:52.478013 14335 net.cpp:84] Creating Layer bn1
I0531 19:34:52.478016 14335 net.cpp:406] bn1 <- conv1
I0531 19:34:52.478036 14335 net.cpp:380] bn1 -> bn1
I0531 19:34:52.478204 14335 net.cpp:122] Setting up bn1
I0531 19:34:52.478211 14335 net.cpp:129] Top shape: 32 64 2048 1 (4194304)
I0531 19:34:52.478215 14335 net.cpp:137] Memory required for data: 1313872768
I0531 19:34:52.478221 14335 layer_factory.hpp:77] Creating layer scale1
I0531 19:34:52.478227 14335 net.cpp:84] Creating Layer scale1
I0531 19:34:52.478230 14335 net.cpp:406] scale1 <- bn1
I0531 19:34:52.478235 14335 net.cpp:380] scale1 -> scale1
I0531 19:34:52.478272 14335 layer_factory.hpp:77] Creating layer scale1
I0531 19:34:52.478360 14335 net.cpp:122] Setting up scale1
I0531 19:34:52.478366 14335 net.cpp:129] Top shape: 32 64 2048 1 (4194304)
I0531 19:34:52.478369 14335 net.cpp:137] Memory required for data: 1330649984
I0531 19:34:52.478374 14335 layer_factory.hpp:77] Creating layer relu1
I0531 19:34:52.478379 14335 net.cpp:84] Creating Layer relu1
I0531 19:34:52.478384 14335 net.cpp:406] relu1 <- scale1
I0531 19:34:52.478386 14335 net.cpp:367] relu1 -> scale1 (in-place)
I0531 19:34:52.478688 14335 net.cpp:122] Setting up relu1
I0531 19:34:52.478699 14335 net.cpp:129] Top shape: 32 64 2048 1 (4194304)
I0531 19:34:52.478703 14335 net.cpp:137] Memory required for data: 1347427200
I0531 19:34:52.478706 14335 layer_factory.hpp:77] Creating layer conv2
I0531 19:34:52.478715 14335 net.cpp:84] Creating Layer conv2
I0531 19:34:52.478719 14335 net.cpp:406] conv2 <- scale1
I0531 19:34:52.478724 14335 net.cpp:380] conv2 -> conv2
I0531 19:34:52.479677 14335 net.cpp:122] Setting up conv2
I0531 19:34:52.479689 14335 net.cpp:129] Top shape: 32 64 2048 1 (4194304)
I0531 19:34:52.479693 14335 net.cpp:137] Memory required for data: 1364204416
I0531 19:34:52.479698 14335 layer_factory.hpp:77] Creating layer bn2
I0531 19:34:52.479706 14335 net.cpp:84] Creating Layer bn2
I0531 19:34:52.479709 14335 net.cpp:406] bn2 <- conv2
I0531 19:34:52.479713 14335 net.cpp:380] bn2 -> bn2
I0531 19:34:52.479872 14335 net.cpp:122] Setting up bn2
I0531 19:34:52.479879 14335 net.cpp:129] Top shape: 32 64 2048 1 (4194304)
I0531 19:34:52.479883 14335 net.cpp:137] Memory required for data: 1380981632
I0531 19:34:52.479889 14335 layer_factory.hpp:77] Creating layer scale2
I0531 19:34:52.479897 14335 net.cpp:84] Creating Layer scale2
I0531 19:34:52.479900 14335 net.cpp:406] scale2 <- bn2
I0531 19:34:52.479904 14335 net.cpp:380] scale2 -> scale2
I0531 19:34:52.479936 14335 layer_factory.hpp:77] Creating layer scale2
I0531 19:34:52.480026 14335 net.cpp:122] Setting up scale2
I0531 19:34:52.480031 14335 net.cpp:129] Top shape: 32 64 2048 1 (4194304)
I0531 19:34:52.480034 14335 net.cpp:137] Memory required for data: 1397758848
I0531 19:34:52.480039 14335 layer_factory.hpp:77] Creating layer relu2
I0531 19:34:52.480046 14335 net.cpp:84] Creating Layer relu2
I0531 19:34:52.480048 14335 net.cpp:406] relu2 <- scale2
I0531 19:34:52.480052 14335 net.cpp:367] relu2 -> scale2 (in-place)
I0531 19:34:52.480206 14335 net.cpp:122] Setting up relu2
I0531 19:34:52.480213 14335 net.cpp:129] Top shape: 32 64 2048 1 (4194304)
I0531 19:34:52.480216 14335 net.cpp:137] Memory required for data: 1414536064
I0531 19:34:52.480219 14335 layer_factory.hpp:77] Creating layer conv3
I0531 19:34:52.480227 14335 net.cpp:84] Creating Layer conv3
I0531 19:34:52.480231 14335 net.cpp:406] conv3 <- scale2
I0531 19:34:52.480235 14335 net.cpp:380] conv3 -> conv3
I0531 19:34:52.481178 14335 net.cpp:122] Setting up conv3
I0531 19:34:52.481189 14335 net.cpp:129] Top shape: 32 64 2048 1 (4194304)
I0531 19:34:52.481194 14335 net.cpp:137] Memory required for data: 1431313280
I0531 19:34:52.481199 14335 layer_factory.hpp:77] Creating layer bn3
I0531 19:34:52.481205 14335 net.cpp:84] Creating Layer bn3
I0531 19:34:52.481209 14335 net.cpp:406] bn3 <- conv3
I0531 19:34:52.481215 14335 net.cpp:380] bn3 -> bn3
I0531 19:34:52.481374 14335 net.cpp:122] Setting up bn3
I0531 19:34:52.481380 14335 net.cpp:129] Top shape: 32 64 2048 1 (4194304)
I0531 19:34:52.481382 14335 net.cpp:137] Memory required for data: 1448090496
I0531 19:34:52.481389 14335 layer_factory.hpp:77] Creating layer scale3
I0531 19:34:52.481405 14335 net.cpp:84] Creating Layer scale3
I0531 19:34:52.481410 14335 net.cpp:406] scale3 <- bn3
I0531 19:34:52.481413 14335 net.cpp:380] scale3 -> scale3
I0531 19:34:52.481451 14335 layer_factory.hpp:77] Creating layer scale3
I0531 19:34:52.481539 14335 net.cpp:122] Setting up scale3
I0531 19:34:52.481545 14335 net.cpp:129] Top shape: 32 64 2048 1 (4194304)
I0531 19:34:52.481547 14335 net.cpp:137] Memory required for data: 1464867712
I0531 19:34:52.481552 14335 layer_factory.hpp:77] Creating layer relu3
I0531 19:34:52.481557 14335 net.cpp:84] Creating Layer relu3
I0531 19:34:52.481560 14335 net.cpp:406] relu3 <- scale3
I0531 19:34:52.481564 14335 net.cpp:367] relu3 -> scale3 (in-place)
I0531 19:34:52.481868 14335 net.cpp:122] Setting up relu3
I0531 19:34:52.481878 14335 net.cpp:129] Top shape: 32 64 2048 1 (4194304)
I0531 19:34:52.481881 14335 net.cpp:137] Memory required for data: 1481644928
I0531 19:34:52.481884 14335 layer_factory.hpp:77] Creating layer conv4
I0531 19:34:52.481892 14335 net.cpp:84] Creating Layer conv4
I0531 19:34:52.481896 14335 net.cpp:406] conv4 <- scale3
I0531 19:34:52.481902 14335 net.cpp:380] conv4 -> conv4
I0531 19:34:52.482884 14335 net.cpp:122] Setting up conv4
I0531 19:34:52.482897 14335 net.cpp:129] Top shape: 32 128 2048 1 (8388608)
I0531 19:34:52.482900 14335 net.cpp:137] Memory required for data: 1515199360
I0531 19:34:52.482906 14335 layer_factory.hpp:77] Creating layer bn4
I0531 19:34:52.482913 14335 net.cpp:84] Creating Layer bn4
I0531 19:34:52.482918 14335 net.cpp:406] bn4 <- conv4
I0531 19:34:52.482923 14335 net.cpp:380] bn4 -> bn4
I0531 19:34:52.483079 14335 net.cpp:122] Setting up bn4
I0531 19:34:52.483086 14335 net.cpp:129] Top shape: 32 128 2048 1 (8388608)
I0531 19:34:52.483089 14335 net.cpp:137] Memory required for data: 1548753792
I0531 19:34:52.483094 14335 layer_factory.hpp:77] Creating layer scale4
I0531 19:34:52.483101 14335 net.cpp:84] Creating Layer scale4
I0531 19:34:52.483104 14335 net.cpp:406] scale4 <- bn4
I0531 19:34:52.483108 14335 net.cpp:380] scale4 -> scale4
I0531 19:34:52.483140 14335 layer_factory.hpp:77] Creating layer scale4
I0531 19:34:52.483222 14335 net.cpp:122] Setting up scale4
I0531 19:34:52.483229 14335 net.cpp:129] Top shape: 32 128 2048 1 (8388608)
I0531 19:34:52.483232 14335 net.cpp:137] Memory required for data: 1582308224
I0531 19:34:52.483252 14335 layer_factory.hpp:77] Creating layer relu4
I0531 19:34:52.483256 14335 net.cpp:84] Creating Layer relu4
I0531 19:34:52.483259 14335 net.cpp:406] relu4 <- scale4
I0531 19:34:52.483263 14335 net.cpp:367] relu4 -> scale4 (in-place)
I0531 19:34:52.483422 14335 net.cpp:122] Setting up relu4
I0531 19:34:52.483429 14335 net.cpp:129] Top shape: 32 128 2048 1 (8388608)
I0531 19:34:52.483433 14335 net.cpp:137] Memory required for data: 1615862656
I0531 19:34:52.483435 14335 layer_factory.hpp:77] Creating layer conv5
I0531 19:34:52.483443 14335 net.cpp:84] Creating Layer conv5
I0531 19:34:52.483448 14335 net.cpp:406] conv5 <- scale4
I0531 19:34:52.483453 14335 net.cpp:380] conv5 -> conv5
I0531 19:34:52.485525 14335 net.cpp:122] Setting up conv5
I0531 19:34:52.485538 14335 net.cpp:129] Top shape: 32 1024 2048 1 (67108864)
I0531 19:34:52.485541 14335 net.cpp:137] Memory required for data: 1884298112
I0531 19:34:52.485548 14335 layer_factory.hpp:77] Creating layer bn5
I0531 19:34:52.485553 14335 net.cpp:84] Creating Layer bn5
I0531 19:34:52.485558 14335 net.cpp:406] bn5 <- conv5
I0531 19:34:52.485563 14335 net.cpp:380] bn5 -> bn5
I0531 19:34:52.485723 14335 net.cpp:122] Setting up bn5
I0531 19:34:52.485729 14335 net.cpp:129] Top shape: 32 1024 2048 1 (67108864)
I0531 19:34:52.485731 14335 net.cpp:137] Memory required for data: 2152733568
I0531 19:34:52.485738 14335 layer_factory.hpp:77] Creating layer scale5
I0531 19:34:52.485741 14335 net.cpp:84] Creating Layer scale5
I0531 19:34:52.485744 14335 net.cpp:406] scale5 <- bn5
I0531 19:34:52.485749 14335 net.cpp:380] scale5 -> scale5
I0531 19:34:52.485780 14335 layer_factory.hpp:77] Creating layer scale5
I0531 19:34:52.485875 14335 net.cpp:122] Setting up scale5
I0531 19:34:52.485882 14335 net.cpp:129] Top shape: 32 1024 2048 1 (67108864)
I0531 19:34:52.485884 14335 net.cpp:137] Memory required for data: 2421169024
I0531 19:34:52.485889 14335 layer_factory.hpp:77] Creating layer relu5
I0531 19:34:52.485894 14335 net.cpp:84] Creating Layer relu5
I0531 19:34:52.485898 14335 net.cpp:406] relu5 <- scale5
I0531 19:34:52.485904 14335 net.cpp:367] relu5 -> scale5 (in-place)
I0531 19:34:52.486208 14335 net.cpp:122] Setting up relu5
I0531 19:34:52.486220 14335 net.cpp:129] Top shape: 32 1024 2048 1 (67108864)
I0531 19:34:52.486224 14335 net.cpp:137] Memory required for data: 2689604480
I0531 19:34:52.486227 14335 layer_factory.hpp:77] Creating layer pool
I0531 19:34:52.486233 14335 net.cpp:84] Creating Layer pool
I0531 19:34:52.486238 14335 net.cpp:406] pool <- scale5
I0531 19:34:52.486241 14335 net.cpp:380] pool -> global_feat
I0531 19:34:52.486282 14335 net.cpp:122] Setting up pool
I0531 19:34:52.486289 14335 net.cpp:129] Top shape: 32 1024 1 1 (32768)
I0531 19:34:52.486292 14335 net.cpp:137] Memory required for data: 2689735552
I0531 19:34:52.486295 14335 layer_factory.hpp:77] Creating layer fc1
I0531 19:34:52.486302 14335 net.cpp:84] Creating Layer fc1
I0531 19:34:52.486306 14335 net.cpp:406] fc1 <- global_feat
I0531 19:34:52.486311 14335 net.cpp:380] fc1 -> fc1
I0531 19:34:52.498059 14335 net.cpp:122] Setting up fc1
I0531 19:34:52.498072 14335 net.cpp:129] Top shape: 32 512 (16384)
I0531 19:34:52.498076 14335 net.cpp:137] Memory required for data: 2689801088
I0531 19:34:52.498081 14335 layer_factory.hpp:77] Creating layer bn6
I0531 19:34:52.498087 14335 net.cpp:84] Creating Layer bn6
I0531 19:34:52.498091 14335 net.cpp:406] bn6 <- fc1
I0531 19:34:52.498096 14335 net.cpp:380] bn6 -> bn6
I0531 19:34:52.498252 14335 net.cpp:122] Setting up bn6
I0531 19:34:52.498258 14335 net.cpp:129] Top shape: 32 512 (16384)
I0531 19:34:52.498261 14335 net.cpp:137] Memory required for data: 2689866624
I0531 19:34:52.498268 14335 layer_factory.hpp:77] Creating layer scale6
I0531 19:34:52.498275 14335 net.cpp:84] Creating Layer scale6
I0531 19:34:52.498277 14335 net.cpp:406] scale6 <- bn6
I0531 19:34:52.498281 14335 net.cpp:380] scale6 -> scale6
I0531 19:34:52.498311 14335 layer_factory.hpp:77] Creating layer scale6
I0531 19:34:52.498399 14335 net.cpp:122] Setting up scale6
I0531 19:34:52.498404 14335 net.cpp:129] Top shape: 32 512 (16384)
I0531 19:34:52.498407 14335 net.cpp:137] Memory required for data: 2689932160
I0531 19:34:52.498411 14335 layer_factory.hpp:77] Creating layer relu6
I0531 19:34:52.498416 14335 net.cpp:84] Creating Layer relu6
I0531 19:34:52.498420 14335 net.cpp:406] relu6 <- scale6
I0531 19:34:52.498423 14335 net.cpp:367] relu6 -> scale6 (in-place)
I0531 19:34:52.498759 14335 net.cpp:122] Setting up relu6
I0531 19:34:52.498769 14335 net.cpp:129] Top shape: 32 512 (16384)
I0531 19:34:52.498772 14335 net.cpp:137] Memory required for data: 2689997696
I0531 19:34:52.498775 14335 layer_factory.hpp:77] Creating layer fc2
I0531 19:34:52.498783 14335 net.cpp:84] Creating Layer fc2
I0531 19:34:52.498786 14335 net.cpp:406] fc2 <- scale6
I0531 19:34:52.498792 14335 net.cpp:380] fc2 -> fc2
I0531 19:34:52.501651 14335 net.cpp:122] Setting up fc2
I0531 19:34:52.501658 14335 net.cpp:129] Top shape: 32 256 (8192)
I0531 19:34:52.501662 14335 net.cpp:137] Memory required for data: 2690030464
I0531 19:34:52.501665 14335 layer_factory.hpp:77] Creating layer bn7
I0531 19:34:52.501672 14335 net.cpp:84] Creating Layer bn7
I0531 19:34:52.501674 14335 net.cpp:406] bn7 <- fc2
I0531 19:34:52.501678 14335 net.cpp:380] bn7 -> bn7
I0531 19:34:52.501832 14335 net.cpp:122] Setting up bn7
I0531 19:34:52.501840 14335 net.cpp:129] Top shape: 32 256 (8192)
I0531 19:34:52.501843 14335 net.cpp:137] Memory required for data: 2690063232
I0531 19:34:52.501848 14335 layer_factory.hpp:77] Creating layer scale7
I0531 19:34:52.501852 14335 net.cpp:84] Creating Layer scale7
I0531 19:34:52.501855 14335 net.cpp:406] scale7 <- bn7
I0531 19:34:52.501859 14335 net.cpp:380] scale7 -> scale7
I0531 19:34:52.501904 14335 layer_factory.hpp:77] Creating layer scale7
I0531 19:34:52.501991 14335 net.cpp:122] Setting up scale7
I0531 19:34:52.501996 14335 net.cpp:129] Top shape: 32 256 (8192)
I0531 19:34:52.501999 14335 net.cpp:137] Memory required for data: 2690096000
I0531 19:34:52.502004 14335 layer_factory.hpp:77] Creating layer relu7
I0531 19:34:52.502008 14335 net.cpp:84] Creating Layer relu7
I0531 19:34:52.502010 14335 net.cpp:406] relu7 <- scale7
I0531 19:34:52.502015 14335 net.cpp:367] relu7 -> scale7 (in-place)
I0531 19:34:52.502171 14335 net.cpp:122] Setting up relu7
I0531 19:34:52.502178 14335 net.cpp:129] Top shape: 32 256 (8192)
I0531 19:34:52.502182 14335 net.cpp:137] Memory required for data: 2690128768
I0531 19:34:52.502184 14335 layer_factory.hpp:77] Creating layer drop1
I0531 19:34:52.502192 14335 net.cpp:84] Creating Layer drop1
I0531 19:34:52.502195 14335 net.cpp:406] drop1 <- scale7
I0531 19:34:52.502199 14335 net.cpp:380] drop1 -> drop1
I0531 19:34:52.502234 14335 net.cpp:122] Setting up drop1
I0531 19:34:52.502241 14335 net.cpp:129] Top shape: 32 256 (8192)
I0531 19:34:52.502243 14335 net.cpp:137] Memory required for data: 2690161536
I0531 19:34:52.502246 14335 layer_factory.hpp:77] Creating layer fc3
I0531 19:34:52.502251 14335 net.cpp:84] Creating Layer fc3
I0531 19:34:52.502254 14335 net.cpp:406] fc3 <- drop1
I0531 19:34:52.502259 14335 net.cpp:380] fc3 -> fc3
I0531 19:34:52.502570 14335 net.cpp:122] Setting up fc3
I0531 19:34:52.502578 14335 net.cpp:129] Top shape: 32 40 (1280)
I0531 19:34:52.502579 14335 net.cpp:137] Memory required for data: 2690166656
I0531 19:34:52.502584 14335 layer_factory.hpp:77] Creating layer loss
I0531 19:34:52.502590 14335 net.cpp:84] Creating Layer loss
I0531 19:34:52.502593 14335 net.cpp:406] loss <- fc3
I0531 19:34:52.502598 14335 net.cpp:406] loss <- label
I0531 19:34:52.502602 14335 net.cpp:380] loss -> loss
I0531 19:34:52.502610 14335 layer_factory.hpp:77] Creating layer loss
…
I0531 19:34:52.504207 14335 solver.cpp:190] Creating test net (#0) specified by net file: models/pointnet_cls_input_tnet.prototxt
I0531 19:34:52.504266 14335 net.cpp:294] The NetState phase (1) differed from the phase (0) specified by a rule in layer data
I0531 19:34:52.504503 14335 net.cpp:51] Initializing net from parameters: 
name: "pointnet_cls_basic"
state {
  phase: TEST
}
layer {
  name: "data"
  type: "HDF5Data"
  top: "data"
  top: "label"
  include {
    phase: TEST
  }
  hdf5_data_param {
    source: "data/modelnet40_ply_hdf5_2048/test_files.txt"
    batch_size: 32
  }
}
layer {
  name: "reshape"
  type: "Reshape"
  bottom: "data"
  top: "data_reshape"
  reshape_param {
    shape {
      dim: 0
      dim: 1
      dim: -1
      dim: 3
    }
  }
}
layer {
  name: "conv1_tnet1"
  type: "Convolution"
  bottom: "data_reshape"
  top: "conv1_tnet1"
  param {
    lr_mult: 1
  }
  param {
    lr_mult: 2
  }
  convolution_param {
    num_output: 64
    pad: 0
    stride: 1
    weight_filler {
      type: "xavier"
    }
    bias_filler {
      type: "constant"
      value: 0
    }
    kernel_h: 1
    kernel_w: 3
  }
}
layer {
  name: "bn1_tnet1"
  type: "BatchNorm"
  bottom: "conv1_tnet1"
  top: "bn1_tnet1"
}
layer {
  name: "scale1_tnet1"
  type: "Scale"
  bottom: "bn1_tnet1"
  top: "scale1_tnet1"
  scale_param {
    bias_term: true
  }
}
layer {
  name: "relu1_tnet1"
  type: "ReLU"
  bottom: "scale1_tnet1"
  top: "scale1_tnet1"
}
layer {
  name: "conv2_tnet1"
  type: "Convolution"
  bottom: "scale1_tnet1"
  top: "conv2_tnet1"
  param {
    lr_mult: 1
  }
  param {
    lr_mult: 2
  }
  convolution_param {
    num_output: 128
    pad: 0
    stride: 1
    weight_filler {
      type: "xavier"
    }
    bias_filler {
      type: "constant"
      value: 0
    }
    kernel_h: 1
    kernel_w: 1
  }
}
layer {
  name: "bn2_tnet1"
  type: "BatchNorm"
  bottom: "conv2_tnet1"
  top: "bn2_tnet1"
}
layer {
  name: "scale2_tnet1"
  type: "Scale"
  bottom: "bn2_tnet1"
  top: "scale2_tnet1"
  scale_param {
    bias_term: true
  }
}
layer {
  name: "relu2_tnet1"
  type: "ReLU"
  bottom: "scale2_tnet1"
  top: "scale2_tnet1"
}
layer {
  name: "conv3_tnet1"
  type: "Convolution"
  bottom: "scale2_tnet1"
  top: "conv3_tnet1"
  param {
    lr_mult: 1
  }
  param {
    lr_mult: 2
  }
  convolution_param {
    num_output: 1024
    pad: 0
    stride: 1
    weight_filler {
      type: "xavier"
    }
    bias_filler {
      type: "constant"
      value: 0
    }
    kernel_h: 1
    kernel_w: 1
  }
}
layer {
  name: "bn3_tnet1"
  type: "BatchNorm"
  bottom: "conv3_tnet1"
  top: "bn3_tnet1"
}
layer {
  name: "scale3_tnet1"
  type: "Scale"
  bottom: "bn3_tnet1"
  top: "scale3_tnet1"
  scale_param {
    bias_term: true
  }
}
layer {
  name: "relu3_tnet1"
  type: "ReLU"
  bottom: "scale3_tnet1"
  top: "scale3_tnet1"
}
layer {
  name: "pool_tnet1"
  type: "Pooling"
  bottom: "scale3_tnet1"
  top: "global_feat_tnet1"
  pooling_param {
    pool: MAX
    stride: 1
    pad: 0
    kernel_h: 2048
    kernel_w: 1
  }
}
layer {
  name: "fc1_tnet1"
  type: "InnerProduct"
  bottom: "global_feat_tnet1"
  top: "fc1_tnet1"
  param {
    lr_mult: 1
    decay_mult: 1
  }
  param {
    lr_mult: 1
    decay_mult: 1
  }
  inner_product_param {
    num_output: 512
    weight_filler {
      type: "gaussian"
      std: 0.001
    }
    bias_filler {
      type: "constant"
      value: 0
    }
  }
}
layer {
  name: "bn6_tnet1"
  type: "BatchNorm"
  bottom: "fc1_tnet1"
  top: "bn6_tnet1"
}
layer {
  name: "scale6_tnet1"
  type: "Scale"
  bottom: "bn6_tnet1"
  top: "scale6_tnet1"
  scale_param {
    bias_term: true
  }
}
layer {
  name: "relu6_tnet1"
  type: "ReLU"
  bottom: "scale6_tnet1"
  top: "scale6_tnet1"
}
layer {
  name: "fc2_tnet1"
  type: "InnerProduct"
  bottom: "scale6_tnet1"
  top: "fc2_tnet1"
  param {
    lr_mult: 1
    decay_mult: 1
  }
  param {
    lr_mult: 1
    decay_mult: 1
  }
  inner_product_param {
    num_output: 256
    weight_filler {
      type: "gaussian"
      std: 0.001
    }
    bias_filler {
      type: "constant"
      value: 0
    }
  }
}
layer {
  name: "bn7_tnet1"
  type: "BatchNorm"
  bottom: "fc2_tnet1"
  top: "bn7_tnet1"
}
layer {
  name: "scale7_tnet1"
  type: "Scale"
  bottom: "bn7_tnet1"
  top: "scale7_tnet1"
  scale_param {
    bias_term: true
  }
}
layer {
  name: "relu7_tnet1"
  type: "ReLU"
  bottom: "scale7_tnet1"
  top: "scale7_tnet1"
}
layer {
  name: "fc3_tnet1"
  type: "InnerProduct"
  bottom: "scale7_tnet1"
  top: "fc3_tnet1"
  param {
    lr_mult: 1
    decay_mult: 1
  }
  param {
    lr_mult: 1
    decay_mult: 1
  }
  inner_product_param {
    num_output: 9
    weight_filler {
      type: "constant"
      value: 0
    }
    bias_filler {
      type: "constant"
      value: 0
    }
  }
}
layer {
  name: "reshape_tnet1"
  type: "Reshape"
  bottom: "fc3_tnet1"
  top: "fc3_tnet1_reshape"
  reshape_param {
    shape {
      dim: -1
      dim: 3
      dim: 3
    }
  }
}
layer {
  name: "eye_tnet1"
  type: "Python"
  bottom: "fc3_tnet1"
  top: "eye_tnet1"
  python_param {
    module: "eye_matrix_layer"
    layer: "EyeMatrixLayer"
    param_str: "{\'K\': 3}"
  }
}
layer {
  name: "eltwise_sum_tnet1"
  type: "Eltwise"
  bottom: "fc3_tnet1_reshape"
  bottom: "eye_tnet1"
  top: "transform1"
  eltwise_param {
    operation: SUM
  }
}
layer {
  name: "matmul_input"
  type: "MatrixMultiplication"
  bottom: "data"
  bottom: "transform1"
  top: "data_transform1"
}
layer {
  name: "reshape"
  type: "Reshape"
  bottom: "data_transform1"
  top: "data_transform1_reshape"
  reshape_param {
    shape {
      dim: 0
      dim: 1
      dim: -1
      dim: 3
    }
  }
}
layer {
  name: "conv1"
  type: "Convolution"
  bottom: "data_transform1_reshape"
  top: "conv1"
  param {
    lr_mult: 1
  }
  param {
    lr_mult: 2
  }
  convolution_param {
    num_output: 64
    pad: 0
    stride: 1
    weight_filler {
      type: "xavier"
    }
    bias_filler {
      type: "constant"
      value: 0
    }
    kernel_h: 1
    kernel_w: 3
  }
}
layer {
  name: "bn1"
  type: "BatchNorm"
  bottom: "conv1"
  top: "bn1"
}
layer {
  name: "scale1"
  type: "Scale"
  bottom: "bn1"
  top: "scale1"
  scale_param {
    bias_term: true
  }
}
layer {
  name: "relu1"
  type: "ReLU"
  bottom: "scale1"
  top: "scale1"
}
layer {
  name: "conv2"
  type: "Convolution"
  bottom: "scale1"
  top: "conv2"
  param {
    lr_mult: 1
  }
  param {
    lr_mult: 2
  }
  convolution_param {
    num_output: 64
    pad: 0
    stride: 1
    weight_filler {
      type: "xavier"
    }
    bias_filler {
      type: "constant"
      value: 0
    }
    kernel_h: 1
    kernel_w: 1
  }
}
layer {
  name: "bn2"
  type: "BatchNorm"
  bottom: "conv2"
  top: "bn2"
}
layer {
  name: "scale2"
  type: "Scale"
  bottom: "bn2"
  top: "scale2"
  scale_param {
    bias_term: true
  }
}
layer {
  name: "relu2"
  type: "ReLU"
  bottom: "scale2"
  top: "scale2"
}
layer {
  name: "conv3"
  type: "Convolution"
  bottom: "scale2"
  top: "conv3"
  param {
    lr_mult: 1
  }
  param {
    lr_mult: 2
  }
  convolution_param {
    num_output: 64
    pad: 0
    stride: 1
    weight_filler {
      type: "xavier"
    }
    bias_filler {
      type: "constant"
      value: 0
    }
    kernel_h: 1
    kernel_w: 1
  }
}
layer {
  name: "bn3"
  type: "BatchNorm"
  bottom: "conv3"
  top: "bn3"
}
layer {
  name: "scale3"
  type: "Scale"
  bottom: "bn3"
  top: "scale3"
  scale_param {
    bias_term: true
  }
}
layer {
  name: "relu3"
  type: "ReLU"
  bottom: "scale3"
  top: "scale3"
}
layer {
  name: "conv4"
  type: "Convolution"
  bottom: "scale3"
  top: "conv4"
  param {
    lr_mult: 1
  }
  param {
    lr_mult: 2
  }
  convolution_param {
    num_output: 128
    pad: 0
    stride: 1
    weight_filler {
      type: "xavier"
    }
    bias_filler {
      type: "constant"
      value: 0
    }
    kernel_h: 1
    kernel_w: 1
  }
}
layer {
  name: "bn4"
  type: "BatchNorm"
  bottom: "conv4"
  top: "bn4"
}
layer {
  name: "scale4"
  type: "Scale"
  bottom: "bn4"
  top: "scale4"
  scale_param {
    bias_term: true
  }
}
layer {
  name: "relu4"
  type: "ReLU"
  bottom: "scale4"
  top: "scale4"
}
layer {
  name: "conv5"
  type: "Convolution"
  bottom: "scale4"
  top: "conv5"
  param {
    lr_mult: 1
  }
  param {
    lr_mult: 2
  }
  convolution_param {
    num_output: 1024
    pad: 0
    stride: 1
    weight_filler {
      type: "xavier"
    }
    bias_filler {
      type: "constant"
      value: 0
    }
    kernel_h: 1
    kernel_w: 1
  }
}
layer {
  name: "bn5"
  type: "BatchNorm"
  bottom: "conv5"
  top: "bn5"
}
layer {
  name: "scale5"
  type: "Scale"
  bottom: "bn5"
  top: "scale5"
  scale_param {
    bias_term: true
  }
}
layer {
  name: "relu5"
  type: "ReLU"
  bottom: "scale5"
  top: "scale5"
}
layer {
  name: "pool"
  type: "Pooling"
  bottom: "scale5"
  top: "global_feat"
  pooling_param {
    pool: MAX
    stride: 1
    pad: 0
    kernel_h: 2048
    kernel_w: 1
  }
}
layer {
  name: "fc1"
  type: "InnerProduct"
  bottom: "global_feat"
  top: "fc1"
  param {
    lr_mult: 1
    decay_mult: 1
  }
  param {
    lr_mult: 1
    decay_mult: 1
  }
  inner_product_param {
    num_output: 512
    weight_filler {
      type: "gaussian"
      std: 0.001
    }
    bias_filler {
      type: "constant"
      value: 0
    }
  }
}
layer {
  name: "bn6"
  type: "BatchNorm"
  bottom: "fc1"
  top: "bn6"
}
layer {
  name: "scale6"
  type: "Scale"
  bottom: "bn6"
  top: "scale6"
  scale_param {
    bias_term: true
  }
}
layer {
  name: "relu6"
  type: "ReLU"
  bottom: "scale6"
  top: "scale6"
}
layer {
  name: "fc2"
  type: "InnerProduct"
  bottom: "scale6"
  top: "fc2"
  param {
    lr_mult: 1
    decay_mult: 1
  }
  param {
    lr_mult: 1
    decay_mult: 1
  }
  inner_product_param {
    num_output: 256
    weight_filler {
      type: "gaussian"
      std: 0.001
    }
    bias_filler {
      type: "constant"
      value: 0
    }
  }
}
layer {
  name: "bn7"
  type: "BatchNorm"
  bottom: "fc2"
  top: "bn7"
}
layer {
  name: "scale7"
  type: "Scale"
  bottom: "bn7"
  top: "scale7"
  scale_param {
    bias_term: true
  }
}
layer {
  name: "relu7"
  type: "ReLU"
  bottom: "scale7"
  top: "scale7"
}
layer {
  name: "drop1"
  type: "Dropout"
  bottom: "scale7"
  top: "drop1"
  dropout_param {
    dropout_ratio: 0.3
  }
}
layer {
  name: "fc3"
  type: "InnerProduct"
  bottom: "drop1"
  top: "fc3"
  param {
    lr_mult: 1
    decay_mult: 1
  }
  param {
    lr_mult: 1
    decay_mult: 1
  }
  inner_product_param {
    num_output: 40
    weight_filler {
      type: "gaussian"
      std: 0.001
    }
    bias_filler {
      type: "constant"
      value: 0
    }
  }
}
layer {
  name: "accuracy"
  type: "Accuracy"
  bottom: "fc3"
  bottom: "label"
  top: "accuracy"
  include {
    phase: TEST
  }
}
layer {
  name: "loss"
  type: "SoftmaxWithLoss"
  bottom: "fc3"
  bottom: "label"
  top: "loss"
}
I0531 19:34:52.504686 14335 layer_factory.hpp:77] Creating layer data
I0531 19:34:52.504696 14335 net.cpp:84] Creating Layer data
I0531 19:34:52.504700 14335 net.cpp:380] data -> data
I0531 19:34:52.504705 14335 net.cpp:380] data -> label
I0531 19:34:52.504711 14335 hdf5_data_layer.cpp:80] Loading list of HDF5 filenames from: data/modelnet40_ply_hdf5_2048/test_files.txt
I0531 19:34:52.504729 14335 hdf5_data_layer.cpp:94] Number of HDF5 files: 2
I0531 19:34:52.843778 14335 net.cpp:122] Setting up data
I0531 19:34:52.843806 14335 net.cpp:129] Top shape: 32 2048 3 (196608)
I0531 19:34:52.843811 14335 net.cpp:129] Top shape: 32 1 (32)
I0531 19:34:52.843814 14335 net.cpp:137] Memory required for data: 786560
I0531 19:34:52.843819 14335 layer_factory.hpp:77] Creating layer data_data_0_split
I0531 19:34:52.843828 14335 net.cpp:84] Creating Layer data_data_0_split
I0531 19:34:52.843832 14335 net.cpp:406] data_data_0_split <- data
I0531 19:34:52.843837 14335 net.cpp:380] data_data_0_split -> data_data_0_split_0
I0531 19:34:52.843845 14335 net.cpp:380] data_data_0_split -> data_data_0_split_1
I0531 19:34:52.844063 14335 net.cpp:122] Setting up data_data_0_split
I0531 19:34:52.844072 14335 net.cpp:129] Top shape: 32 2048 3 (196608)
I0531 19:34:52.844075 14335 net.cpp:129] Top shape: 32 2048 3 (196608)
I0531 19:34:52.844079 14335 net.cpp:137] Memory required for data: 2359424
I0531 19:34:52.844080 14335 layer_factory.hpp:77] Creating layer label_data_1_split
I0531 19:34:52.844132 14335 net.cpp:84] Creating Layer label_data_1_split
I0531 19:34:52.844137 14335 net.cpp:406] label_data_1_split <- label
I0531 19:34:52.844141 14335 net.cpp:380] label_data_1_split -> label_data_1_split_0
I0531 19:34:52.844146 14335 net.cpp:380] label_data_1_split -> label_data_1_split_1
I0531 19:34:52.844185 14335 net.cpp:122] Setting up label_data_1_split
I0531 19:34:52.844192 14335 net.cpp:129] Top shape: 32 1 (32)
I0531 19:34:52.844194 14335 net.cpp:129] Top shape: 32 1 (32)
I0531 19:34:52.844197 14335 net.cpp:137] Memory required for data: 2359680
I0531 19:34:52.844199 14335 layer_factory.hpp:77] Creating layer reshape
I0531 19:34:52.844205 14335 net.cpp:84] Creating Layer reshape
I0531 19:34:52.844208 14335 net.cpp:406] reshape <- data_data_0_split_0
I0531 19:34:52.844213 14335 net.cpp:380] reshape -> data_reshape
I0531 19:34:52.844251 14335 net.cpp:122] Setting up reshape
I0531 19:34:52.844257 14335 net.cpp:129] Top shape: 32 1 2048 3 (196608)
I0531 19:34:52.844261 14335 net.cpp:137] Memory required for data: 3146112
I0531 19:34:52.844264 14335 layer_factory.hpp:77] Creating layer conv1_tnet1
I0531 19:34:52.844274 14335 net.cpp:84] Creating Layer conv1_tnet1
I0531 19:34:52.844276 14335 net.cpp:406] conv1_tnet1 <- data_reshape
I0531 19:34:52.844281 14335 net.cpp:380] conv1_tnet1 -> conv1_tnet1
I0531 19:34:52.845350 14335 net.cpp:122] Setting up conv1_tnet1
I0531 19:34:52.845362 14335 net.cpp:129] Top shape: 32 64 2048 1 (4194304)
I0531 19:34:52.845366 14335 net.cpp:137] Memory required for data: 19923328
I0531 19:34:52.845374 14335 layer_factory.hpp:77] Creating layer bn1_tnet1
I0531 19:34:52.845381 14335 net.cpp:84] Creating Layer bn1_tnet1
I0531 19:34:52.845383 14335 net.cpp:406] bn1_tnet1 <- conv1_tnet1
I0531 19:34:52.845387 14335 net.cpp:380] bn1_tnet1 -> bn1_tnet1
I0531 19:34:52.845556 14335 net.cpp:122] Setting up bn1_tnet1
I0531 19:34:52.845564 14335 net.cpp:129] Top shape: 32 64 2048 1 (4194304)
I0531 19:34:52.845567 14335 net.cpp:137] Memory required for data: 36700544
I0531 19:34:52.845576 14335 layer_factory.hpp:77] Creating layer scale1_tnet1
I0531 19:34:52.845580 14335 net.cpp:84] Creating Layer scale1_tnet1
I0531 19:34:52.845583 14335 net.cpp:406] scale1_tnet1 <- bn1_tnet1
I0531 19:34:52.845587 14335 net.cpp:380] scale1_tnet1 -> scale1_tnet1
I0531 19:34:52.845623 14335 layer_factory.hpp:77] Creating layer scale1_tnet1
I0531 19:34:52.845710 14335 net.cpp:122] Setting up scale1_tnet1
I0531 19:34:52.845716 14335 net.cpp:129] Top shape: 32 64 2048 1 (4194304)
I0531 19:34:52.845719 14335 net.cpp:137] Memory required for data: 53477760
I0531 19:34:52.845724 14335 layer_factory.hpp:77] Creating layer relu1_tnet1
I0531 19:34:52.845728 14335 net.cpp:84] Creating Layer relu1_tnet1
I0531 19:34:52.845731 14335 net.cpp:406] relu1_tnet1 <- scale1_tnet1
I0531 19:34:52.845736 14335 net.cpp:367] relu1_tnet1 -> scale1_tnet1 (in-place)
I0531 19:34:52.845888 14335 net.cpp:122] Setting up relu1_tnet1
I0531 19:34:52.845897 14335 net.cpp:129] Top shape: 32 64 2048 1 (4194304)
I0531 19:34:52.845901 14335 net.cpp:137] Memory required for data: 70254976
I0531 19:34:52.845903 14335 layer_factory.hpp:77] Creating layer conv2_tnet1
I0531 19:34:52.845911 14335 net.cpp:84] Creating Layer conv2_tnet1
I0531 19:34:52.845913 14335 net.cpp:406] conv2_tnet1 <- scale1_tnet1
I0531 19:34:52.845918 14335 net.cpp:380] conv2_tnet1 -> conv2_tnet1
I0531 19:34:52.846879 14335 net.cpp:122] Setting up conv2_tnet1
I0531 19:34:52.846891 14335 net.cpp:129] Top shape: 32 128 2048 1 (8388608)
I0531 19:34:52.846894 14335 net.cpp:137] Memory required for data: 103809408
I0531 19:34:52.846902 14335 layer_factory.hpp:77] Creating layer bn2_tnet1
I0531 19:34:52.846907 14335 net.cpp:84] Creating Layer bn2_tnet1
I0531 19:34:52.846911 14335 net.cpp:406] bn2_tnet1 <- conv2_tnet1
I0531 19:34:52.846915 14335 net.cpp:380] bn2_tnet1 -> bn2_tnet1
I0531 19:34:52.847074 14335 net.cpp:122] Setting up bn2_tnet1
I0531 19:34:52.847081 14335 net.cpp:129] Top shape: 32 128 2048 1 (8388608)
I0531 19:34:52.847084 14335 net.cpp:137] Memory required for data: 137363840
I0531 19:34:52.847090 14335 layer_factory.hpp:77] Creating layer scale2_tnet1
I0531 19:34:52.847095 14335 net.cpp:84] Creating Layer scale2_tnet1
I0531 19:34:52.847097 14335 net.cpp:406] scale2_tnet1 <- bn2_tnet1
I0531 19:34:52.847101 14335 net.cpp:380] scale2_tnet1 -> scale2_tnet1
I0531 19:34:52.847131 14335 layer_factory.hpp:77] Creating layer scale2_tnet1
I0531 19:34:52.847211 14335 net.cpp:122] Setting up scale2_tnet1
I0531 19:34:52.847218 14335 net.cpp:129] Top shape: 32 128 2048 1 (8388608)
I0531 19:34:52.847220 14335 net.cpp:137] Memory required for data: 170918272
I0531 19:34:52.847225 14335 layer_factory.hpp:77] Creating layer relu2_tnet1
I0531 19:34:52.847229 14335 net.cpp:84] Creating Layer relu2_tnet1
I0531 19:34:52.847232 14335 net.cpp:406] relu2_tnet1 <- scale2_tnet1
I0531 19:34:52.847235 14335 net.cpp:367] relu2_tnet1 -> scale2_tnet1 (in-place)
I0531 19:34:52.847543 14335 net.cpp:122] Setting up relu2_tnet1
I0531 19:34:52.847553 14335 net.cpp:129] Top shape: 32 128 2048 1 (8388608)
I0531 19:34:52.847556 14335 net.cpp:137] Memory required for data: 204472704
I0531 19:34:52.847559 14335 layer_factory.hpp:77] Creating layer conv3_tnet1
I0531 19:34:52.847566 14335 net.cpp:84] Creating Layer conv3_tnet1
I0531 19:34:52.847570 14335 net.cpp:406] conv3_tnet1 <- scale2_tnet1
I0531 19:34:52.847574 14335 net.cpp:380] conv3_tnet1 -> conv3_tnet1
I0531 19:34:52.849472 14335 net.cpp:122] Setting up conv3_tnet1
I0531 19:34:52.849484 14335 net.cpp:129] Top shape: 32 1024 2048 1 (67108864)
I0531 19:34:52.849488 14335 net.cpp:137] Memory required for data: 472908160
I0531 19:34:52.849493 14335 layer_factory.hpp:77] Creating layer bn3_tnet1
I0531 19:34:52.849498 14335 net.cpp:84] Creating Layer bn3_tnet1
I0531 19:34:52.849503 14335 net.cpp:406] bn3_tnet1 <- conv3_tnet1
I0531 19:34:52.849506 14335 net.cpp:380] bn3_tnet1 -> bn3_tnet1
I0531 19:34:52.849666 14335 net.cpp:122] Setting up bn3_tnet1
I0531 19:34:52.849674 14335 net.cpp:129] Top shape: 32 1024 2048 1 (67108864)
I0531 19:34:52.849676 14335 net.cpp:137] Memory required for data: 741343616
I0531 19:34:52.849684 14335 layer_factory.hpp:77] Creating layer scale3_tnet1
I0531 19:34:52.849689 14335 net.cpp:84] Creating Layer scale3_tnet1
I0531 19:34:52.849692 14335 net.cpp:406] scale3_tnet1 <- bn3_tnet1
I0531 19:34:52.849696 14335 net.cpp:380] scale3_tnet1 -> scale3_tnet1
I0531 19:34:52.849728 14335 layer_factory.hpp:77] Creating layer scale3_tnet1
I0531 19:34:52.849814 14335 net.cpp:122] Setting up scale3_tnet1
I0531 19:34:52.849820 14335 net.cpp:129] Top shape: 32 1024 2048 1 (67108864)
I0531 19:34:52.849823 14335 net.cpp:137] Memory required for data: 1009779072
I0531 19:34:52.849828 14335 layer_factory.hpp:77] Creating layer relu3_tnet1
I0531 19:34:52.849833 14335 net.cpp:84] Creating Layer relu3_tnet1
I0531 19:34:52.849835 14335 net.cpp:406] relu3_tnet1 <- scale3_tnet1
I0531 19:34:52.849838 14335 net.cpp:367] relu3_tnet1 -> scale3_tnet1 (in-place)
I0531 19:34:52.850149 14335 net.cpp:122] Setting up relu3_tnet1
I0531 19:34:52.850159 14335 net.cpp:129] Top shape: 32 1024 2048 1 (67108864)
I0531 19:34:52.850162 14335 net.cpp:137] Memory required for data: 1278214528
I0531 19:34:52.850165 14335 layer_factory.hpp:77] Creating layer pool_tnet1
I0531 19:34:52.850172 14335 net.cpp:84] Creating Layer pool_tnet1
I0531 19:34:52.850175 14335 net.cpp:406] pool_tnet1 <- scale3_tnet1
I0531 19:34:52.850180 14335 net.cpp:380] pool_tnet1 -> global_feat_tnet1
I0531 19:34:52.850217 14335 net.cpp:122] Setting up pool_tnet1
I0531 19:34:52.850224 14335 net.cpp:129] Top shape: 32 1024 1 1 (32768)
I0531 19:34:52.850226 14335 net.cpp:137] Memory required for data: 1278345600
I0531 19:34:52.850229 14335 layer_factory.hpp:77] Creating layer fc1_tnet1
I0531 19:34:52.850235 14335 net.cpp:84] Creating Layer fc1_tnet1
I0531 19:34:52.850239 14335 net.cpp:406] fc1_tnet1 <- global_feat_tnet1
I0531 19:34:52.850242 14335 net.cpp:380] fc1_tnet1 -> fc1_tnet1
I0531 19:34:52.861999 14335 net.cpp:122] Setting up fc1_tnet1
I0531 19:34:52.862015 14335 net.cpp:129] Top shape: 32 512 (16384)
I0531 19:34:52.862018 14335 net.cpp:137] Memory required for data: 1278411136
I0531 19:34:52.862025 14335 layer_factory.hpp:77] Creating layer bn6_tnet1
I0531 19:34:52.862030 14335 net.cpp:84] Creating Layer bn6_tnet1
I0531 19:34:52.862035 14335 net.cpp:406] bn6_tnet1 <- fc1_tnet1
I0531 19:34:52.862040 14335 net.cpp:380] bn6_tnet1 -> bn6_tnet1
I0531 19:34:52.862200 14335 net.cpp:122] Setting up bn6_tnet1
I0531 19:34:52.862205 14335 net.cpp:129] Top shape: 32 512 (16384)
I0531 19:34:52.862208 14335 net.cpp:137] Memory required for data: 1278476672
I0531 19:34:52.862215 14335 layer_factory.hpp:77] Creating layer scale6_tnet1
I0531 19:34:52.862218 14335 net.cpp:84] Creating Layer scale6_tnet1
I0531 19:34:52.862221 14335 net.cpp:406] scale6_tnet1 <- bn6_tnet1
I0531 19:34:52.862226 14335 net.cpp:380] scale6_tnet1 -> scale6_tnet1
I0531 19:34:52.862255 14335 layer_factory.hpp:77] Creating layer scale6_tnet1
I0531 19:34:52.862354 14335 net.cpp:122] Setting up scale6_tnet1
I0531 19:34:52.862361 14335 net.cpp:129] Top shape: 32 512 (16384)
I0531 19:34:52.862365 14335 net.cpp:137] Memory required for data: 1278542208
I0531 19:34:52.862368 14335 layer_factory.hpp:77] Creating layer relu6_tnet1
I0531 19:34:52.862373 14335 net.cpp:84] Creating Layer relu6_tnet1
I0531 19:34:52.862376 14335 net.cpp:406] relu6_tnet1 <- scale6_tnet1
I0531 19:34:52.862380 14335 net.cpp:367] relu6_tnet1 -> scale6_tnet1 (in-place)
I0531 19:34:52.862552 14335 net.cpp:122] Setting up relu6_tnet1
I0531 19:34:52.862561 14335 net.cpp:129] Top shape: 32 512 (16384)
I0531 19:34:52.862565 14335 net.cpp:137] Memory required for data: 1278607744
I0531 19:34:52.862567 14335 layer_factory.hpp:77] Creating layer fc2_tnet1
I0531 19:34:52.862572 14335 net.cpp:84] Creating Layer fc2_tnet1
I0531 19:34:52.862576 14335 net.cpp:406] fc2_tnet1 <- scale6_tnet1
I0531 19:34:52.862581 14335 net.cpp:380] fc2_tnet1 -> fc2_tnet1
I0531 19:34:52.865442 14335 net.cpp:122] Setting up fc2_tnet1
I0531 19:34:52.865449 14335 net.cpp:129] Top shape: 32 256 (8192)
I0531 19:34:52.865453 14335 net.cpp:137] Memory required for data: 1278640512
I0531 19:34:52.865458 14335 layer_factory.hpp:77] Creating layer bn7_tnet1
I0531 19:34:52.865461 14335 net.cpp:84] Creating Layer bn7_tnet1
I0531 19:34:52.865464 14335 net.cpp:406] bn7_tnet1 <- fc2_tnet1
I0531 19:34:52.865468 14335 net.cpp:380] bn7_tnet1 -> bn7_tnet1
I0531 19:34:52.865622 14335 net.cpp:122] Setting up bn7_tnet1
I0531 19:34:52.865628 14335 net.cpp:129] Top shape: 32 256 (8192)
I0531 19:34:52.865630 14335 net.cpp:137] Memory required for data: 1278673280
I0531 19:34:52.865641 14335 layer_factory.hpp:77] Creating layer scale7_tnet1
I0531 19:34:52.865646 14335 net.cpp:84] Creating Layer scale7_tnet1
I0531 19:34:52.865650 14335 net.cpp:406] scale7_tnet1 <- bn7_tnet1
I0531 19:34:52.865654 14335 net.cpp:380] scale7_tnet1 -> scale7_tnet1
I0531 19:34:52.865685 14335 layer_factory.hpp:77] Creating layer scale7_tnet1
I0531 19:34:52.865767 14335 net.cpp:122] Setting up scale7_tnet1
I0531 19:34:52.865772 14335 net.cpp:129] Top shape: 32 256 (8192)
I0531 19:34:52.865774 14335 net.cpp:137] Memory required for data: 1278706048
I0531 19:34:52.865779 14335 layer_factory.hpp:77] Creating layer relu7_tnet1
I0531 19:34:52.865783 14335 net.cpp:84] Creating Layer relu7_tnet1
I0531 19:34:52.865787 14335 net.cpp:406] relu7_tnet1 <- scale7_tnet1
I0531 19:34:52.865790 14335 net.cpp:367] relu7_tnet1 -> scale7_tnet1 (in-place)
I0531 19:34:52.866129 14335 net.cpp:122] Setting up relu7_tnet1
I0531 19:34:52.866140 14335 net.cpp:129] Top shape: 32 256 (8192)
I0531 19:34:52.866143 14335 net.cpp:137] Memory required for data: 1278738816
I0531 19:34:52.866147 14335 layer_factory.hpp:77] Creating layer fc3_tnet1
I0531 19:34:52.866153 14335 net.cpp:84] Creating Layer fc3_tnet1
I0531 19:34:52.866155 14335 net.cpp:406] fc3_tnet1 <- scale7_tnet1
I0531 19:34:52.866160 14335 net.cpp:380] fc3_tnet1 -> fc3_tnet1
I0531 19:34:52.866257 14335 net.cpp:122] Setting up fc3_tnet1
I0531 19:34:52.866264 14335 net.cpp:129] Top shape: 32 9 (288)
I0531 19:34:52.866267 14335 net.cpp:137] Memory required for data: 1278739968
I0531 19:34:52.866272 14335 layer_factory.hpp:77] Creating layer fc3_tnet1_fc3_tnet1_0_split
I0531 19:34:52.866276 14335 net.cpp:84] Creating Layer fc3_tnet1_fc3_tnet1_0_split
I0531 19:34:52.866279 14335 net.cpp:406] fc3_tnet1_fc3_tnet1_0_split <- fc3_tnet1
I0531 19:34:52.866283 14335 net.cpp:380] fc3_tnet1_fc3_tnet1_0_split -> fc3_tnet1_fc3_tnet1_0_split_0
I0531 19:34:52.866288 14335 net.cpp:380] fc3_tnet1_fc3_tnet1_0_split -> fc3_tnet1_fc3_tnet1_0_split_1
I0531 19:34:52.866317 14335 net.cpp:122] Setting up fc3_tnet1_fc3_tnet1_0_split
I0531 19:34:52.866323 14335 net.cpp:129] Top shape: 32 9 (288)
I0531 19:34:52.866327 14335 net.cpp:129] Top shape: 32 9 (288)
I0531 19:34:52.866328 14335 net.cpp:137] Memory required for data: 1278742272
I0531 19:34:52.866331 14335 layer_factory.hpp:77] Creating layer reshape_tnet1
I0531 19:34:52.866336 14335 net.cpp:84] Creating Layer reshape_tnet1
I0531 19:34:52.866348 14335 net.cpp:406] reshape_tnet1 <- fc3_tnet1_fc3_tnet1_0_split_0
I0531 19:34:52.866353 14335 net.cpp:380] reshape_tnet1 -> fc3_tnet1_reshape
I0531 19:34:52.866377 14335 net.cpp:122] Setting up reshape_tnet1
I0531 19:34:52.866382 14335 net.cpp:129] Top shape: 32 3 3 (288)
I0531 19:34:52.866386 14335 net.cpp:137] Memory required for data: 1278743424
I0531 19:34:52.866389 14335 layer_factory.hpp:77] Creating layer eye_tnet1
I0531 19:34:52.866433 14335 net.cpp:84] Creating Layer eye_tnet1
I0531 19:34:52.866438 14335 net.cpp:406] eye_tnet1 <- fc3_tnet1_fc3_tnet1_0_split_1
I0531 19:34:52.866444 14335 net.cpp:380] eye_tnet1 -> eye_tnet1
I0531 19:34:52.866552 14335 net.cpp:122] Setting up eye_tnet1
I0531 19:34:52.866561 14335 net.cpp:129] Top shape: 32 3 3 (288)
I0531 19:34:52.866565 14335 net.cpp:137] Memory required for data: 1278744576
I0531 19:34:52.866569 14335 layer_factory.hpp:77] Creating layer eltwise_sum_tnet1
I0531 19:34:52.866575 14335 net.cpp:84] Creating Layer eltwise_sum_tnet1
I0531 19:34:52.866577 14335 net.cpp:406] eltwise_sum_tnet1 <- fc3_tnet1_reshape
I0531 19:34:52.866581 14335 net.cpp:406] eltwise_sum_tnet1 <- eye_tnet1
I0531 19:34:52.866586 14335 net.cpp:380] eltwise_sum_tnet1 -> transform1
I0531 19:34:52.866607 14335 net.cpp:122] Setting up eltwise_sum_tnet1
I0531 19:34:52.866613 14335 net.cpp:129] Top shape: 32 3 3 (288)
I0531 19:34:52.866616 14335 net.cpp:137] Memory required for data: 1278745728
I0531 19:34:52.866619 14335 layer_factory.hpp:77] Creating layer matmul_input
I0531 19:34:52.866623 14335 net.cpp:84] Creating Layer matmul_input
I0531 19:34:52.866626 14335 net.cpp:406] matmul_input <- data_data_0_split_1
I0531 19:34:52.866631 14335 net.cpp:406] matmul_input <- transform1
I0531 19:34:52.866636 14335 net.cpp:380] matmul_input -> data_transform1
I0531 19:34:52.866653 14335 net.cpp:122] Setting up matmul_input
I0531 19:34:52.866658 14335 net.cpp:129] Top shape: 32 2048 3 (196608)
I0531 19:34:52.866662 14335 net.cpp:137] Memory required for data: 1279532160
I0531 19:34:52.866664 14335 layer_factory.hpp:77] Creating layer reshape
I0531 19:34:52.866668 14335 net.cpp:84] Creating Layer reshape
I0531 19:34:52.866672 14335 net.cpp:406] reshape <- data_transform1
I0531 19:34:52.866677 14335 net.cpp:380] reshape -> data_transform1_reshape
I0531 19:34:52.866696 14335 net.cpp:122] Setting up reshape
I0531 19:34:52.866701 14335 net.cpp:129] Top shape: 32 1 2048 3 (196608)
I0531 19:34:52.866704 14335 net.cpp:137] Memory required for data: 1280318592
I0531 19:34:52.866708 14335 layer_factory.hpp:77] Creating layer conv1
I0531 19:34:52.866716 14335 net.cpp:84] Creating Layer conv1
I0531 19:34:52.866720 14335 net.cpp:406] conv1 <- data_transform1_reshape
I0531 19:34:52.866725 14335 net.cpp:380] conv1 -> conv1
I0531 19:34:52.867688 14335 net.cpp:122] Setting up conv1
I0531 19:34:52.867700 14335 net.cpp:129] Top shape: 32 64 2048 1 (4194304)
I0531 19:34:52.867704 14335 net.cpp:137] Memory required for data: 1297095808
I0531 19:34:52.867710 14335 layer_factory.hpp:77] Creating layer bn1
I0531 19:34:52.867717 14335 net.cpp:84] Creating Layer bn1
I0531 19:34:52.867719 14335 net.cpp:406] bn1 <- conv1
I0531 19:34:52.867724 14335 net.cpp:380] bn1 -> bn1
I0531 19:34:52.867894 14335 net.cpp:122] Setting up bn1
I0531 19:34:52.867902 14335 net.cpp:129] Top shape: 32 64 2048 1 (4194304)
I0531 19:34:52.867905 14335 net.cpp:137] Memory required for data: 1313873024
I0531 19:34:52.867911 14335 layer_factory.hpp:77] Creating layer scale1
I0531 19:34:52.867916 14335 net.cpp:84] Creating Layer scale1
I0531 19:34:52.867920 14335 net.cpp:406] scale1 <- bn1
I0531 19:34:52.867924 14335 net.cpp:380] scale1 -> scale1
I0531 19:34:52.867957 14335 layer_factory.hpp:77] Creating layer scale1
I0531 19:34:52.868043 14335 net.cpp:122] Setting up scale1
I0531 19:34:52.868049 14335 net.cpp:129] Top shape: 32 64 2048 1 (4194304)
I0531 19:34:52.868052 14335 net.cpp:137] Memory required for data: 1330650240
I0531 19:34:52.868057 14335 layer_factory.hpp:77] Creating layer relu1
I0531 19:34:52.868072 14335 net.cpp:84] Creating Layer relu1
I0531 19:34:52.868075 14335 net.cpp:406] relu1 <- scale1
I0531 19:34:52.868079 14335 net.cpp:367] relu1 -> scale1 (in-place)
I0531 19:34:52.868230 14335 net.cpp:122] Setting up relu1
I0531 19:34:52.868238 14335 net.cpp:129] Top shape: 32 64 2048 1 (4194304)
I0531 19:34:52.868242 14335 net.cpp:137] Memory required for data: 1347427456
I0531 19:34:52.868244 14335 layer_factory.hpp:77] Creating layer conv2
I0531 19:34:52.868252 14335 net.cpp:84] Creating Layer conv2
I0531 19:34:52.868257 14335 net.cpp:406] conv2 <- scale1
I0531 19:34:52.868261 14335 net.cpp:380] conv2 -> conv2
I0531 19:34:52.869194 14335 net.cpp:122] Setting up conv2
I0531 19:34:52.869204 14335 net.cpp:129] Top shape: 32 64 2048 1 (4194304)
I0531 19:34:52.869210 14335 net.cpp:137] Memory required for data: 1364204672
I0531 19:34:52.869215 14335 layer_factory.hpp:77] Creating layer bn2
I0531 19:34:52.869220 14335 net.cpp:84] Creating Layer bn2
I0531 19:34:52.869223 14335 net.cpp:406] bn2 <- conv2
I0531 19:34:52.869227 14335 net.cpp:380] bn2 -> bn2
I0531 19:34:52.869391 14335 net.cpp:122] Setting up bn2
I0531 19:34:52.869397 14335 net.cpp:129] Top shape: 32 64 2048 1 (4194304)
I0531 19:34:52.869400 14335 net.cpp:137] Memory required for data: 1380981888
I0531 19:34:52.869405 14335 layer_factory.hpp:77] Creating layer scale2
I0531 19:34:52.869410 14335 net.cpp:84] Creating Layer scale2
I0531 19:34:52.869412 14335 net.cpp:406] scale2 <- bn2
I0531 19:34:52.869416 14335 net.cpp:380] scale2 -> scale2
I0531 19:34:52.869449 14335 layer_factory.hpp:77] Creating layer scale2
I0531 19:34:52.869536 14335 net.cpp:122] Setting up scale2
I0531 19:34:52.869542 14335 net.cpp:129] Top shape: 32 64 2048 1 (4194304)
I0531 19:34:52.869545 14335 net.cpp:137] Memory required for data: 1397759104
I0531 19:34:52.869549 14335 layer_factory.hpp:77] Creating layer relu2
I0531 19:34:52.869554 14335 net.cpp:84] Creating Layer relu2
I0531 19:34:52.869559 14335 net.cpp:406] relu2 <- scale2
I0531 19:34:52.869561 14335 net.cpp:367] relu2 -> scale2 (in-place)
I0531 19:34:52.869855 14335 net.cpp:122] Setting up relu2
I0531 19:34:52.869865 14335 net.cpp:129] Top shape: 32 64 2048 1 (4194304)
I0531 19:34:52.869868 14335 net.cpp:137] Memory required for data: 1414536320
I0531 19:34:52.869871 14335 layer_factory.hpp:77] Creating layer conv3
I0531 19:34:52.869879 14335 net.cpp:84] Creating Layer conv3
I0531 19:34:52.869884 14335 net.cpp:406] conv3 <- scale2
I0531 19:34:52.869887 14335 net.cpp:380] conv3 -> conv3
I0531 19:34:52.870805 14335 net.cpp:122] Setting up conv3
I0531 19:34:52.870817 14335 net.cpp:129] Top shape: 32 64 2048 1 (4194304)
I0531 19:34:52.870821 14335 net.cpp:137] Memory required for data: 1431313536
I0531 19:34:52.870826 14335 layer_factory.hpp:77] Creating layer bn3
I0531 19:34:52.870831 14335 net.cpp:84] Creating Layer bn3
I0531 19:34:52.870836 14335 net.cpp:406] bn3 <- conv3
I0531 19:34:52.870839 14335 net.cpp:380] bn3 -> bn3
I0531 19:34:52.871007 14335 net.cpp:122] Setting up bn3
I0531 19:34:52.871013 14335 net.cpp:129] Top shape: 32 64 2048 1 (4194304)
I0531 19:34:52.871017 14335 net.cpp:137] Memory required for data: 1448090752
I0531 19:34:52.871023 14335 layer_factory.hpp:77] Creating layer scale3
I0531 19:34:52.871027 14335 net.cpp:84] Creating Layer scale3
I0531 19:34:52.871031 14335 net.cpp:406] scale3 <- bn3
I0531 19:34:52.871035 14335 net.cpp:380] scale3 -> scale3
I0531 19:34:52.871068 14335 layer_factory.hpp:77] Creating layer scale3
I0531 19:34:52.871155 14335 net.cpp:122] Setting up scale3
I0531 19:34:52.871162 14335 net.cpp:129] Top shape: 32 64 2048 1 (4194304)
I0531 19:34:52.871165 14335 net.cpp:137] Memory required for data: 1464867968
I0531 19:34:52.871170 14335 layer_factory.hpp:77] Creating layer relu3
I0531 19:34:52.871174 14335 net.cpp:84] Creating Layer relu3
I0531 19:34:52.871178 14335 net.cpp:406] relu3 <- scale3
I0531 19:34:52.871181 14335 net.cpp:367] relu3 -> scale3 (in-place)
I0531 19:34:52.871466 14335 net.cpp:122] Setting up relu3
I0531 19:34:52.871476 14335 net.cpp:129] Top shape: 32 64 2048 1 (4194304)
I0531 19:34:52.871490 14335 net.cpp:137] Memory required for data: 1481645184
I0531 19:34:52.871493 14335 layer_factory.hpp:77] Creating layer conv4
I0531 19:34:52.871502 14335 net.cpp:84] Creating Layer conv4
I0531 19:34:52.871506 14335 net.cpp:406] conv4 <- scale3
I0531 19:34:52.871511 14335 net.cpp:380] conv4 -> conv4
I0531 19:34:52.872632 14335 net.cpp:122] Setting up conv4
I0531 19:34:52.872643 14335 net.cpp:129] Top shape: 32 128 2048 1 (8388608)
I0531 19:34:52.872647 14335 net.cpp:137] Memory required for data: 1515199616
I0531 19:34:52.872653 14335 layer_factory.hpp:77] Creating layer bn4
I0531 19:34:52.872658 14335 net.cpp:84] Creating Layer bn4
I0531 19:34:52.872661 14335 net.cpp:406] bn4 <- conv4
I0531 19:34:52.872665 14335 net.cpp:380] bn4 -> bn4
I0531 19:34:52.872828 14335 net.cpp:122] Setting up bn4
I0531 19:34:52.872833 14335 net.cpp:129] Top shape: 32 128 2048 1 (8388608)
I0531 19:34:52.872836 14335 net.cpp:137] Memory required for data: 1548754048
I0531 19:34:52.872843 14335 layer_factory.hpp:77] Creating layer scale4
I0531 19:34:52.872848 14335 net.cpp:84] Creating Layer scale4
I0531 19:34:52.872850 14335 net.cpp:406] scale4 <- bn4
I0531 19:34:52.872862 14335 net.cpp:380] scale4 -> scale4
I0531 19:34:52.872896 14335 layer_factory.hpp:77] Creating layer scale4
I0531 19:34:52.872982 14335 net.cpp:122] Setting up scale4
I0531 19:34:52.872988 14335 net.cpp:129] Top shape: 32 128 2048 1 (8388608)
I0531 19:34:52.872992 14335 net.cpp:137] Memory required for data: 1582308480
I0531 19:34:52.873003 14335 layer_factory.hpp:77] Creating layer relu4
I0531 19:34:52.873008 14335 net.cpp:84] Creating Layer relu4
I0531 19:34:52.873011 14335 net.cpp:406] relu4 <- scale4
I0531 19:34:52.873015 14335 net.cpp:367] relu4 -> scale4 (in-place)
I0531 19:34:52.873168 14335 net.cpp:122] Setting up relu4
I0531 19:34:52.873178 14335 net.cpp:129] Top shape: 32 128 2048 1 (8388608)
I0531 19:34:52.873180 14335 net.cpp:137] Memory required for data: 1615862912
I0531 19:34:52.873183 14335 layer_factory.hpp:77] Creating layer conv5
I0531 19:34:52.873190 14335 net.cpp:84] Creating Layer conv5
I0531 19:34:52.873195 14335 net.cpp:406] conv5 <- scale4
I0531 19:34:52.873199 14335 net.cpp:380] conv5 -> conv5
I0531 19:34:52.875334 14335 net.cpp:122] Setting up conv5
I0531 19:34:52.875349 14335 net.cpp:129] Top shape: 32 1024 2048 1 (67108864)
I0531 19:34:52.875352 14335 net.cpp:137] Memory required for data: 1884298368
I0531 19:34:52.875360 14335 layer_factory.hpp:77] Creating layer bn5
I0531 19:34:52.875365 14335 net.cpp:84] Creating Layer bn5
I0531 19:34:52.875368 14335 net.cpp:406] bn5 <- conv5
I0531 19:34:52.875373 14335 net.cpp:380] bn5 -> bn5
I0531 19:34:52.875542 14335 net.cpp:122] Setting up bn5
I0531 19:34:52.875550 14335 net.cpp:129] Top shape: 32 1024 2048 1 (67108864)
I0531 19:34:52.875552 14335 net.cpp:137] Memory required for data: 2152733824
I0531 19:34:52.875558 14335 layer_factory.hpp:77] Creating layer scale5
I0531 19:34:52.875564 14335 net.cpp:84] Creating Layer scale5
I0531 19:34:52.875568 14335 net.cpp:406] scale5 <- bn5
I0531 19:34:52.875572 14335 net.cpp:380] scale5 -> scale5
I0531 19:34:52.875605 14335 layer_factory.hpp:77] Creating layer scale5
I0531 19:34:52.875695 14335 net.cpp:122] Setting up scale5
I0531 19:34:52.875702 14335 net.cpp:129] Top shape: 32 1024 2048 1 (67108864)
I0531 19:34:52.875705 14335 net.cpp:137] Memory required for data: 2421169280
I0531 19:34:52.875710 14335 layer_factory.hpp:77] Creating layer relu5
I0531 19:34:52.875715 14335 net.cpp:84] Creating Layer relu5
I0531 19:34:52.875718 14335 net.cpp:406] relu5 <- scale5
I0531 19:34:52.875722 14335 net.cpp:367] relu5 -> scale5 (in-place)
I0531 19:34:52.876030 14335 net.cpp:122] Setting up relu5
I0531 19:34:52.876040 14335 net.cpp:129] Top shape: 32 1024 2048 1 (67108864)
I0531 19:34:52.876044 14335 net.cpp:137] Memory required for data: 2689604736
I0531 19:34:52.876047 14335 layer_factory.hpp:77] Creating layer pool
I0531 19:34:52.876052 14335 net.cpp:84] Creating Layer pool
I0531 19:34:52.876056 14335 net.cpp:406] pool <- scale5
I0531 19:34:52.876073 14335 net.cpp:380] pool -> global_feat
I0531 19:34:52.876114 14335 net.cpp:122] Setting up pool
I0531 19:34:52.876121 14335 net.cpp:129] Top shape: 32 1024 1 1 (32768)
I0531 19:34:52.876124 14335 net.cpp:137] Memory required for data: 2689735808
I0531 19:34:52.876127 14335 layer_factory.hpp:77] Creating layer fc1
I0531 19:34:52.876133 14335 net.cpp:84] Creating Layer fc1
I0531 19:34:52.876137 14335 net.cpp:406] fc1 <- global_feat
I0531 19:34:52.876142 14335 net.cpp:380] fc1 -> fc1
I0531 19:34:52.888168 14335 net.cpp:122] Setting up fc1
I0531 19:34:52.888183 14335 net.cpp:129] Top shape: 32 512 (16384)
I0531 19:34:52.888186 14335 net.cpp:137] Memory required for data: 2689801344
I0531 19:34:52.888192 14335 layer_factory.hpp:77] Creating layer bn6
I0531 19:34:52.888200 14335 net.cpp:84] Creating Layer bn6
I0531 19:34:52.888202 14335 net.cpp:406] bn6 <- fc1
I0531 19:34:52.888207 14335 net.cpp:380] bn6 -> bn6
I0531 19:34:52.888372 14335 net.cpp:122] Setting up bn6
I0531 19:34:52.888379 14335 net.cpp:129] Top shape: 32 512 (16384)
I0531 19:34:52.888381 14335 net.cpp:137] Memory required for data: 2689866880
I0531 19:34:52.888387 14335 layer_factory.hpp:77] Creating layer scale6
I0531 19:34:52.888392 14335 net.cpp:84] Creating Layer scale6
I0531 19:34:52.888396 14335 net.cpp:406] scale6 <- bn6
I0531 19:34:52.888399 14335 net.cpp:380] scale6 -> scale6
I0531 19:34:52.888430 14335 layer_factory.hpp:77] Creating layer scale6
I0531 19:34:52.888519 14335 net.cpp:122] Setting up scale6
I0531 19:34:52.888525 14335 net.cpp:129] Top shape: 32 512 (16384)
I0531 19:34:52.888527 14335 net.cpp:137] Memory required for data: 2689932416
I0531 19:34:52.888531 14335 layer_factory.hpp:77] Creating layer relu6
I0531 19:34:52.888535 14335 net.cpp:84] Creating Layer relu6
I0531 19:34:52.888538 14335 net.cpp:406] relu6 <- scale6
I0531 19:34:52.888542 14335 net.cpp:367] relu6 -> scale6 (in-place)
I0531 19:34:52.888710 14335 net.cpp:122] Setting up relu6
I0531 19:34:52.888718 14335 net.cpp:129] Top shape: 32 512 (16384)
I0531 19:34:52.888720 14335 net.cpp:137] Memory required for data: 2689997952
I0531 19:34:52.888725 14335 layer_factory.hpp:77] Creating layer fc2
I0531 19:34:52.888730 14335 net.cpp:84] Creating Layer fc2
I0531 19:34:52.888732 14335 net.cpp:406] fc2 <- scale6
I0531 19:34:52.888737 14335 net.cpp:380] fc2 -> fc2
I0531 19:34:52.891604 14335 net.cpp:122] Setting up fc2
I0531 19:34:52.891613 14335 net.cpp:129] Top shape: 32 256 (8192)
I0531 19:34:52.891615 14335 net.cpp:137] Memory required for data: 2690030720
I0531 19:34:52.891620 14335 layer_factory.hpp:77] Creating layer bn7
I0531 19:34:52.891624 14335 net.cpp:84] Creating Layer bn7
I0531 19:34:52.891628 14335 net.cpp:406] bn7 <- fc2
I0531 19:34:52.891631 14335 net.cpp:380] bn7 -> bn7
I0531 19:34:52.891790 14335 net.cpp:122] Setting up bn7
I0531 19:34:52.891796 14335 net.cpp:129] Top shape: 32 256 (8192)
I0531 19:34:52.891799 14335 net.cpp:137] Memory required for data: 2690063488
I0531 19:34:52.891804 14335 layer_factory.hpp:77] Creating layer scale7
I0531 19:34:52.891809 14335 net.cpp:84] Creating Layer scale7
I0531 19:34:52.891811 14335 net.cpp:406] scale7 <- bn7
I0531 19:34:52.891815 14335 net.cpp:380] scale7 -> scale7
I0531 19:34:52.891847 14335 layer_factory.hpp:77] Creating layer scale7
I0531 19:34:52.891930 14335 net.cpp:122] Setting up scale7
I0531 19:34:52.891937 14335 net.cpp:129] Top shape: 32 256 (8192)
I0531 19:34:52.891938 14335 net.cpp:137] Memory required for data: 2690096256
I0531 19:34:52.891943 14335 layer_factory.hpp:77] Creating layer relu7
I0531 19:34:52.891947 14335 net.cpp:84] Creating Layer relu7
I0531 19:34:52.891950 14335 net.cpp:406] relu7 <- scale7
I0531 19:34:52.891954 14335 net.cpp:367] relu7 -> scale7 (in-place)
I0531 19:34:52.892283 14335 net.cpp:122] Setting up relu7
I0531 19:34:52.892293 14335 net.cpp:129] Top shape: 32 256 (8192)
I0531 19:34:52.892297 14335 net.cpp:137] Memory required for data: 2690129024
I0531 19:34:52.892299 14335 layer_factory.hpp:77] Creating layer drop1
I0531 19:34:52.892305 14335 net.cpp:84] Creating Layer drop1
I0531 19:34:52.892320 14335 net.cpp:406] drop1 <- scale7
I0531 19:34:52.892325 14335 net.cpp:380] drop1 -> drop1
I0531 19:34:52.892364 14335 net.cpp:122] Setting up drop1
I0531 19:34:52.892370 14335 net.cpp:129] Top shape: 32 256 (8192)
I0531 19:34:52.892372 14335 net.cpp:137] Memory required for data: 2690161792
I0531 19:34:52.892375 14335 layer_factory.hpp:77] Creating layer fc3
I0531 19:34:52.892379 14335 net.cpp:84] Creating Layer fc3
I0531 19:34:52.892382 14335 net.cpp:406] fc3 <- drop1
I0531 19:34:52.892387 14335 net.cpp:380] fc3 -> fc3
I0531 19:34:52.892698 14335 net.cpp:122] Setting up fc3
I0531 19:34:52.892704 14335 net.cpp:129] Top shape: 32 40 (1280)
I0531 19:34:52.892706 14335 net.cpp:137] Memory required for data: 2690166912
I0531 19:34:52.892710 14335 layer_factory.hpp:77] Creating layer fc3_fc3_0_split
I0531 19:34:52.892716 14335 net.cpp:84] Creating Layer fc3_fc3_0_split
I0531 19:34:52.892719 14335 net.cpp:406] fc3_fc3_0_split <- fc3
I0531 19:34:52.892724 14335 net.cpp:380] fc3_fc3_0_split -> fc3_fc3_0_split_0
I0531 19:34:52.892729 14335 net.cpp:380] fc3_fc3_0_split -> fc3_fc3_0_split_1
I0531 19:34:52.892758 14335 net.cpp:122] Setting up fc3_fc3_0_split
I0531 19:34:52.892765 14335 net.cpp:129] Top shape: 32 40 (1280)
I0531 19:34:52.892767 14335 net.cpp:129] Top shape: 32 40 (1280)
I0531 19:34:52.892771 14335 net.cpp:137] Memory required for data: 2690177152
I0531 19:34:52.892773 14335 layer_factory.hpp:77] Creating layer accuracy
I0531 19:34:52.892783 14335 net.cpp:84] Creating Layer accuracy
I0531 19:34:52.892787 14335 net.cpp:406] accuracy <- fc3_fc3_0_split_0
I0531 19:34:52.892791 14335 net.cpp:406] accuracy <- label_data_1_split_0
I0531 19:34:52.892796 14335 net.cpp:380] accuracy -> accuracy
…
