…
I0807 15:34:54.618896 25219 net.cpp:294] The NetState phase (1) differed from the phase (0) specified by a rule in layer reshape
I0807 15:34:54.618911 25219 net.cpp:294] The NetState phase (1) differed from the phase (0) specified by a rule in layer loss
I0807 15:34:54.619076 25219 net.cpp:51] Initializing net from parameters: 
name: "pointnet_cls_basic"
state {
  phase: TEST
  level: 0
  stage: ""
}
layer {
  name: "data"
  type: "HDF5Data"
  top: "data"
  top: "label"
  include {
    phase: TEST
  }
  hdf5_data_param {
    source: "data/modelnet40_ply_hdf5_2048/test_files.txt"
    batch_size: 32
  }
}
layer {
  name: "reshape"
  type: "Reshape"
  bottom: "data"
  top: "data_reshape"
  include {
    phase: TEST
  }
  reshape_param {
    shape {
      dim: 0
      dim: 1
      dim: -1
      dim: 3
    }
  }
}
layer {
  name: "conv1"
  type: "Convolution"
  bottom: "data_reshape"
  top: "conv1"
  param {
    lr_mult: 1
  }
  param {
    lr_mult: 2
  }
  convolution_param {
    num_output: 64
    pad: 0
    stride: 1
    weight_filler {
      type: "xavier"
    }
    bias_filler {
      type: "constant"
      value: 0
    }
    kernel_h: 1
    kernel_w: 3
  }
}
layer {
  name: "bn1"
  type: "BatchNorm"
  bottom: "conv1"
  top: "conv1"
}
layer {
  name: "scale1"
  type: "Scale"
  bottom: "conv1"
  top: "conv1"
  scale_param {
    bias_term: true
  }
}
layer {
  name: "relu1"
  type: "ReLU"
  bottom: "conv1"
  top: "conv1"
}
layer {
  name: "conv2"
  type: "Convolution"
  bottom: "conv1"
  top: "conv2"
  param {
    lr_mult: 1
  }
  param {
    lr_mult: 2
  }
  convolution_param {
    num_output: 64
    pad: 0
    stride: 1
    weight_filler {
      type: "xavier"
    }
    bias_filler {
      type: "constant"
      value: 0
    }
    kernel_h: 1
    kernel_w: 1
  }
}
layer {
  name: "bn2"
  type: "BatchNorm"
  bottom: "conv2"
  top: "conv2"
}
layer {
  name: "scale2"
  type: "Scale"
  bottom: "conv2"
  top: "conv2"
  scale_param {
    bias_term: true
  }
}
layer {
  name: "relu2"
  type: "ReLU"
  bottom: "conv2"
  top: "conv2"
}
layer {
  name: "conv3"
  type: "Convolution"
  bottom: "conv2"
  top: "conv3"
  param {
    lr_mult: 1
  }
  param {
    lr_mult: 2
  }
  convolution_param {
    num_output: 64
    pad: 0
    stride: 1
    weight_filler {
      type: "xavier"
    }
    bias_filler {
      type: "constant"
      value: 0
    }
    kernel_h: 1
    kernel_w: 1
  }
}
layer {
  name: "bn3"
  type: "BatchNorm"
  bottom: "conv3"
  top: "conv3"
}
layer {
  name: "scale3"
  type: "Scale"
  bottom: "conv3"
  top: "conv3"
  scale_param {
    bias_term: true
  }
}
layer {
  name: "relu3"
  type: "ReLU"
  bottom: "conv3"
  top: "conv3"
}
layer {
  name: "conv4"
  type: "Convolution"
  bottom: "conv3"
  top: "conv4"
  param {
    lr_mult: 1
  }
  param {
    lr_mult: 2
  }
  convolution_param {
    num_output: 128
    pad: 0
    stride: 1
    weight_filler {
      type: "xavier"
    }
    bias_filler {
      type: "constant"
      value: 0
    }
    kernel_h: 1
    kernel_w: 1
  }
}
layer {
  name: "bn4"
  type: "BatchNorm"
  bottom: "conv4"
  top: "conv4"
}
layer {
  name: "scale4"
  type: "Scale"
  bottom: "conv4"
  top: "conv4"
  scale_param {
    bias_term: true
  }
}
layer {
  name: "relu4"
  type: "ReLU"
  bottom: "conv4"
  top: "conv4"
}
layer {
  name: "conv5"
  type: "Convolution"
  bottom: "conv4"
  top: "conv5"
  param {
    lr_mult: 1
  }
  param {
    lr_mult: 2
  }
  convolution_param {
    num_output: 1024
    pad: 0
    stride: 1
    weight_filler {
      type: "xavier"
    }
    bias_filler {
      type: "constant"
      value: 0
    }
    kernel_h: 1
    kernel_w: 1
  }
}
layer {
  name: "bn5"
  type: "BatchNorm"
  bottom: "conv5"
  top: "conv5"
}
layer {
  name: "scale5"
  type: "Scale"
  bottom: "conv5"
  top: "conv5"
  scale_param {
    bias_term: true
  }
}
layer {
  name: "relu5"
  type: "ReLU"
  bottom: "conv5"
  top: "conv5"
}
layer {
  name: "pool"
  type: "Pooling"
  bottom: "conv5"
  top: "global_feat"
  pooling_param {
    pool: MAX
    stride: 1
    pad: 0
    kernel_h: 2048
    kernel_w: 1
  }
}
layer {
  name: "fc1"
  type: "InnerProduct"
  bottom: "global_feat"
  top: "fc1"
  param {
    lr_mult: 1
    decay_mult: 1
  }
  param {
    lr_mult: 1
    decay_mult: 1
  }
  inner_product_param {
    num_output: 512
    weight_filler {
      type: "gaussian"
      std: 0.001
    }
    bias_filler {
      type: "constant"
      value: 0
    }
  }
}
layer {
  name: "bn6"
  type: "BatchNorm"
  bottom: "fc1"
  top: "fc1"
}
layer {
  name: "scale6"
  type: "Scale"
  bottom: "fc1"
  top: "fc1"
  scale_param {
    bias_term: true
  }
}
layer {
  name: "relu6"
  type: "ReLU"
  bottom: "fc1"
  top: "fc1"
}
layer {
  name: "fc2"
  type: "InnerProduct"
  bottom: "fc1"
  top: "fc2"
  param {
    lr_mult: 1
    decay_mult: 1
  }
  param {
    lr_mult: 1
    decay_mult: 1
  }
  inner_product_param {
    num_output: 256
    weight_filler {
      type: "gaussian"
      std: 0.001
    }
    bias_filler {
      type: "constant"
      value: 0
    }
  }
}
layer {
  name: "bn7"
  type: "BatchNorm"
  bottom: "fc2"
  top: "fc2"
}
layer {
  name: "scale7"
  type: "Scale"
  bottom: "fc2"
  top: "fc2"
  scale_param {
    bias_term: true
  }
}
layer {
  name: "relu7"
  type: "ReLU"
  bottom: "fc2"
  top: "fc2"
}
layer {
  name: "drop1"
  type: "Dropout"
  bottom: "fc2"
  top: "drop1"
  dropout_param {
    dropout_ratio: 0.3
  }
}
layer {
  name: "fc3"
  type: "InnerProduct"
  bottom: "drop1"
  top: "fc3"
  param {
    lr_mult: 1
    decay_mult: 1
  }
  param {
    lr_mult: 1
    decay_mult: 1
  }
  inner_product_param {
    num_output: 40
    weight_filler {
      type: "gaussian"
      std: 0.001
    }
    bias_filler {
      type: "constant"
      value: 0
    }
  }
}
layer {
  name: "accuracy"
  type: "Accuracy"
  bottom: "fc3"
  bottom: "label"
  top: "accuracy"
  include {
    phase: TEST
  }
}
layer {
  name: "loss"
  type: "SoftmaxWithLoss"
  bottom: "fc3"
  bottom: "label"
  top: "loss"
  include {
    phase: TEST
  }
}
I0807 15:34:54.619237 25219 layer_factory.hpp:77] Creating layer data
I0807 15:34:54.619251 25219 net.cpp:84] Creating Layer data
I0807 15:34:54.619256 25219 net.cpp:380] data -> data
I0807 15:34:54.619271 25219 net.cpp:380] data -> label
I0807 15:34:54.619278 25219 hdf5_data_layer.cpp:80] Loading list of HDF5 filenames from: data/modelnet40_ply_hdf5_2048/test_files.txt
I0807 15:34:54.619307 25219 hdf5_data_layer.cpp:94] Number of HDF5 files: 2
I0807 15:34:54.619928 25219 hdf5.cpp:32] Datatype class: H5T_FLOAT
I0807 15:34:54.965382 25219 hdf5.cpp:35] Datatype class: H5T_INTEGER
I0807 15:34:54.966083 25219 net.cpp:122] Setting up data
I0807 15:34:54.966100 25219 net.cpp:129] Top shape: 32 2048 3 (196608)
I0807 15:34:54.966104 25219 net.cpp:129] Top shape: 32 1 (32)
I0807 15:34:54.966109 25219 net.cpp:137] Memory required for data: 786560
I0807 15:34:54.966114 25219 layer_factory.hpp:77] Creating layer label_data_1_split
I0807 15:34:54.966123 25219 net.cpp:84] Creating Layer label_data_1_split
I0807 15:34:54.966130 25219 net.cpp:406] label_data_1_split <- label
I0807 15:34:54.966137 25219 net.cpp:380] label_data_1_split -> label_data_1_split_0
I0807 15:34:54.966146 25219 net.cpp:380] label_data_1_split -> label_data_1_split_1
I0807 15:34:54.966171 25219 net.cpp:122] Setting up label_data_1_split
I0807 15:34:54.966177 25219 net.cpp:129] Top shape: 32 1 (32)
I0807 15:34:54.966181 25219 net.cpp:129] Top shape: 32 1 (32)
I0807 15:34:54.966182 25219 net.cpp:137] Memory required for data: 786816
I0807 15:34:54.966186 25219 layer_factory.hpp:77] Creating layer reshape
I0807 15:34:54.966193 25219 net.cpp:84] Creating Layer reshape
I0807 15:34:54.966197 25219 net.cpp:406] reshape <- data
I0807 15:34:54.966200 25219 net.cpp:380] reshape -> data_reshape
I0807 15:34:54.966223 25219 net.cpp:122] Setting up reshape
I0807 15:34:54.966229 25219 net.cpp:129] Top shape: 32 1 2048 3 (196608)
I0807 15:34:54.966243 25219 net.cpp:137] Memory required for data: 1573248
I0807 15:34:54.966246 25219 layer_factory.hpp:77] Creating layer conv1
I0807 15:34:54.966264 25219 net.cpp:84] Creating Layer conv1
I0807 15:34:54.966267 25219 net.cpp:406] conv1 <- data_reshape
I0807 15:34:54.966271 25219 net.cpp:380] conv1 -> conv1
I0807 15:34:55.217823 25219 net.cpp:122] Setting up conv1
I0807 15:34:55.217855 25219 net.cpp:129] Top shape: 32 64 2048 1 (4194304)
I0807 15:34:55.217859 25219 net.cpp:137] Memory required for data: 18350464
I0807 15:34:55.217876 25219 layer_factory.hpp:77] Creating layer bn1
I0807 15:34:55.217888 25219 net.cpp:84] Creating Layer bn1
I0807 15:34:55.217892 25219 net.cpp:406] bn1 <- conv1
I0807 15:34:55.217897 25219 net.cpp:367] bn1 -> conv1 (in-place)
I0807 15:34:55.218034 25219 net.cpp:122] Setting up bn1
I0807 15:34:55.218040 25219 net.cpp:129] Top shape: 32 64 2048 1 (4194304)
I0807 15:34:55.218044 25219 net.cpp:137] Memory required for data: 35127680
I0807 15:34:55.218051 25219 layer_factory.hpp:77] Creating layer scale1
I0807 15:34:55.218058 25219 net.cpp:84] Creating Layer scale1
I0807 15:34:55.218061 25219 net.cpp:406] scale1 <- conv1
I0807 15:34:55.218065 25219 net.cpp:367] scale1 -> conv1 (in-place)
I0807 15:34:55.218099 25219 layer_factory.hpp:77] Creating layer scale1
I0807 15:34:55.218178 25219 net.cpp:122] Setting up scale1
I0807 15:34:55.218184 25219 net.cpp:129] Top shape: 32 64 2048 1 (4194304)
I0807 15:34:55.218188 25219 net.cpp:137] Memory required for data: 51904896
I0807 15:34:55.218192 25219 layer_factory.hpp:77] Creating layer relu1
I0807 15:34:55.218196 25219 net.cpp:84] Creating Layer relu1
I0807 15:34:55.218201 25219 net.cpp:406] relu1 <- conv1
I0807 15:34:55.218204 25219 net.cpp:367] relu1 -> conv1 (in-place)
I0807 15:34:55.218488 25219 net.cpp:122] Setting up relu1
I0807 15:34:55.218499 25219 net.cpp:129] Top shape: 32 64 2048 1 (4194304)
I0807 15:34:55.218503 25219 net.cpp:137] Memory required for data: 68682112
I0807 15:34:55.218506 25219 layer_factory.hpp:77] Creating layer conv2
I0807 15:34:55.218518 25219 net.cpp:84] Creating Layer conv2
I0807 15:34:55.218523 25219 net.cpp:406] conv2 <- conv1
I0807 15:34:55.218528 25219 net.cpp:380] conv2 -> conv2
I0807 15:34:55.219445 25219 net.cpp:122] Setting up conv2
I0807 15:34:55.219457 25219 net.cpp:129] Top shape: 32 64 2048 1 (4194304)
I0807 15:34:55.219461 25219 net.cpp:137] Memory required for data: 85459328
I0807 15:34:55.219468 25219 layer_factory.hpp:77] Creating layer bn2
I0807 15:34:55.219475 25219 net.cpp:84] Creating Layer bn2
I0807 15:34:55.219480 25219 net.cpp:406] bn2 <- conv2
I0807 15:34:55.219485 25219 net.cpp:367] bn2 -> conv2 (in-place)
I0807 15:34:55.219624 25219 net.cpp:122] Setting up bn2
I0807 15:34:55.219630 25219 net.cpp:129] Top shape: 32 64 2048 1 (4194304)
I0807 15:34:55.219633 25219 net.cpp:137] Memory required for data: 102236544
I0807 15:34:55.219640 25219 layer_factory.hpp:77] Creating layer scale2
I0807 15:34:55.219645 25219 net.cpp:84] Creating Layer scale2
I0807 15:34:55.219648 25219 net.cpp:406] scale2 <- conv2
I0807 15:34:55.219652 25219 net.cpp:367] scale2 -> conv2 (in-place)
I0807 15:34:55.219681 25219 layer_factory.hpp:77] Creating layer scale2
I0807 15:34:55.219763 25219 net.cpp:122] Setting up scale2
I0807 15:34:55.219769 25219 net.cpp:129] Top shape: 32 64 2048 1 (4194304)
I0807 15:34:55.219771 25219 net.cpp:137] Memory required for data: 119013760
I0807 15:34:55.219776 25219 layer_factory.hpp:77] Creating layer relu2
I0807 15:34:55.219781 25219 net.cpp:84] Creating Layer relu2
I0807 15:34:55.219784 25219 net.cpp:406] relu2 <- conv2
I0807 15:34:55.219789 25219 net.cpp:367] relu2 -> conv2 (in-place)
I0807 15:34:55.219936 25219 net.cpp:122] Setting up relu2
I0807 15:34:55.219945 25219 net.cpp:129] Top shape: 32 64 2048 1 (4194304)
I0807 15:34:55.219947 25219 net.cpp:137] Memory required for data: 135790976
I0807 15:34:55.219950 25219 layer_factory.hpp:77] Creating layer conv3
I0807 15:34:55.219959 25219 net.cpp:84] Creating Layer conv3
I0807 15:34:55.219974 25219 net.cpp:406] conv3 <- conv2
I0807 15:34:55.219980 25219 net.cpp:380] conv3 -> conv3
I0807 15:34:55.220880 25219 net.cpp:122] Setting up conv3
I0807 15:34:55.220892 25219 net.cpp:129] Top shape: 32 64 2048 1 (4194304)
I0807 15:34:55.220896 25219 net.cpp:137] Memory required for data: 152568192
I0807 15:34:55.220902 25219 layer_factory.hpp:77] Creating layer bn3
I0807 15:34:55.220908 25219 net.cpp:84] Creating Layer bn3
I0807 15:34:55.220911 25219 net.cpp:406] bn3 <- conv3
I0807 15:34:55.220916 25219 net.cpp:367] bn3 -> conv3 (in-place)
I0807 15:34:55.221056 25219 net.cpp:122] Setting up bn3
I0807 15:34:55.221062 25219 net.cpp:129] Top shape: 32 64 2048 1 (4194304)
I0807 15:34:55.221065 25219 net.cpp:137] Memory required for data: 169345408
I0807 15:34:55.221073 25219 layer_factory.hpp:77] Creating layer scale3
I0807 15:34:55.221078 25219 net.cpp:84] Creating Layer scale3
I0807 15:34:55.221081 25219 net.cpp:406] scale3 <- conv3
I0807 15:34:55.221086 25219 net.cpp:367] scale3 -> conv3 (in-place)
I0807 15:34:55.221114 25219 layer_factory.hpp:77] Creating layer scale3
I0807 15:34:55.221194 25219 net.cpp:122] Setting up scale3
I0807 15:34:55.221199 25219 net.cpp:129] Top shape: 32 64 2048 1 (4194304)
I0807 15:34:55.221202 25219 net.cpp:137] Memory required for data: 186122624
I0807 15:34:55.221207 25219 layer_factory.hpp:77] Creating layer relu3
I0807 15:34:55.221211 25219 net.cpp:84] Creating Layer relu3
I0807 15:34:55.221215 25219 net.cpp:406] relu3 <- conv3
I0807 15:34:55.221218 25219 net.cpp:367] relu3 -> conv3 (in-place)
I0807 15:34:55.221506 25219 net.cpp:122] Setting up relu3
I0807 15:34:55.221518 25219 net.cpp:129] Top shape: 32 64 2048 1 (4194304)
I0807 15:34:55.221519 25219 net.cpp:137] Memory required for data: 202899840
I0807 15:34:55.221523 25219 layer_factory.hpp:77] Creating layer conv4
I0807 15:34:55.221531 25219 net.cpp:84] Creating Layer conv4
I0807 15:34:55.221535 25219 net.cpp:406] conv4 <- conv3
I0807 15:34:55.221540 25219 net.cpp:380] conv4 -> conv4
I0807 15:34:55.222865 25219 net.cpp:122] Setting up conv4
I0807 15:34:55.222878 25219 net.cpp:129] Top shape: 32 128 2048 1 (8388608)
I0807 15:34:55.222882 25219 net.cpp:137] Memory required for data: 236454272
I0807 15:34:55.222887 25219 layer_factory.hpp:77] Creating layer bn4
I0807 15:34:55.222895 25219 net.cpp:84] Creating Layer bn4
I0807 15:34:55.222899 25219 net.cpp:406] bn4 <- conv4
I0807 15:34:55.222904 25219 net.cpp:367] bn4 -> conv4 (in-place)
I0807 15:34:55.223042 25219 net.cpp:122] Setting up bn4
I0807 15:34:55.223049 25219 net.cpp:129] Top shape: 32 128 2048 1 (8388608)
I0807 15:34:55.223052 25219 net.cpp:137] Memory required for data: 270008704
I0807 15:34:55.223057 25219 layer_factory.hpp:77] Creating layer scale4
I0807 15:34:55.223062 25219 net.cpp:84] Creating Layer scale4
I0807 15:34:55.223067 25219 net.cpp:406] scale4 <- conv4
I0807 15:34:55.223071 25219 net.cpp:367] scale4 -> conv4 (in-place)
I0807 15:34:55.223099 25219 layer_factory.hpp:77] Creating layer scale4
I0807 15:34:55.223176 25219 net.cpp:122] Setting up scale4
I0807 15:34:55.223182 25219 net.cpp:129] Top shape: 32 128 2048 1 (8388608)
I0807 15:34:55.223184 25219 net.cpp:137] Memory required for data: 303563136
I0807 15:34:55.223189 25219 layer_factory.hpp:77] Creating layer relu4
I0807 15:34:55.223194 25219 net.cpp:84] Creating Layer relu4
I0807 15:34:55.223198 25219 net.cpp:406] relu4 <- conv4
I0807 15:34:55.223201 25219 net.cpp:367] relu4 -> conv4 (in-place)
I0807 15:34:55.223352 25219 net.cpp:122] Setting up relu4
I0807 15:34:55.223361 25219 net.cpp:129] Top shape: 32 128 2048 1 (8388608)
I0807 15:34:55.223364 25219 net.cpp:137] Memory required for data: 337117568
I0807 15:34:55.223367 25219 layer_factory.hpp:77] Creating layer conv5
I0807 15:34:55.223374 25219 net.cpp:84] Creating Layer conv5
I0807 15:34:55.223386 25219 net.cpp:406] conv5 <- conv4
I0807 15:34:55.223392 25219 net.cpp:380] conv5 -> conv5
I0807 15:34:55.225649 25219 net.cpp:122] Setting up conv5
I0807 15:34:55.225664 25219 net.cpp:129] Top shape: 32 1024 2048 1 (67108864)
I0807 15:34:55.225678 25219 net.cpp:137] Memory required for data: 605553024
I0807 15:34:55.225685 25219 layer_factory.hpp:77] Creating layer bn5
I0807 15:34:55.225690 25219 net.cpp:84] Creating Layer bn5
I0807 15:34:55.225694 25219 net.cpp:406] bn5 <- conv5
I0807 15:34:55.225700 25219 net.cpp:367] bn5 -> conv5 (in-place)
I0807 15:34:55.225842 25219 net.cpp:122] Setting up bn5
I0807 15:34:55.225849 25219 net.cpp:129] Top shape: 32 1024 2048 1 (67108864)
I0807 15:34:55.225853 25219 net.cpp:137] Memory required for data: 873988480
I0807 15:34:55.225862 25219 layer_factory.hpp:77] Creating layer scale5
I0807 15:34:55.225868 25219 net.cpp:84] Creating Layer scale5
I0807 15:34:55.225872 25219 net.cpp:406] scale5 <- conv5
I0807 15:34:55.225877 25219 net.cpp:367] scale5 -> conv5 (in-place)
I0807 15:34:55.225903 25219 layer_factory.hpp:77] Creating layer scale5
I0807 15:34:55.225986 25219 net.cpp:122] Setting up scale5
I0807 15:34:55.225991 25219 net.cpp:129] Top shape: 32 1024 2048 1 (67108864)
I0807 15:34:55.225996 25219 net.cpp:137] Memory required for data: 1142423936
I0807 15:34:55.225999 25219 layer_factory.hpp:77] Creating layer relu5
I0807 15:34:55.226004 25219 net.cpp:84] Creating Layer relu5
I0807 15:34:55.226008 25219 net.cpp:406] relu5 <- conv5
I0807 15:34:55.226011 25219 net.cpp:367] relu5 -> conv5 (in-place)
I0807 15:34:55.226305 25219 net.cpp:122] Setting up relu5
I0807 15:34:55.226316 25219 net.cpp:129] Top shape: 32 1024 2048 1 (67108864)
I0807 15:34:55.226320 25219 net.cpp:137] Memory required for data: 1410859392
I0807 15:34:55.226322 25219 layer_factory.hpp:77] Creating layer pool
I0807 15:34:55.226330 25219 net.cpp:84] Creating Layer pool
I0807 15:34:55.226333 25219 net.cpp:406] pool <- conv5
I0807 15:34:55.226337 25219 net.cpp:380] pool -> global_feat
I0807 15:34:55.226377 25219 net.cpp:122] Setting up pool
I0807 15:34:55.226384 25219 net.cpp:129] Top shape: 32 1024 1 1 (32768)
I0807 15:34:55.226387 25219 net.cpp:137] Memory required for data: 1410990464
I0807 15:34:55.226388 25219 layer_factory.hpp:77] Creating layer fc1
I0807 15:34:55.226397 25219 net.cpp:84] Creating Layer fc1
I0807 15:34:55.226399 25219 net.cpp:406] fc1 <- global_feat
I0807 15:34:55.226403 25219 net.cpp:380] fc1 -> fc1
I0807 15:34:55.239377 25219 net.cpp:122] Setting up fc1
I0807 15:34:55.239419 25219 net.cpp:129] Top shape: 32 512 (16384)
I0807 15:34:55.239423 25219 net.cpp:137] Memory required for data: 1411056000
I0807 15:34:55.239430 25219 layer_factory.hpp:77] Creating layer bn6
I0807 15:34:55.239439 25219 net.cpp:84] Creating Layer bn6
I0807 15:34:55.239444 25219 net.cpp:406] bn6 <- fc1
I0807 15:34:55.239451 25219 net.cpp:367] bn6 -> fc1 (in-place)
I0807 15:34:55.239599 25219 net.cpp:122] Setting up bn6
I0807 15:34:55.239608 25219 net.cpp:129] Top shape: 32 512 (16384)
I0807 15:34:55.239610 25219 net.cpp:137] Memory required for data: 1411121536
I0807 15:34:55.239615 25219 layer_factory.hpp:77] Creating layer scale6
I0807 15:34:55.239621 25219 net.cpp:84] Creating Layer scale6
I0807 15:34:55.239624 25219 net.cpp:406] scale6 <- fc1
I0807 15:34:55.239630 25219 net.cpp:367] scale6 -> fc1 (in-place)
I0807 15:34:55.239660 25219 layer_factory.hpp:77] Creating layer scale6
I0807 15:34:55.239745 25219 net.cpp:122] Setting up scale6
I0807 15:34:55.239751 25219 net.cpp:129] Top shape: 32 512 (16384)
I0807 15:34:55.239754 25219 net.cpp:137] Memory required for data: 1411187072
I0807 15:34:55.239758 25219 layer_factory.hpp:77] Creating layer relu6
I0807 15:34:55.239763 25219 net.cpp:84] Creating Layer relu6
I0807 15:34:55.239766 25219 net.cpp:406] relu6 <- fc1
I0807 15:34:55.239771 25219 net.cpp:367] relu6 -> fc1 (in-place)
I0807 15:34:55.240134 25219 net.cpp:122] Setting up relu6
I0807 15:34:55.240145 25219 net.cpp:129] Top shape: 32 512 (16384)
I0807 15:34:55.240149 25219 net.cpp:137] Memory required for data: 1411252608
I0807 15:34:55.240151 25219 layer_factory.hpp:77] Creating layer fc2
I0807 15:34:55.240159 25219 net.cpp:84] Creating Layer fc2
I0807 15:34:55.240161 25219 net.cpp:406] fc2 <- fc1
I0807 15:34:55.240170 25219 net.cpp:380] fc2 -> fc2
I0807 15:34:55.243158 25219 net.cpp:122] Setting up fc2
I0807 15:34:55.243168 25219 net.cpp:129] Top shape: 32 256 (8192)
I0807 15:34:55.243171 25219 net.cpp:137] Memory required for data: 1411285376
I0807 15:34:55.243176 25219 layer_factory.hpp:77] Creating layer bn7
I0807 15:34:55.243180 25219 net.cpp:84] Creating Layer bn7
I0807 15:34:55.243183 25219 net.cpp:406] bn7 <- fc2
I0807 15:34:55.243189 25219 net.cpp:367] bn7 -> fc2 (in-place)
I0807 15:34:55.243329 25219 net.cpp:122] Setting up bn7
I0807 15:34:55.243335 25219 net.cpp:129] Top shape: 32 256 (8192)
I0807 15:34:55.243337 25219 net.cpp:137] Memory required for data: 1411318144
I0807 15:34:55.243343 25219 layer_factory.hpp:77] Creating layer scale7
I0807 15:34:55.243347 25219 net.cpp:84] Creating Layer scale7
I0807 15:34:55.243350 25219 net.cpp:406] scale7 <- fc2
I0807 15:34:55.243355 25219 net.cpp:367] scale7 -> fc2 (in-place)
I0807 15:34:55.243402 25219 layer_factory.hpp:77] Creating layer scale7
I0807 15:34:55.243500 25219 net.cpp:122] Setting up scale7
I0807 15:34:55.243512 25219 net.cpp:129] Top shape: 32 256 (8192)
I0807 15:34:55.243517 25219 net.cpp:137] Memory required for data: 1411350912
I0807 15:34:55.243525 25219 layer_factory.hpp:77] Creating layer relu7
I0807 15:34:55.243532 25219 net.cpp:84] Creating Layer relu7
I0807 15:34:55.243544 25219 net.cpp:406] relu7 <- fc2
I0807 15:34:55.243551 25219 net.cpp:367] relu7 -> fc2 (in-place)
I0807 15:34:55.243707 25219 net.cpp:122] Setting up relu7
I0807 15:34:55.243717 25219 net.cpp:129] Top shape: 32 256 (8192)
I0807 15:34:55.243721 25219 net.cpp:137] Memory required for data: 1411383680
I0807 15:34:55.243722 25219 layer_factory.hpp:77] Creating layer drop1
I0807 15:34:55.243731 25219 net.cpp:84] Creating Layer drop1
I0807 15:34:55.243734 25219 net.cpp:406] drop1 <- fc2
I0807 15:34:55.243739 25219 net.cpp:380] drop1 -> drop1
I0807 15:34:55.243775 25219 net.cpp:122] Setting up drop1
I0807 15:34:55.243782 25219 net.cpp:129] Top shape: 32 256 (8192)
I0807 15:34:55.243783 25219 net.cpp:137] Memory required for data: 1411416448
I0807 15:34:55.243785 25219 layer_factory.hpp:77] Creating layer fc3
I0807 15:34:55.243791 25219 net.cpp:84] Creating Layer fc3
I0807 15:34:55.243794 25219 net.cpp:406] fc3 <- drop1
I0807 15:34:55.243799 25219 net.cpp:380] fc3 -> fc3
I0807 15:34:55.244107 25219 net.cpp:122] Setting up fc3
I0807 15:34:55.244113 25219 net.cpp:129] Top shape: 32 40 (1280)
I0807 15:34:55.244117 25219 net.cpp:137] Memory required for data: 1411421568
I0807 15:34:55.244122 25219 layer_factory.hpp:77] Creating layer fc3_fc3_0_split
I0807 15:34:55.244127 25219 net.cpp:84] Creating Layer fc3_fc3_0_split
I0807 15:34:55.244130 25219 net.cpp:406] fc3_fc3_0_split <- fc3
I0807 15:34:55.244134 25219 net.cpp:380] fc3_fc3_0_split -> fc3_fc3_0_split_0
I0807 15:34:55.244138 25219 net.cpp:380] fc3_fc3_0_split -> fc3_fc3_0_split_1
I0807 15:34:55.244168 25219 net.cpp:122] Setting up fc3_fc3_0_split
I0807 15:34:55.244174 25219 net.cpp:129] Top shape: 32 40 (1280)
I0807 15:34:55.244177 25219 net.cpp:129] Top shape: 32 40 (1280)
I0807 15:34:55.244180 25219 net.cpp:137] Memory required for data: 1411431808
I0807 15:34:55.244182 25219 layer_factory.hpp:77] Creating layer accuracy
I0807 15:34:55.244189 25219 net.cpp:84] Creating Layer accuracy
I0807 15:34:55.244192 25219 net.cpp:406] accuracy <- fc3_fc3_0_split_0
I0807 15:34:55.244195 25219 net.cpp:406] accuracy <- label_data_1_split_0
I0807 15:34:55.244199 25219 net.cpp:380] accuracy -> accuracy
…
