…
I0601 10:22:17.575696 12623 net.cpp:294] The NetState phase (0) differed from the phase (1) specified by a rule in layer data
I0601 10:22:17.575778 12623 net.cpp:294] The NetState phase (0) differed from the phase (1) specified by a rule in layer accuracy
I0601 10:22:17.576292 12623 net.cpp:51] Initializing net from parameters: 
name: "pointnet_cls_basic"
state {
  phase: TRAIN
  level: 0
  stage: ""
}
layer {
  name: "data"
  type: "HDF5Data"
  top: "data"
  top: "label"
  include {
    phase: TRAIN
  }
  hdf5_data_param {
    source: "data/modelnet40_ply_hdf5_2048/train_files.txt"
    batch_size: 32
  }
}
layer {
  name: "reshape"
  type: "Reshape"
  bottom: "data"
  top: "data_reshape"
  reshape_param {
    shape {
      dim: 0
      dim: 1
      dim: -1
      dim: 3
    }
  }
}
layer {
  name: "conv1_tnet1"
  type: "Convolution"
  bottom: "data_reshape"
  top: "conv1_tnet1"
  param {
    lr_mult: 1
  }
  param {
    lr_mult: 2
  }
  convolution_param {
    num_output: 64
    pad: 0
    stride: 1
    weight_filler {
      type: "xavier"
    }
    bias_filler {
      type: "constant"
      value: 0
    }
    kernel_h: 1
    kernel_w: 3
  }
}
layer {
  name: "bn1_tnet1"
  type: "BatchNorm"
  bottom: "conv1_tnet1"
  top: "conv1_tnet1"
}
layer {
  name: "scale1_tnet1"
  type: "Scale"
  bottom: "conv1_tnet1"
  top: "conv1_tnet1"
  scale_param {
    bias_term: true
  }
}
layer {
  name: "relu1_tnet1"
  type: "ReLU"
  bottom: "conv1_tnet1"
  top: "conv1_tnet1"
}
layer {
  name: "conv2_tnet1"
  type: "Convolution"
  bottom: "conv1_tnet1"
  top: "conv2_tnet1"
  param {
    lr_mult: 1
  }
  param {
    lr_mult: 2
  }
  convolution_param {
    num_output: 128
    pad: 0
    stride: 1
    weight_filler {
      type: "xavier"
    }
    bias_filler {
      type: "constant"
      value: 0
    }
    kernel_h: 1
    kernel_w: 1
  }
}
layer {
  name: "bn2_tnet1"
  type: "BatchNorm"
  bottom: "conv2_tnet1"
  top: "conv2_tnet1"
}
layer {
  name: "scale2_tnet1"
  type: "Scale"
  bottom: "conv2_tnet1"
  top: "conv2_tnet1"
  scale_param {
    bias_term: true
  }
}
layer {
  name: "relu2_tnet1"
  type: "ReLU"
  bottom: "conv2_tnet1"
  top: "conv2_tnet1"
}
layer {
  name: "conv3_tnet1"
  type: "Convolution"
  bottom: "conv2_tnet1"
  top: "conv3_tnet1"
  param {
    lr_mult: 1
  }
  param {
    lr_mult: 2
  }
  convolution_param {
    num_output: 1024
    pad: 0
    stride: 1
    weight_filler {
      type: "xavier"
    }
    bias_filler {
      type: "constant"
      value: 0
    }
    kernel_h: 1
    kernel_w: 1
  }
}
layer {
  name: "bn3_tnet1"
  type: "BatchNorm"
  bottom: "conv3_tnet1"
  top: "conv3_tnet1"
}
layer {
  name: "scale3_tnet1"
  type: "Scale"
  bottom: "conv3_tnet1"
  top: "conv3_tnet1"
  scale_param {
    bias_term: true
  }
}
layer {
  name: "relu3_tnet1"
  type: "ReLU"
  bottom: "conv3_tnet1"
  top: "conv3_tnet1"
}
layer {
  name: "pool_tnet1"
  type: "Pooling"
  bottom: "conv3_tnet1"
  top: "global_feat_tnet1"
  pooling_param {
    pool: MAX
    stride: 1
    pad: 0
    kernel_h: 2048
    kernel_w: 1
  }
}
layer {
  name: "fc1_tnet1"
  type: "InnerProduct"
  bottom: "global_feat_tnet1"
  top: "fc1_tnet1"
  param {
    lr_mult: 1
    decay_mult: 1
  }
  param {
    lr_mult: 1
    decay_mult: 1
  }
  inner_product_param {
    num_output: 512
    weight_filler {
      type: "gaussian"
      std: 0.001
    }
    bias_filler {
      type: "constant"
      value: 0
    }
  }
}
layer {
  name: "bn6_tnet1"
  type: "BatchNorm"
  bottom: "fc1_tnet1"
  top: "fc1_tnet1"
}
layer {
  name: "scale6_tnet1"
  type: "Scale"
  bottom: "fc1_tnet1"
  top: "fc1_tnet1"
  scale_param {
    bias_term: true
  }
}
layer {
  name: "relu6_tnet1"
  type: "ReLU"
  bottom: "fc1_tnet1"
  top: "fc1_tnet1"
}
layer {
  name: "fc2_tnet1"
  type: "InnerProduct"
  bottom: "fc1_tnet1"
  top: "fc2_tnet1"
  param {
    lr_mult: 1
    decay_mult: 1
  }
  param {
    lr_mult: 1
    decay_mult: 1
  }
  inner_product_param {
    num_output: 256
    weight_filler {
      type: "gaussian"
      std: 0.001
    }
    bias_filler {
      type: "constant"
      value: 0
    }
  }
}
layer {
  name: "bn7_tnet1"
  type: "BatchNorm"
  bottom: "fc2_tnet1"
  top: "fc2_tnet1"
}
layer {
  name: "scale7_tnet1"
  type: "Scale"
  bottom: "fc2_tnet1"
  top: "fc2_tnet1"
  scale_param {
    bias_term: true
  }
}
layer {
  name: "relu7_tnet1"
  type: "ReLU"
  bottom: "fc2_tnet1"
  top: "fc2_tnet1"
}
layer {
  name: "fc3_tnet1"
  type: "InnerProduct"
  bottom: "fc2_tnet1"
  top: "fc3_tnet1"
  param {
    lr_mult: 1
    decay_mult: 1
  }
  param {
    lr_mult: 1
    decay_mult: 1
  }
  inner_product_param {
    num_output: 9
    weight_filler {
      type: "constant"
      value: 0
    }
    bias_filler {
      type: "constant"
      value: 0
    }
  }
}
layer {
  name: "reshape_tnet1"
  type: "Reshape"
  bottom: "fc3_tnet1"
  top: "fc3_tnet1_reshape"
  reshape_param {
    shape {
      dim: -1
      dim: 3
      dim: 3
    }
  }
}
layer {
  name: "eye_tnet1"
  type: "Python"
  bottom: "fc3_tnet1"
  top: "eye_tnet1"
  python_param {
    module: "eye_matrix_layer"
    layer: "EyeMatrixLayer"
    param_str: "{\'K\': 3}"
  }
}
layer {
  name: "eltwise_sum_tnet1"
  type: "Eltwise"
  bottom: "fc3_tnet1_reshape"
  bottom: "eye_tnet1"
  top: "transform1"
  eltwise_param {
    operation: SUM
  }
}
layer {
  name: "matmul_input"
  type: "MatrixMultiplication"
  bottom: "data"
  bottom: "transform1"
  top: "data_transform1"
}
layer {
  name: "reshape_input_data"
  type: "Reshape"
  bottom: "data_transform1"
  top: "data_transform1_reshape"
  reshape_param {
    shape {
      dim: 0
      dim: 1
      dim: -1
      dim: 3
    }
  }
}
layer {
  name: "conv1"
  type: "Convolution"
  bottom: "data_transform1_reshape"
  top: "conv1"
  param {
    lr_mult: 1
  }
  param {
    lr_mult: 2
  }
  convolution_param {
    num_output: 64
    pad: 0
    stride: 1
    weight_filler {
      type: "xavier"
    }
    bias_filler {
      type: "constant"
      value: 0
    }
    kernel_h: 1
    kernel_w: 3
  }
}
layer {
  name: "bn1"
  type: "BatchNorm"
  bottom: "conv1"
  top: "conv1"
}
layer {
  name: "scale1"
  type: "Scale"
  bottom: "conv1"
  top: "conv1"
  scale_param {
    bias_term: true
  }
}
layer {
  name: "relu1"
  type: "ReLU"
  bottom: "conv1"
  top: "conv1"
}
layer {
  name: "conv2"
  type: "Convolution"
  bottom: "conv1"
  top: "conv2"
  param {
    lr_mult: 1
  }
  param {
    lr_mult: 2
  }
  convolution_param {
    num_output: 64
    pad: 0
    stride: 1
    weight_filler {
      type: "xavier"
    }
    bias_filler {
      type: "constant"
      value: 0
    }
    kernel_h: 1
    kernel_w: 1
  }
}
layer {
  name: "bn2"
  type: "BatchNorm"
  bottom: "conv2"
  top: "conv2"
}
layer {
  name: "scale2"
  type: "Scale"
  bottom: "conv2"
  top: "conv2"
  scale_param {
    bias_term: true
  }
}
layer {
  name: "relu2"
  type: "ReLU"
  bottom: "conv2"
  top: "conv2"
}
layer {
  name: "conv1_tnet2"
  type: "Convolution"
  bottom: "conv2"
  top: "conv1_tnet2"
  param {
    lr_mult: 1
  }
  param {
    lr_mult: 2
  }
  convolution_param {
    num_output: 64
    pad: 0
    stride: 1
    weight_filler {
      type: "xavier"
    }
    bias_filler {
      type: "constant"
      value: 0
    }
    kernel_h: 1
    kernel_w: 1
  }
}
layer {
  name: "bn1_tnet2"
  type: "BatchNorm"
  bottom: "conv1_tnet2"
  top: "conv1_tnet2"
}
layer {
  name: "scale1_tnet2"
  type: "Scale"
  bottom: "conv1_tnet2"
  top: "conv1_tnet2"
  scale_param {
    bias_term: true
  }
}
layer {
  name: "relu1_tnet2"
  type: "ReLU"
  bottom: "conv1_tnet2"
  top: "conv1_tnet2"
}
layer {
  name: "conv2_tnet2"
  type: "Convolution"
  bottom: "conv1_tnet2"
  top: "conv2_tnet2"
  param {
    lr_mult: 1
  }
  param {
    lr_mult: 2
  }
  convolution_param {
    num_output: 128
    pad: 0
    stride: 1
    weight_filler {
      type: "xavier"
    }
    bias_filler {
      type: "constant"
      value: 0
    }
    kernel_h: 1
    kernel_w: 1
  }
}
layer {
  name: "bn2_tnet2"
  type: "BatchNorm"
  bottom: "conv2_tnet2"
  top: "conv2_tnet2"
}
layer {
  name: "scale2_tnet2"
  type: "Scale"
  bottom: "conv2_tnet2"
  top: "conv2_tnet2"
  scale_param {
    bias_term: true
  }
}
layer {
  name: "relu2_tnet2"
  type: "ReLU"
  bottom: "conv2_tnet2"
  top: "conv2_tnet2"
}
layer {
  name: "conv3_tnet2"
  type: "Convolution"
  bottom: "conv2_tnet2"
  top: "conv3_tnet2"
  param {
    lr_mult: 1
  }
  param {
    lr_mult: 2
  }
  convolution_param {
    num_output: 1024
    pad: 0
    stride: 1
    weight_filler {
      type: "xavier"
    }
    bias_filler {
      type: "constant"
      value: 0
    }
    kernel_h: 1
    kernel_w: 1
  }
}
layer {
  name: "bn3_tnet2"
  type: "BatchNorm"
  bottom: "conv3_tnet2"
  top: "conv3_tnet2"
}
layer {
  name: "scale3_tnet2"
  type: "Scale"
  bottom: "conv3_tnet2"
  top: "conv3_tnet2"
  scale_param {
    bias_term: true
  }
}
layer {
  name: "relu3_tnet2"
  type: "ReLU"
  bottom: "conv3_tnet2"
  top: "conv3_tnet2"
}
layer {
  name: "pool_tnet2"
  type: "Pooling"
  bottom: "conv3_tnet2"
  top: "global_feat_tnet2"
  pooling_param {
    pool: MAX
    stride: 1
    pad: 0
    kernel_h: 2048
    kernel_w: 1
  }
}
layer {
  name: "fc1_tnet2"
  type: "InnerProduct"
  bottom: "global_feat_tnet2"
  top: "fc1_tnet2"
  param {
    lr_mult: 1
    decay_mult: 1
  }
  param {
    lr_mult: 1
    decay_mult: 1
  }
  inner_product_param {
    num_output: 512
    weight_filler {
      type: "gaussian"
      std: 0.001
    }
    bias_filler {
      type: "constant"
      value: 0
    }
  }
}
layer {
  name: "bn6_tnet2"
  type: "BatchNorm"
  bottom: "fc1_tnet2"
  top: "fc1_tnet2"
}
layer {
  name: "scale6_tnet2"
  type: "Scale"
  bottom: "fc1_tnet2"
  top: "fc1_tnet2"
  scale_param {
    bias_term: true
  }
}
layer {
  name: "relu6_tnet2"
  type: "ReLU"
  bottom: "fc1_tnet2"
  top: "fc1_tnet2"
}
layer {
  name: "fc2_tnet2"
  type: "InnerProduct"
  bottom: "fc1_tnet2"
  top: "fc2_tnet2"
  param {
    lr_mult: 1
    decay_mult: 1
  }
  param {
    lr_mult: 1
    decay_mult: 1
  }
  inner_product_param {
    num_output: 256
    weight_filler {
      type: "gaussian"
      std: 0.001
    }
    bias_filler {
      type: "constant"
      value: 0
    }
  }
}
layer {
  name: "bn7_tnet2"
  type: "BatchNorm"
  bottom: "fc2_tnet2"
  top: "fc2_tnet2"
}
layer {
  name: "scale7_tnet2"
  type: "Scale"
  bottom: "fc2_tnet2"
  top: "fc2_tnet2"
  scale_param {
    bias_term: true
  }
}
layer {
  name: "relu7_tnet2"
  type: "ReLU"
  bottom: "fc2_tnet2"
  top: "fc2_tnet2"
}
layer {
  name: "fc3_tnet2"
  type: "InnerProduct"
  bottom: "fc2_tnet2"
  top: "fc3_tnet2"
  param {
    lr_mult: 1
    decay_mult: 1
  }
  param {
    lr_mult: 1
    decay_mult: 1
  }
  inner_product_param {
    num_output: 4096
    weight_filler {
      type: "constant"
      value: 0
    }
    bias_filler {
      type: "constant"
      value: 0
    }
  }
}
layer {
  name: "reshape_tnet2"
  type: "Reshape"
  bottom: "fc3_tnet2"
  top: "fc3_tnet2_reshape"
  reshape_param {
    shape {
      dim: -1
      dim: 64
      dim: 64
    }
  }
}
layer {
  name: "eye_tnet2"
  type: "Python"
  bottom: "fc3_tnet2"
  top: "eye_tnet2"
  python_param {
    module: "eye_matrix_layer"
    layer: "EyeMatrixLayer"
    param_str: "{\'K\': 64}"
  }
}
layer {
  name: "eltwise_sum_tnet2"
  type: "Eltwise"
  bottom: "fc3_tnet2_reshape"
  bottom: "eye_tnet2"
  top: "transform2"
  eltwise_param {
    operation: SUM
  }
}
layer {
  name: "perm_scale2"
  type: "Permute"
  bottom: "conv2"
  top: "scale2_permute"
  permute_param {
    order: 0
    order: 2
    order: 1
    order: 3
  }
}
layer {
  name: "reshape_scale2"
  type: "Reshape"
  bottom: "scale2_permute"
  top: "scale2_reshape"
  reshape_param {
    shape {
      dim: 0
      dim: -1
      dim: 64
    }
  }
}
layer {
  name: "matmul_feat"
  type: "MatrixMultiplication"
  bottom: "scale2_reshape"
  bottom: "transform2"
  top: "scale2_transform2"
}
layer {
  name: "perm_scale2_transform2"
  type: "Permute"
  bottom: "scale2_transform2"
  top: "scale2_permute_transform2"
  permute_param {
    order: 0
    order: 2
    order: 1
  }
}
layer {
  name: "reshape_scale2_transform2"
  type: "Reshape"
  bottom: "scale2_permute_transform2"
  top: "scale2_transform2_reshape"
  reshape_param {
    shape {
      dim: 0
      dim: 0
      dim: 0
      dim: 1
    }
  }
}
layer {
  name: "conv3"
  type: "Convolution"
  bottom: "scale2_transform2_reshape"
  top: "conv3"
  param {
    lr_mult: 1
  }
  param {
    lr_mult: 2
  }
  convolution_param {
    num_output: 64
    pad: 0
    stride: 1
    weight_filler {
      type: "xavier"
    }
    bias_filler {
      type: "constant"
      value: 0
    }
    kernel_h: 1
    kernel_w: 1
  }
}
layer {
  name: "bn3"
  type: "BatchNorm"
  bottom: "conv3"
  top: "conv3"
}
layer {
  name: "scale3"
  type: "Scale"
  bottom: "conv3"
  top: "conv3"
  scale_param {
    bias_term: true
  }
}
layer {
  name: "relu3"
  type: "ReLU"
  bottom: "conv3"
  top: "conv3"
}
layer {
  name: "conv4"
  type: "Convolution"
  bottom: "conv3"
  top: "conv4"
  param {
    lr_mult: 1
  }
  param {
    lr_mult: 2
  }
  convolution_param {
    num_output: 128
    pad: 0
    stride: 1
    weight_filler {
      type: "xavier"
    }
    bias_filler {
      type: "constant"
      value: 0
    }
    kernel_h: 1
    kernel_w: 1
  }
}
layer {
  name: "bn4"
  type: "BatchNorm"
  bottom: "conv4"
  top: "conv4"
}
layer {
  name: "scale4"
  type: "Scale"
  bottom: "conv4"
  top: "conv4"
  scale_param {
    bias_term: true
  }
}
layer {
  name: "relu4"
  type: "ReLU"
  bottom: "conv4"
  top: "conv4"
}
layer {
  name: "conv5"
  type: "Convolution"
  bottom: "conv4"
  top: "conv5"
  param {
    lr_mult: 1
  }
  param {
    lr_mult: 2
  }
  convolution_param {
    num_output: 1024
    pad: 0
    stride: 1
    weight_filler {
      type: "xavier"
    }
    bias_filler {
      type: "constant"
      value: 0
    }
    kernel_h: 1
    kernel_w: 1
  }
}
layer {
  name: "bn5"
  type: "BatchNorm"
  bottom: "conv5"
  top: "conv5"
}
layer {
  name: "scale5"
  type: "Scale"
  bottom: "conv5"
  top: "conv5"
  scale_param {
    bias_term: true
  }
}
layer {
  name: "relu5"
  type: "ReLU"
  bottom: "conv5"
  top: "conv5"
}
layer {
  name: "pool"
  type: "Pooling"
  bottom: "conv5"
  top: "global_feat"
  pooling_param {
    pool: MAX
    stride: 1
    pad: 0
    kernel_h: 2048
    kernel_w: 1
  }
}
layer {
  name: "fc1"
  type: "InnerProduct"
  bottom: "global_feat"
  top: "fc1"
  param {
    lr_mult: 1
    decay_mult: 1
  }
  param {
    lr_mult: 1
    decay_mult: 1
  }
  inner_product_param {
    num_output: 512
    weight_filler {
      type: "gaussian"
      std: 0.001
    }
    bias_filler {
      type: "constant"
      value: 0
    }
  }
}
layer {
  name: "bn6"
  type: "BatchNorm"
  bottom: "fc1"
  top: "fc1"
}
layer {
  name: "scale6"
  type: "Scale"
  bottom: "fc1"
  top: "fc1"
  scale_param {
    bias_term: true
  }
}
layer {
  name: "relu6"
  type: "ReLU"
  bottom: "fc1"
  top: "fc1"
}
layer {
  name: "fc2"
  type: "InnerProduct"
  bottom: "fc1"
  top: "fc2"
  param {
    lr_mult: 1
    decay_mult: 1
  }
  param {
    lr_mult: 1
    decay_mult: 1
  }
  inner_product_param {
    num_output: 256
    weight_filler {
      type: "gaussian"
      std: 0.001
    }
    bias_filler {
      type: "constant"
      value: 0
    }
  }
}
layer {
  name: "bn7"
  type: "BatchNorm"
  bottom: "fc2"
  top: "fc2"
}
layer {
  name: "scale7"
  type: "Scale"
  bottom: "fc2"
  top: "fc2"
  scale_param {
    bias_term: true
  }
}
layer {
  name: "relu7"
  type: "ReLU"
  bottom: "fc2"
  top: "fc2"
}
layer {
  name: "drop1"
  type: "Dropout"
  bottom: "fc2"
  top: "drop1"
  dropout_param {
    dropout_ratio: 0.3
  }
}
layer {
  name: "fc3"
  type: "InnerProduct"
  bottom: "drop1"
  top: "fc3"
  param {
    lr_mult: 1
    decay_mult: 1
  }
  param {
    lr_mult: 1
    decay_mult: 1
  }
  inner_product_param {
    num_output: 40
    weight_filler {
      type: "gaussian"
      std: 0.001
    }
    bias_filler {
      type: "constant"
      value: 0
    }
  }
}
layer {
  name: "loss"
  type: "SoftmaxWithLoss"
  bottom: "fc3"
  bottom: "label"
  top: "loss"
}
layer {
  name: "perm_loss_transform2"
  type: "Permute"
  bottom: "transform2"
  top: "transform2_transpose"
  permute_param {
    order: 0
    order: 2
    order: 1
  }
}
layer {
  name: "matmul_feat_loss"
  type: "MatrixMultiplication"
  bottom: "transform2"
  bottom: "transform2_transpose"
  top: "transform2_mul"
}
layer {
  name: "loss_feat"
  type: "EuclideanLoss"
  bottom: "transform2_mul"
  bottom: "eye_tnet2"
  top: "loss_feat"
  loss_weight: 0.001
}
I0601 10:22:17.576750 12623 layer_factory.hpp:77] Creating layer data
I0601 10:22:17.576769 12623 net.cpp:84] Creating Layer data
I0601 10:22:17.576779 12623 net.cpp:380] data -> data
I0601 10:22:17.576802 12623 net.cpp:380] data -> label
I0601 10:22:17.576817 12623 hdf5_data_layer.cpp:80] Loading list of HDF5 filenames from: data/modelnet40_ply_hdf5_2048/train_files.txt
I0601 10:22:17.576869 12623 hdf5_data_layer.cpp:94] Number of HDF5 files: 5
I0601 10:22:17.577816 12623 hdf5.cpp:32] Datatype class: H5T_FLOAT
I0601 10:22:17.920233 12623 hdf5.cpp:35] Datatype class: H5T_INTEGER
I0601 10:22:17.920963 12623 net.cpp:122] Setting up data
I0601 10:22:17.920979 12623 net.cpp:129] Top shape: 32 2048 3 (196608)
I0601 10:22:17.920984 12623 net.cpp:129] Top shape: 32 1 (32)
I0601 10:22:17.920986 12623 net.cpp:137] Memory required for data: 786560
I0601 10:22:17.920994 12623 layer_factory.hpp:77] Creating layer data_data_0_split
I0601 10:22:17.921002 12623 net.cpp:84] Creating Layer data_data_0_split
I0601 10:22:17.921007 12623 net.cpp:406] data_data_0_split <- data
I0601 10:22:17.921016 12623 net.cpp:380] data_data_0_split -> data_data_0_split_0
I0601 10:22:17.921025 12623 net.cpp:380] data_data_0_split -> data_data_0_split_1
I0601 10:22:17.921051 12623 net.cpp:122] Setting up data_data_0_split
I0601 10:22:17.921056 12623 net.cpp:129] Top shape: 32 2048 3 (196608)
I0601 10:22:17.921059 12623 net.cpp:129] Top shape: 32 2048 3 (196608)
I0601 10:22:17.921061 12623 net.cpp:137] Memory required for data: 2359424
I0601 10:22:17.921064 12623 layer_factory.hpp:77] Creating layer reshape
I0601 10:22:17.921072 12623 net.cpp:84] Creating Layer reshape
I0601 10:22:17.921075 12623 net.cpp:406] reshape <- data_data_0_split_0
I0601 10:22:17.921079 12623 net.cpp:380] reshape -> data_reshape
I0601 10:22:17.921100 12623 net.cpp:122] Setting up reshape
I0601 10:22:17.921105 12623 net.cpp:129] Top shape: 32 1 2048 3 (196608)
I0601 10:22:17.921108 12623 net.cpp:137] Memory required for data: 3145856
I0601 10:22:17.921111 12623 layer_factory.hpp:77] Creating layer conv1_tnet1
I0601 10:22:17.921123 12623 net.cpp:84] Creating Layer conv1_tnet1
I0601 10:22:17.921126 12623 net.cpp:406] conv1_tnet1 <- data_reshape
I0601 10:22:17.921131 12623 net.cpp:380] conv1_tnet1 -> conv1_tnet1
I0601 10:22:18.180259 12623 net.cpp:122] Setting up conv1_tnet1
I0601 10:22:18.180285 12623 net.cpp:129] Top shape: 32 64 2048 1 (4194304)
I0601 10:22:18.180289 12623 net.cpp:137] Memory required for data: 19923072
I0601 10:22:18.180305 12623 layer_factory.hpp:77] Creating layer bn1_tnet1
I0601 10:22:18.180315 12623 net.cpp:84] Creating Layer bn1_tnet1
I0601 10:22:18.180320 12623 net.cpp:406] bn1_tnet1 <- conv1_tnet1
I0601 10:22:18.180325 12623 net.cpp:367] bn1_tnet1 -> conv1_tnet1 (in-place)
I0601 10:22:18.180464 12623 net.cpp:122] Setting up bn1_tnet1
I0601 10:22:18.180470 12623 net.cpp:129] Top shape: 32 64 2048 1 (4194304)
I0601 10:22:18.180474 12623 net.cpp:137] Memory required for data: 36700288
I0601 10:22:18.180481 12623 layer_factory.hpp:77] Creating layer scale1_tnet1
I0601 10:22:18.180488 12623 net.cpp:84] Creating Layer scale1_tnet1
I0601 10:22:18.180490 12623 net.cpp:406] scale1_tnet1 <- conv1_tnet1
I0601 10:22:18.180495 12623 net.cpp:367] scale1_tnet1 -> conv1_tnet1 (in-place)
I0601 10:22:18.180544 12623 layer_factory.hpp:77] Creating layer scale1_tnet1
I0601 10:22:18.180626 12623 net.cpp:122] Setting up scale1_tnet1
I0601 10:22:18.180634 12623 net.cpp:129] Top shape: 32 64 2048 1 (4194304)
I0601 10:22:18.180635 12623 net.cpp:137] Memory required for data: 53477504
I0601 10:22:18.180640 12623 layer_factory.hpp:77] Creating layer relu1_tnet1
I0601 10:22:18.180645 12623 net.cpp:84] Creating Layer relu1_tnet1
I0601 10:22:18.180649 12623 net.cpp:406] relu1_tnet1 <- conv1_tnet1
I0601 10:22:18.180651 12623 net.cpp:367] relu1_tnet1 -> conv1_tnet1 (in-place)
I0601 10:22:18.180936 12623 net.cpp:122] Setting up relu1_tnet1
I0601 10:22:18.180948 12623 net.cpp:129] Top shape: 32 64 2048 1 (4194304)
I0601 10:22:18.180951 12623 net.cpp:137] Memory required for data: 70254720
I0601 10:22:18.180954 12623 layer_factory.hpp:77] Creating layer conv2_tnet1
I0601 10:22:18.180963 12623 net.cpp:84] Creating Layer conv2_tnet1
I0601 10:22:18.180965 12623 net.cpp:406] conv2_tnet1 <- conv1_tnet1
I0601 10:22:18.180970 12623 net.cpp:380] conv2_tnet1 -> conv2_tnet1
I0601 10:22:18.182278 12623 net.cpp:122] Setting up conv2_tnet1
I0601 10:22:18.182291 12623 net.cpp:129] Top shape: 32 128 2048 1 (8388608)
I0601 10:22:18.182294 12623 net.cpp:137] Memory required for data: 103809152
I0601 10:22:18.182301 12623 layer_factory.hpp:77] Creating layer bn2_tnet1
I0601 10:22:18.182308 12623 net.cpp:84] Creating Layer bn2_tnet1
I0601 10:22:18.182312 12623 net.cpp:406] bn2_tnet1 <- conv2_tnet1
I0601 10:22:18.182315 12623 net.cpp:367] bn2_tnet1 -> conv2_tnet1 (in-place)
I0601 10:22:18.182456 12623 net.cpp:122] Setting up bn2_tnet1
I0601 10:22:18.182464 12623 net.cpp:129] Top shape: 32 128 2048 1 (8388608)
I0601 10:22:18.182466 12623 net.cpp:137] Memory required for data: 137363584
I0601 10:22:18.182472 12623 layer_factory.hpp:77] Creating layer scale2_tnet1
I0601 10:22:18.182476 12623 net.cpp:84] Creating Layer scale2_tnet1
I0601 10:22:18.182479 12623 net.cpp:406] scale2_tnet1 <- conv2_tnet1
I0601 10:22:18.182484 12623 net.cpp:367] scale2_tnet1 -> conv2_tnet1 (in-place)
I0601 10:22:18.182512 12623 layer_factory.hpp:77] Creating layer scale2_tnet1
I0601 10:22:18.182587 12623 net.cpp:122] Setting up scale2_tnet1
I0601 10:22:18.182592 12623 net.cpp:129] Top shape: 32 128 2048 1 (8388608)
I0601 10:22:18.182595 12623 net.cpp:137] Memory required for data: 170918016
I0601 10:22:18.182600 12623 layer_factory.hpp:77] Creating layer relu2_tnet1
I0601 10:22:18.182605 12623 net.cpp:84] Creating Layer relu2_tnet1
I0601 10:22:18.182607 12623 net.cpp:406] relu2_tnet1 <- conv2_tnet1
I0601 10:22:18.182611 12623 net.cpp:367] relu2_tnet1 -> conv2_tnet1 (in-place)
I0601 10:22:18.182760 12623 net.cpp:122] Setting up relu2_tnet1
I0601 10:22:18.182768 12623 net.cpp:129] Top shape: 32 128 2048 1 (8388608)
I0601 10:22:18.182771 12623 net.cpp:137] Memory required for data: 204472448
I0601 10:22:18.182775 12623 layer_factory.hpp:77] Creating layer conv3_tnet1
I0601 10:22:18.182781 12623 net.cpp:84] Creating Layer conv3_tnet1
I0601 10:22:18.182785 12623 net.cpp:406] conv3_tnet1 <- conv2_tnet1
I0601 10:22:18.182790 12623 net.cpp:380] conv3_tnet1 -> conv3_tnet1
I0601 10:22:18.185050 12623 net.cpp:122] Setting up conv3_tnet1
I0601 10:22:18.185063 12623 net.cpp:129] Top shape: 32 1024 2048 1 (67108864)
I0601 10:22:18.185067 12623 net.cpp:137] Memory required for data: 472907904
I0601 10:22:18.185073 12623 layer_factory.hpp:77] Creating layer bn3_tnet1
I0601 10:22:18.185078 12623 net.cpp:84] Creating Layer bn3_tnet1
I0601 10:22:18.185081 12623 net.cpp:406] bn3_tnet1 <- conv3_tnet1
I0601 10:22:18.185086 12623 net.cpp:367] bn3_tnet1 -> conv3_tnet1 (in-place)
I0601 10:22:18.185227 12623 net.cpp:122] Setting up bn3_tnet1
I0601 10:22:18.185235 12623 net.cpp:129] Top shape: 32 1024 2048 1 (67108864)
I0601 10:22:18.185236 12623 net.cpp:137] Memory required for data: 741343360
I0601 10:22:18.185245 12623 layer_factory.hpp:77] Creating layer scale3_tnet1
I0601 10:22:18.185250 12623 net.cpp:84] Creating Layer scale3_tnet1
I0601 10:22:18.185252 12623 net.cpp:406] scale3_tnet1 <- conv3_tnet1
I0601 10:22:18.185267 12623 net.cpp:367] scale3_tnet1 -> conv3_tnet1 (in-place)
I0601 10:22:18.185298 12623 layer_factory.hpp:77] Creating layer scale3_tnet1
I0601 10:22:18.185379 12623 net.cpp:122] Setting up scale3_tnet1
I0601 10:22:18.185384 12623 net.cpp:129] Top shape: 32 1024 2048 1 (67108864)
I0601 10:22:18.185387 12623 net.cpp:137] Memory required for data: 1009778816
I0601 10:22:18.185392 12623 layer_factory.hpp:77] Creating layer relu3_tnet1
I0601 10:22:18.185396 12623 net.cpp:84] Creating Layer relu3_tnet1
I0601 10:22:18.185400 12623 net.cpp:406] relu3_tnet1 <- conv3_tnet1
I0601 10:22:18.185405 12623 net.cpp:367] relu3_tnet1 -> conv3_tnet1 (in-place)
I0601 10:22:18.185691 12623 net.cpp:122] Setting up relu3_tnet1
I0601 10:22:18.185703 12623 net.cpp:129] Top shape: 32 1024 2048 1 (67108864)
I0601 10:22:18.185705 12623 net.cpp:137] Memory required for data: 1278214272
I0601 10:22:18.185708 12623 layer_factory.hpp:77] Creating layer pool_tnet1
I0601 10:22:18.185714 12623 net.cpp:84] Creating Layer pool_tnet1
I0601 10:22:18.185717 12623 net.cpp:406] pool_tnet1 <- conv3_tnet1
I0601 10:22:18.185722 12623 net.cpp:380] pool_tnet1 -> global_feat_tnet1
I0601 10:22:18.185763 12623 net.cpp:122] Setting up pool_tnet1
I0601 10:22:18.185770 12623 net.cpp:129] Top shape: 32 1024 1 1 (32768)
I0601 10:22:18.185772 12623 net.cpp:137] Memory required for data: 1278345344
I0601 10:22:18.185775 12623 layer_factory.hpp:77] Creating layer fc1_tnet1
I0601 10:22:18.185783 12623 net.cpp:84] Creating Layer fc1_tnet1
I0601 10:22:18.185787 12623 net.cpp:406] fc1_tnet1 <- global_feat_tnet1
I0601 10:22:18.185792 12623 net.cpp:380] fc1_tnet1 -> fc1_tnet1
I0601 10:22:18.197896 12623 net.cpp:122] Setting up fc1_tnet1
I0601 10:22:18.197919 12623 net.cpp:129] Top shape: 32 512 (16384)
I0601 10:22:18.197923 12623 net.cpp:137] Memory required for data: 1278410880
I0601 10:22:18.197932 12623 layer_factory.hpp:77] Creating layer bn6_tnet1
I0601 10:22:18.197938 12623 net.cpp:84] Creating Layer bn6_tnet1
I0601 10:22:18.197942 12623 net.cpp:406] bn6_tnet1 <- fc1_tnet1
I0601 10:22:18.197947 12623 net.cpp:367] bn6_tnet1 -> fc1_tnet1 (in-place)
I0601 10:22:18.198092 12623 net.cpp:122] Setting up bn6_tnet1
I0601 10:22:18.198098 12623 net.cpp:129] Top shape: 32 512 (16384)
I0601 10:22:18.198101 12623 net.cpp:137] Memory required for data: 1278476416
I0601 10:22:18.198107 12623 layer_factory.hpp:77] Creating layer scale6_tnet1
I0601 10:22:18.198113 12623 net.cpp:84] Creating Layer scale6_tnet1
I0601 10:22:18.198117 12623 net.cpp:406] scale6_tnet1 <- fc1_tnet1
I0601 10:22:18.198119 12623 net.cpp:367] scale6_tnet1 -> fc1_tnet1 (in-place)
I0601 10:22:18.198146 12623 layer_factory.hpp:77] Creating layer scale6_tnet1
I0601 10:22:18.198230 12623 net.cpp:122] Setting up scale6_tnet1
I0601 10:22:18.198235 12623 net.cpp:129] Top shape: 32 512 (16384)
I0601 10:22:18.198237 12623 net.cpp:137] Memory required for data: 1278541952
I0601 10:22:18.198242 12623 layer_factory.hpp:77] Creating layer relu6_tnet1
I0601 10:22:18.198246 12623 net.cpp:84] Creating Layer relu6_tnet1
I0601 10:22:18.198248 12623 net.cpp:406] relu6_tnet1 <- fc1_tnet1
I0601 10:22:18.198252 12623 net.cpp:367] relu6_tnet1 -> fc1_tnet1 (in-place)
I0601 10:22:18.198451 12623 net.cpp:122] Setting up relu6_tnet1
I0601 10:22:18.198460 12623 net.cpp:129] Top shape: 32 512 (16384)
I0601 10:22:18.198462 12623 net.cpp:137] Memory required for data: 1278607488
I0601 10:22:18.198465 12623 layer_factory.hpp:77] Creating layer fc2_tnet1
I0601 10:22:18.198472 12623 net.cpp:84] Creating Layer fc2_tnet1
I0601 10:22:18.198475 12623 net.cpp:406] fc2_tnet1 <- fc1_tnet1
I0601 10:22:18.198482 12623 net.cpp:380] fc2_tnet1 -> fc2_tnet1
I0601 10:22:18.201411 12623 net.cpp:122] Setting up fc2_tnet1
I0601 10:22:18.201428 12623 net.cpp:129] Top shape: 32 256 (8192)
I0601 10:22:18.201431 12623 net.cpp:137] Memory required for data: 1278640256
I0601 10:22:18.201437 12623 layer_factory.hpp:77] Creating layer bn7_tnet1
I0601 10:22:18.201444 12623 net.cpp:84] Creating Layer bn7_tnet1
I0601 10:22:18.201463 12623 net.cpp:406] bn7_tnet1 <- fc2_tnet1
I0601 10:22:18.201469 12623 net.cpp:367] bn7_tnet1 -> fc2_tnet1 (in-place)
I0601 10:22:18.201609 12623 net.cpp:122] Setting up bn7_tnet1
I0601 10:22:18.201616 12623 net.cpp:129] Top shape: 32 256 (8192)
I0601 10:22:18.201618 12623 net.cpp:137] Memory required for data: 1278673024
I0601 10:22:18.201629 12623 layer_factory.hpp:77] Creating layer scale7_tnet1
I0601 10:22:18.201634 12623 net.cpp:84] Creating Layer scale7_tnet1
I0601 10:22:18.201637 12623 net.cpp:406] scale7_tnet1 <- fc2_tnet1
I0601 10:22:18.201640 12623 net.cpp:367] scale7_tnet1 -> fc2_tnet1 (in-place)
I0601 10:22:18.201673 12623 layer_factory.hpp:77] Creating layer scale7_tnet1
I0601 10:22:18.201752 12623 net.cpp:122] Setting up scale7_tnet1
I0601 10:22:18.201757 12623 net.cpp:129] Top shape: 32 256 (8192)
I0601 10:22:18.201761 12623 net.cpp:137] Memory required for data: 1278705792
I0601 10:22:18.201764 12623 layer_factory.hpp:77] Creating layer relu7_tnet1
I0601 10:22:18.201771 12623 net.cpp:84] Creating Layer relu7_tnet1
I0601 10:22:18.201772 12623 net.cpp:406] relu7_tnet1 <- fc2_tnet1
I0601 10:22:18.201776 12623 net.cpp:367] relu7_tnet1 -> fc2_tnet1 (in-place)
I0601 10:22:18.202177 12623 net.cpp:122] Setting up relu7_tnet1
I0601 10:22:18.202188 12623 net.cpp:129] Top shape: 32 256 (8192)
I0601 10:22:18.202190 12623 net.cpp:137] Memory required for data: 1278738560
I0601 10:22:18.202193 12623 layer_factory.hpp:77] Creating layer fc3_tnet1
I0601 10:22:18.202200 12623 net.cpp:84] Creating Layer fc3_tnet1
I0601 10:22:18.202204 12623 net.cpp:406] fc3_tnet1 <- fc2_tnet1
I0601 10:22:18.202209 12623 net.cpp:380] fc3_tnet1 -> fc3_tnet1
I0601 10:22:18.202298 12623 net.cpp:122] Setting up fc3_tnet1
I0601 10:22:18.202304 12623 net.cpp:129] Top shape: 32 9 (288)
I0601 10:22:18.202306 12623 net.cpp:137] Memory required for data: 1278739712
I0601 10:22:18.202311 12623 layer_factory.hpp:77] Creating layer fc3_tnet1_fc3_tnet1_0_split
I0601 10:22:18.202316 12623 net.cpp:84] Creating Layer fc3_tnet1_fc3_tnet1_0_split
I0601 10:22:18.202318 12623 net.cpp:406] fc3_tnet1_fc3_tnet1_0_split <- fc3_tnet1
I0601 10:22:18.202323 12623 net.cpp:380] fc3_tnet1_fc3_tnet1_0_split -> fc3_tnet1_fc3_tnet1_0_split_0
I0601 10:22:18.202328 12623 net.cpp:380] fc3_tnet1_fc3_tnet1_0_split -> fc3_tnet1_fc3_tnet1_0_split_1
I0601 10:22:18.202354 12623 net.cpp:122] Setting up fc3_tnet1_fc3_tnet1_0_split
I0601 10:22:18.202359 12623 net.cpp:129] Top shape: 32 9 (288)
I0601 10:22:18.202363 12623 net.cpp:129] Top shape: 32 9 (288)
I0601 10:22:18.202364 12623 net.cpp:137] Memory required for data: 1278742016
I0601 10:22:18.202368 12623 layer_factory.hpp:77] Creating layer reshape_tnet1
I0601 10:22:18.202371 12623 net.cpp:84] Creating Layer reshape_tnet1
I0601 10:22:18.202374 12623 net.cpp:406] reshape_tnet1 <- fc3_tnet1_fc3_tnet1_0_split_0
I0601 10:22:18.202378 12623 net.cpp:380] reshape_tnet1 -> fc3_tnet1_reshape
I0601 10:22:18.202397 12623 net.cpp:122] Setting up reshape_tnet1
I0601 10:22:18.202402 12623 net.cpp:129] Top shape: 32 3 3 (288)
I0601 10:22:18.202404 12623 net.cpp:137] Memory required for data: 1278743168
I0601 10:22:18.202407 12623 layer_factory.hpp:77] Creating layer eye_tnet1
I0601 10:22:18.721901 12623 net.cpp:84] Creating Layer eye_tnet1
I0601 10:22:18.721926 12623 net.cpp:406] eye_tnet1 <- fc3_tnet1_fc3_tnet1_0_split_1
I0601 10:22:18.721940 12623 net.cpp:380] eye_tnet1 -> eye_tnet1
I0601 10:22:18.722167 12623 net.cpp:122] Setting up eye_tnet1
I0601 10:22:18.722182 12623 net.cpp:129] Top shape: 32 3 3 (288)
I0601 10:22:18.722185 12623 net.cpp:137] Memory required for data: 1278744320
I0601 10:22:18.722190 12623 layer_factory.hpp:77] Creating layer eltwise_sum_tnet1
I0601 10:22:18.722198 12623 net.cpp:84] Creating Layer eltwise_sum_tnet1
I0601 10:22:18.722201 12623 net.cpp:406] eltwise_sum_tnet1 <- fc3_tnet1_reshape
I0601 10:22:18.722206 12623 net.cpp:406] eltwise_sum_tnet1 <- eye_tnet1
I0601 10:22:18.722210 12623 net.cpp:380] eltwise_sum_tnet1 -> transform1
I0601 10:22:18.722254 12623 net.cpp:122] Setting up eltwise_sum_tnet1
I0601 10:22:18.722278 12623 net.cpp:129] Top shape: 32 3 3 (288)
I0601 10:22:18.722282 12623 net.cpp:137] Memory required for data: 1278745472
I0601 10:22:18.722285 12623 layer_factory.hpp:77] Creating layer matmul_input
I0601 10:22:18.722291 12623 net.cpp:84] Creating Layer matmul_input
I0601 10:22:18.722295 12623 net.cpp:406] matmul_input <- data_data_0_split_1
I0601 10:22:18.722298 12623 net.cpp:406] matmul_input <- transform1
I0601 10:22:18.722302 12623 net.cpp:380] matmul_input -> data_transform1
I0601 10:22:18.722324 12623 net.cpp:122] Setting up matmul_input
I0601 10:22:18.722331 12623 net.cpp:129] Top shape: 32 2048 3 (196608)
I0601 10:22:18.722332 12623 net.cpp:137] Memory required for data: 1279531904
I0601 10:22:18.722335 12623 layer_factory.hpp:77] Creating layer reshape_input_data
I0601 10:22:18.722342 12623 net.cpp:84] Creating Layer reshape_input_data
I0601 10:22:18.722344 12623 net.cpp:406] reshape_input_data <- data_transform1
I0601 10:22:18.722348 12623 net.cpp:380] reshape_input_data -> data_transform1_reshape
I0601 10:22:18.722373 12623 net.cpp:122] Setting up reshape_input_data
I0601 10:22:18.722378 12623 net.cpp:129] Top shape: 32 1 2048 3 (196608)
I0601 10:22:18.722380 12623 net.cpp:137] Memory required for data: 1280318336
I0601 10:22:18.722383 12623 layer_factory.hpp:77] Creating layer conv1
I0601 10:22:18.722391 12623 net.cpp:84] Creating Layer conv1
I0601 10:22:18.722394 12623 net.cpp:406] conv1 <- data_transform1_reshape
I0601 10:22:18.722399 12623 net.cpp:380] conv1 -> conv1
I0601 10:22:18.723603 12623 net.cpp:122] Setting up conv1
I0601 10:22:18.723615 12623 net.cpp:129] Top shape: 32 64 2048 1 (4194304)
I0601 10:22:18.723619 12623 net.cpp:137] Memory required for data: 1297095552
I0601 10:22:18.723628 12623 layer_factory.hpp:77] Creating layer bn1
I0601 10:22:18.723642 12623 net.cpp:84] Creating Layer bn1
I0601 10:22:18.723647 12623 net.cpp:406] bn1 <- conv1
I0601 10:22:18.723651 12623 net.cpp:367] bn1 -> conv1 (in-place)
I0601 10:22:18.723810 12623 net.cpp:122] Setting up bn1
I0601 10:22:18.723816 12623 net.cpp:129] Top shape: 32 64 2048 1 (4194304)
I0601 10:22:18.723819 12623 net.cpp:137] Memory required for data: 1313872768
I0601 10:22:18.723825 12623 layer_factory.hpp:77] Creating layer scale1
I0601 10:22:18.723831 12623 net.cpp:84] Creating Layer scale1
I0601 10:22:18.723834 12623 net.cpp:406] scale1 <- conv1
I0601 10:22:18.723839 12623 net.cpp:367] scale1 -> conv1 (in-place)
I0601 10:22:18.723877 12623 layer_factory.hpp:77] Creating layer scale1
I0601 10:22:18.723964 12623 net.cpp:122] Setting up scale1
I0601 10:22:18.723971 12623 net.cpp:129] Top shape: 32 64 2048 1 (4194304)
I0601 10:22:18.723973 12623 net.cpp:137] Memory required for data: 1330649984
I0601 10:22:18.723978 12623 layer_factory.hpp:77] Creating layer relu1
I0601 10:22:18.723984 12623 net.cpp:84] Creating Layer relu1
I0601 10:22:18.723986 12623 net.cpp:406] relu1 <- conv1
I0601 10:22:18.723990 12623 net.cpp:367] relu1 -> conv1 (in-place)
I0601 10:22:18.724305 12623 net.cpp:122] Setting up relu1
I0601 10:22:18.724316 12623 net.cpp:129] Top shape: 32 64 2048 1 (4194304)
I0601 10:22:18.724319 12623 net.cpp:137] Memory required for data: 1347427200
I0601 10:22:18.724323 12623 layer_factory.hpp:77] Creating layer conv2
I0601 10:22:18.724330 12623 net.cpp:84] Creating Layer conv2
I0601 10:22:18.724334 12623 net.cpp:406] conv2 <- conv1
I0601 10:22:18.724340 12623 net.cpp:380] conv2 -> conv2
I0601 10:22:18.725325 12623 net.cpp:122] Setting up conv2
I0601 10:22:18.725338 12623 net.cpp:129] Top shape: 32 64 2048 1 (4194304)
I0601 10:22:18.725342 12623 net.cpp:137] Memory required for data: 1364204416
I0601 10:22:18.725347 12623 layer_factory.hpp:77] Creating layer bn2
I0601 10:22:18.725353 12623 net.cpp:84] Creating Layer bn2
I0601 10:22:18.725355 12623 net.cpp:406] bn2 <- conv2
I0601 10:22:18.725359 12623 net.cpp:367] bn2 -> conv2 (in-place)
I0601 10:22:18.725508 12623 net.cpp:122] Setting up bn2
I0601 10:22:18.725515 12623 net.cpp:129] Top shape: 32 64 2048 1 (4194304)
I0601 10:22:18.725517 12623 net.cpp:137] Memory required for data: 1380981632
I0601 10:22:18.725536 12623 layer_factory.hpp:77] Creating layer scale2
I0601 10:22:18.725543 12623 net.cpp:84] Creating Layer scale2
I0601 10:22:18.725546 12623 net.cpp:406] scale2 <- conv2
I0601 10:22:18.725550 12623 net.cpp:367] scale2 -> conv2 (in-place)
I0601 10:22:18.725584 12623 layer_factory.hpp:77] Creating layer scale2
I0601 10:22:18.725669 12623 net.cpp:122] Setting up scale2
I0601 10:22:18.725675 12623 net.cpp:129] Top shape: 32 64 2048 1 (4194304)
I0601 10:22:18.725677 12623 net.cpp:137] Memory required for data: 1397758848
I0601 10:22:18.725682 12623 layer_factory.hpp:77] Creating layer relu2
I0601 10:22:18.725688 12623 net.cpp:84] Creating Layer relu2
I0601 10:22:18.725692 12623 net.cpp:406] relu2 <- conv2
I0601 10:22:18.725695 12623 net.cpp:367] relu2 -> conv2 (in-place)
I0601 10:22:18.725845 12623 net.cpp:122] Setting up relu2
I0601 10:22:18.725853 12623 net.cpp:129] Top shape: 32 64 2048 1 (4194304)
I0601 10:22:18.725855 12623 net.cpp:137] Memory required for data: 1414536064
I0601 10:22:18.725858 12623 layer_factory.hpp:77] Creating layer conv2_relu2_0_split
I0601 10:22:18.725864 12623 net.cpp:84] Creating Layer conv2_relu2_0_split
I0601 10:22:18.725867 12623 net.cpp:406] conv2_relu2_0_split <- conv2
I0601 10:22:18.725870 12623 net.cpp:380] conv2_relu2_0_split -> conv2_relu2_0_split_0
I0601 10:22:18.725875 12623 net.cpp:380] conv2_relu2_0_split -> conv2_relu2_0_split_1
I0601 10:22:18.725906 12623 net.cpp:122] Setting up conv2_relu2_0_split
I0601 10:22:18.725911 12623 net.cpp:129] Top shape: 32 64 2048 1 (4194304)
I0601 10:22:18.725914 12623 net.cpp:129] Top shape: 32 64 2048 1 (4194304)
I0601 10:22:18.725917 12623 net.cpp:137] Memory required for data: 1448090496
I0601 10:22:18.725919 12623 layer_factory.hpp:77] Creating layer conv1_tnet2
I0601 10:22:18.725929 12623 net.cpp:84] Creating Layer conv1_tnet2
I0601 10:22:18.725934 12623 net.cpp:406] conv1_tnet2 <- conv2_relu2_0_split_0
I0601 10:22:18.725939 12623 net.cpp:380] conv1_tnet2 -> conv1_tnet2
I0601 10:22:18.726872 12623 net.cpp:122] Setting up conv1_tnet2
I0601 10:22:18.726883 12623 net.cpp:129] Top shape: 32 64 2048 1 (4194304)
I0601 10:22:18.726887 12623 net.cpp:137] Memory required for data: 1464867712
I0601 10:22:18.726893 12623 layer_factory.hpp:77] Creating layer bn1_tnet2
I0601 10:22:18.726898 12623 net.cpp:84] Creating Layer bn1_tnet2
I0601 10:22:18.726902 12623 net.cpp:406] bn1_tnet2 <- conv1_tnet2
I0601 10:22:18.726907 12623 net.cpp:367] bn1_tnet2 -> conv1_tnet2 (in-place)
I0601 10:22:18.727057 12623 net.cpp:122] Setting up bn1_tnet2
I0601 10:22:18.727063 12623 net.cpp:129] Top shape: 32 64 2048 1 (4194304)
I0601 10:22:18.727066 12623 net.cpp:137] Memory required for data: 1481644928
I0601 10:22:18.727072 12623 layer_factory.hpp:77] Creating layer scale1_tnet2
I0601 10:22:18.727077 12623 net.cpp:84] Creating Layer scale1_tnet2
I0601 10:22:18.727079 12623 net.cpp:406] scale1_tnet2 <- conv1_tnet2
I0601 10:22:18.727084 12623 net.cpp:367] scale1_tnet2 -> conv1_tnet2 (in-place)
I0601 10:22:18.727114 12623 layer_factory.hpp:77] Creating layer scale1_tnet2
I0601 10:22:18.727198 12623 net.cpp:122] Setting up scale1_tnet2
I0601 10:22:18.727205 12623 net.cpp:129] Top shape: 32 64 2048 1 (4194304)
I0601 10:22:18.727206 12623 net.cpp:137] Memory required for data: 1498422144
I0601 10:22:18.727211 12623 layer_factory.hpp:77] Creating layer relu1_tnet2
I0601 10:22:18.727214 12623 net.cpp:84] Creating Layer relu1_tnet2
I0601 10:22:18.727217 12623 net.cpp:406] relu1_tnet2 <- conv1_tnet2
I0601 10:22:18.727221 12623 net.cpp:367] relu1_tnet2 -> conv1_tnet2 (in-place)
I0601 10:22:18.727520 12623 net.cpp:122] Setting up relu1_tnet2
I0601 10:22:18.727531 12623 net.cpp:129] Top shape: 32 64 2048 1 (4194304)
I0601 10:22:18.727535 12623 net.cpp:137] Memory required for data: 1515199360
I0601 10:22:18.727536 12623 layer_factory.hpp:77] Creating layer conv2_tnet2
I0601 10:22:18.727545 12623 net.cpp:84] Creating Layer conv2_tnet2
I0601 10:22:18.727548 12623 net.cpp:406] conv2_tnet2 <- conv1_tnet2
I0601 10:22:18.727553 12623 net.cpp:380] conv2_tnet2 -> conv2_tnet2
I0601 10:22:18.728531 12623 net.cpp:122] Setting up conv2_tnet2
I0601 10:22:18.728543 12623 net.cpp:129] Top shape: 32 128 2048 1 (8388608)
I0601 10:22:18.728546 12623 net.cpp:137] Memory required for data: 1548753792
I0601 10:22:18.728554 12623 layer_factory.hpp:77] Creating layer bn2_tnet2
I0601 10:22:18.728559 12623 net.cpp:84] Creating Layer bn2_tnet2
I0601 10:22:18.728562 12623 net.cpp:406] bn2_tnet2 <- conv2_tnet2
I0601 10:22:18.728566 12623 net.cpp:367] bn2_tnet2 -> conv2_tnet2 (in-place)
I0601 10:22:18.728713 12623 net.cpp:122] Setting up bn2_tnet2
I0601 10:22:18.728718 12623 net.cpp:129] Top shape: 32 128 2048 1 (8388608)
I0601 10:22:18.728721 12623 net.cpp:137] Memory required for data: 1582308224
I0601 10:22:18.728726 12623 layer_factory.hpp:77] Creating layer scale2_tnet2
I0601 10:22:18.728732 12623 net.cpp:84] Creating Layer scale2_tnet2
I0601 10:22:18.728734 12623 net.cpp:406] scale2_tnet2 <- conv2_tnet2
I0601 10:22:18.728739 12623 net.cpp:367] scale2_tnet2 -> conv2_tnet2 (in-place)
I0601 10:22:18.728770 12623 layer_factory.hpp:77] Creating layer scale2_tnet2
I0601 10:22:18.728852 12623 net.cpp:122] Setting up scale2_tnet2
I0601 10:22:18.728869 12623 net.cpp:129] Top shape: 32 128 2048 1 (8388608)
I0601 10:22:18.728873 12623 net.cpp:137] Memory required for data: 1615862656
I0601 10:22:18.728899 12623 layer_factory.hpp:77] Creating layer relu2_tnet2
I0601 10:22:18.728904 12623 net.cpp:84] Creating Layer relu2_tnet2
I0601 10:22:18.728907 12623 net.cpp:406] relu2_tnet2 <- conv2_tnet2
I0601 10:22:18.728912 12623 net.cpp:367] relu2_tnet2 -> conv2_tnet2 (in-place)
I0601 10:22:18.729073 12623 net.cpp:122] Setting up relu2_tnet2
I0601 10:22:18.729080 12623 net.cpp:129] Top shape: 32 128 2048 1 (8388608)
I0601 10:22:18.729084 12623 net.cpp:137] Memory required for data: 1649417088
I0601 10:22:18.729086 12623 layer_factory.hpp:77] Creating layer conv3_tnet2
I0601 10:22:18.729095 12623 net.cpp:84] Creating Layer conv3_tnet2
I0601 10:22:18.729099 12623 net.cpp:406] conv3_tnet2 <- conv2_tnet2
I0601 10:22:18.729104 12623 net.cpp:380] conv3_tnet2 -> conv3_tnet2
I0601 10:22:18.731146 12623 net.cpp:122] Setting up conv3_tnet2
I0601 10:22:18.731159 12623 net.cpp:129] Top shape: 32 1024 2048 1 (67108864)
I0601 10:22:18.731163 12623 net.cpp:137] Memory required for data: 1917852544
I0601 10:22:18.731169 12623 layer_factory.hpp:77] Creating layer bn3_tnet2
I0601 10:22:18.731175 12623 net.cpp:84] Creating Layer bn3_tnet2
I0601 10:22:18.731179 12623 net.cpp:406] bn3_tnet2 <- conv3_tnet2
I0601 10:22:18.731184 12623 net.cpp:367] bn3_tnet2 -> conv3_tnet2 (in-place)
I0601 10:22:18.731333 12623 net.cpp:122] Setting up bn3_tnet2
I0601 10:22:18.731338 12623 net.cpp:129] Top shape: 32 1024 2048 1 (67108864)
I0601 10:22:18.731341 12623 net.cpp:137] Memory required for data: 2186288000
I0601 10:22:18.731346 12623 layer_factory.hpp:77] Creating layer scale3_tnet2
I0601 10:22:18.731353 12623 net.cpp:84] Creating Layer scale3_tnet2
I0601 10:22:18.731357 12623 net.cpp:406] scale3_tnet2 <- conv3_tnet2
I0601 10:22:18.731361 12623 net.cpp:367] scale3_tnet2 -> conv3_tnet2 (in-place)
I0601 10:22:18.731391 12623 layer_factory.hpp:77] Creating layer scale3_tnet2
I0601 10:22:18.731478 12623 net.cpp:122] Setting up scale3_tnet2
I0601 10:22:18.731484 12623 net.cpp:129] Top shape: 32 1024 2048 1 (67108864)
I0601 10:22:18.731487 12623 net.cpp:137] Memory required for data: 2454723456
I0601 10:22:18.731492 12623 layer_factory.hpp:77] Creating layer relu3_tnet2
I0601 10:22:18.731495 12623 net.cpp:84] Creating Layer relu3_tnet2
I0601 10:22:18.731498 12623 net.cpp:406] relu3_tnet2 <- conv3_tnet2
I0601 10:22:18.731503 12623 net.cpp:367] relu3_tnet2 -> conv3_tnet2 (in-place)
I0601 10:22:18.732023 12623 net.cpp:122] Setting up relu3_tnet2
I0601 10:22:18.732034 12623 net.cpp:129] Top shape: 32 1024 2048 1 (67108864)
I0601 10:22:18.732038 12623 net.cpp:137] Memory required for data: 2723158912
I0601 10:22:18.732040 12623 layer_factory.hpp:77] Creating layer pool_tnet2
I0601 10:22:18.732048 12623 net.cpp:84] Creating Layer pool_tnet2
I0601 10:22:18.732064 12623 net.cpp:406] pool_tnet2 <- conv3_tnet2
I0601 10:22:18.732070 12623 net.cpp:380] pool_tnet2 -> global_feat_tnet2
I0601 10:22:18.732110 12623 net.cpp:122] Setting up pool_tnet2
I0601 10:22:18.732115 12623 net.cpp:129] Top shape: 32 1024 1 1 (32768)
I0601 10:22:18.732117 12623 net.cpp:137] Memory required for data: 2723289984
I0601 10:22:18.732120 12623 layer_factory.hpp:77] Creating layer fc1_tnet2
I0601 10:22:18.732127 12623 net.cpp:84] Creating Layer fc1_tnet2
I0601 10:22:18.732131 12623 net.cpp:406] fc1_tnet2 <- global_feat_tnet2
I0601 10:22:18.732136 12623 net.cpp:380] fc1_tnet2 -> fc1_tnet2
I0601 10:22:18.744377 12623 net.cpp:122] Setting up fc1_tnet2
I0601 10:22:18.744398 12623 net.cpp:129] Top shape: 32 512 (16384)
I0601 10:22:18.744402 12623 net.cpp:137] Memory required for data: 2723355520
I0601 10:22:18.744410 12623 layer_factory.hpp:77] Creating layer bn6_tnet2
I0601 10:22:18.744418 12623 net.cpp:84] Creating Layer bn6_tnet2
I0601 10:22:18.744422 12623 net.cpp:406] bn6_tnet2 <- fc1_tnet2
I0601 10:22:18.744427 12623 net.cpp:367] bn6_tnet2 -> fc1_tnet2 (in-place)
I0601 10:22:18.744590 12623 net.cpp:122] Setting up bn6_tnet2
I0601 10:22:18.744597 12623 net.cpp:129] Top shape: 32 512 (16384)
I0601 10:22:18.744599 12623 net.cpp:137] Memory required for data: 2723421056
I0601 10:22:18.744606 12623 layer_factory.hpp:77] Creating layer scale6_tnet2
I0601 10:22:18.744613 12623 net.cpp:84] Creating Layer scale6_tnet2
I0601 10:22:18.744635 12623 net.cpp:406] scale6_tnet2 <- fc1_tnet2
I0601 10:22:18.744638 12623 net.cpp:367] scale6_tnet2 -> fc1_tnet2 (in-place)
I0601 10:22:18.744673 12623 layer_factory.hpp:77] Creating layer scale6_tnet2
I0601 10:22:18.744761 12623 net.cpp:122] Setting up scale6_tnet2
I0601 10:22:18.744766 12623 net.cpp:129] Top shape: 32 512 (16384)
I0601 10:22:18.744770 12623 net.cpp:137] Memory required for data: 2723486592
I0601 10:22:18.744774 12623 layer_factory.hpp:77] Creating layer relu6_tnet2
I0601 10:22:18.744778 12623 net.cpp:84] Creating Layer relu6_tnet2
I0601 10:22:18.744781 12623 net.cpp:406] relu6_tnet2 <- fc1_tnet2
I0601 10:22:18.744786 12623 net.cpp:367] relu6_tnet2 -> fc1_tnet2 (in-place)
I0601 10:22:18.745188 12623 net.cpp:122] Setting up relu6_tnet2
I0601 10:22:18.745200 12623 net.cpp:129] Top shape: 32 512 (16384)
I0601 10:22:18.745203 12623 net.cpp:137] Memory required for data: 2723552128
I0601 10:22:18.745208 12623 layer_factory.hpp:77] Creating layer fc2_tnet2
I0601 10:22:18.745214 12623 net.cpp:84] Creating Layer fc2_tnet2
I0601 10:22:18.745218 12623 net.cpp:406] fc2_tnet2 <- fc1_tnet2
I0601 10:22:18.745223 12623 net.cpp:380] fc2_tnet2 -> fc2_tnet2
I0601 10:22:18.748126 12623 net.cpp:122] Setting up fc2_tnet2
I0601 10:22:18.748133 12623 net.cpp:129] Top shape: 32 256 (8192)
I0601 10:22:18.748136 12623 net.cpp:137] Memory required for data: 2723584896
I0601 10:22:18.748140 12623 layer_factory.hpp:77] Creating layer bn7_tnet2
I0601 10:22:18.748147 12623 net.cpp:84] Creating Layer bn7_tnet2
I0601 10:22:18.748149 12623 net.cpp:406] bn7_tnet2 <- fc2_tnet2
I0601 10:22:18.748152 12623 net.cpp:367] bn7_tnet2 -> fc2_tnet2 (in-place)
I0601 10:22:18.748292 12623 net.cpp:122] Setting up bn7_tnet2
I0601 10:22:18.748298 12623 net.cpp:129] Top shape: 32 256 (8192)
I0601 10:22:18.748301 12623 net.cpp:137] Memory required for data: 2723617664
I0601 10:22:18.748306 12623 layer_factory.hpp:77] Creating layer scale7_tnet2
I0601 10:22:18.748311 12623 net.cpp:84] Creating Layer scale7_tnet2
I0601 10:22:18.748314 12623 net.cpp:406] scale7_tnet2 <- fc2_tnet2
I0601 10:22:18.748318 12623 net.cpp:367] scale7_tnet2 -> fc2_tnet2 (in-place)
I0601 10:22:18.748347 12623 layer_factory.hpp:77] Creating layer scale7_tnet2
I0601 10:22:18.748426 12623 net.cpp:122] Setting up scale7_tnet2
I0601 10:22:18.748431 12623 net.cpp:129] Top shape: 32 256 (8192)
I0601 10:22:18.748435 12623 net.cpp:137] Memory required for data: 2723650432
I0601 10:22:18.748440 12623 layer_factory.hpp:77] Creating layer relu7_tnet2
I0601 10:22:18.748445 12623 net.cpp:84] Creating Layer relu7_tnet2
I0601 10:22:18.748446 12623 net.cpp:406] relu7_tnet2 <- fc2_tnet2
I0601 10:22:18.748462 12623 net.cpp:367] relu7_tnet2 -> fc2_tnet2 (in-place)
I0601 10:22:18.748631 12623 net.cpp:122] Setting up relu7_tnet2
I0601 10:22:18.748639 12623 net.cpp:129] Top shape: 32 256 (8192)
I0601 10:22:18.748642 12623 net.cpp:137] Memory required for data: 2723683200
I0601 10:22:18.748644 12623 layer_factory.hpp:77] Creating layer fc3_tnet2
I0601 10:22:18.748651 12623 net.cpp:84] Creating Layer fc3_tnet2
I0601 10:22:18.748653 12623 net.cpp:406] fc3_tnet2 <- fc2_tnet2
I0601 10:22:18.748658 12623 net.cpp:380] fc3_tnet2 -> fc3_tnet2
I0601 10:22:18.750488 12623 net.cpp:122] Setting up fc3_tnet2
I0601 10:22:18.750500 12623 net.cpp:129] Top shape: 32 4096 (131072)
I0601 10:22:18.750504 12623 net.cpp:137] Memory required for data: 2724207488
I0601 10:22:18.750509 12623 layer_factory.hpp:77] Creating layer fc3_tnet2_fc3_tnet2_0_split
I0601 10:22:18.750515 12623 net.cpp:84] Creating Layer fc3_tnet2_fc3_tnet2_0_split
I0601 10:22:18.750519 12623 net.cpp:406] fc3_tnet2_fc3_tnet2_0_split <- fc3_tnet2
I0601 10:22:18.750524 12623 net.cpp:380] fc3_tnet2_fc3_tnet2_0_split -> fc3_tnet2_fc3_tnet2_0_split_0
I0601 10:22:18.750530 12623 net.cpp:380] fc3_tnet2_fc3_tnet2_0_split -> fc3_tnet2_fc3_tnet2_0_split_1
I0601 10:22:18.750566 12623 net.cpp:122] Setting up fc3_tnet2_fc3_tnet2_0_split
I0601 10:22:18.750571 12623 net.cpp:129] Top shape: 32 4096 (131072)
I0601 10:22:18.750574 12623 net.cpp:129] Top shape: 32 4096 (131072)
I0601 10:22:18.750576 12623 net.cpp:137] Memory required for data: 2725256064
I0601 10:22:18.750579 12623 layer_factory.hpp:77] Creating layer reshape_tnet2
I0601 10:22:18.750584 12623 net.cpp:84] Creating Layer reshape_tnet2
I0601 10:22:18.750587 12623 net.cpp:406] reshape_tnet2 <- fc3_tnet2_fc3_tnet2_0_split_0
I0601 10:22:18.750592 12623 net.cpp:380] reshape_tnet2 -> fc3_tnet2_reshape
I0601 10:22:18.750615 12623 net.cpp:122] Setting up reshape_tnet2
I0601 10:22:18.750622 12623 net.cpp:129] Top shape: 32 64 64 (131072)
I0601 10:22:18.750623 12623 net.cpp:137] Memory required for data: 2725780352
I0601 10:22:18.750627 12623 layer_factory.hpp:77] Creating layer eye_tnet2
I0601 10:22:18.750676 12623 net.cpp:84] Creating Layer eye_tnet2
I0601 10:22:18.750682 12623 net.cpp:406] eye_tnet2 <- fc3_tnet2_fc3_tnet2_0_split_1
I0601 10:22:18.750686 12623 net.cpp:380] eye_tnet2 -> eye_tnet2
I0601 10:22:18.751252 12623 net.cpp:122] Setting up eye_tnet2
I0601 10:22:18.751266 12623 net.cpp:129] Top shape: 32 64 64 (131072)
I0601 10:22:18.751268 12623 net.cpp:137] Memory required for data: 2726304640
I0601 10:22:18.751272 12623 layer_factory.hpp:77] Creating layer eye_tnet2_eye_tnet2_0_split
I0601 10:22:18.751277 12623 net.cpp:84] Creating Layer eye_tnet2_eye_tnet2_0_split
I0601 10:22:18.751281 12623 net.cpp:406] eye_tnet2_eye_tnet2_0_split <- eye_tnet2
I0601 10:22:18.751286 12623 net.cpp:380] eye_tnet2_eye_tnet2_0_split -> eye_tnet2_eye_tnet2_0_split_0
I0601 10:22:18.751291 12623 net.cpp:380] eye_tnet2_eye_tnet2_0_split -> eye_tnet2_eye_tnet2_0_split_1
I0601 10:22:18.751318 12623 net.cpp:122] Setting up eye_tnet2_eye_tnet2_0_split
I0601 10:22:18.751324 12623 net.cpp:129] Top shape: 32 64 64 (131072)
I0601 10:22:18.751327 12623 net.cpp:129] Top shape: 32 64 64 (131072)
I0601 10:22:18.751330 12623 net.cpp:137] Memory required for data: 2727353216
I0601 10:22:18.751332 12623 layer_factory.hpp:77] Creating layer eltwise_sum_tnet2
I0601 10:22:18.751339 12623 net.cpp:84] Creating Layer eltwise_sum_tnet2
I0601 10:22:18.751343 12623 net.cpp:406] eltwise_sum_tnet2 <- fc3_tnet2_reshape
I0601 10:22:18.751348 12623 net.cpp:406] eltwise_sum_tnet2 <- eye_tnet2_eye_tnet2_0_split_0
I0601 10:22:18.751351 12623 net.cpp:380] eltwise_sum_tnet2 -> transform2
I0601 10:22:18.751370 12623 net.cpp:122] Setting up eltwise_sum_tnet2
I0601 10:22:18.751375 12623 net.cpp:129] Top shape: 32 64 64 (131072)
I0601 10:22:18.751377 12623 net.cpp:137] Memory required for data: 2727877504
I0601 10:22:18.751380 12623 layer_factory.hpp:77] Creating layer transform2_eltwise_sum_tnet2_0_split
I0601 10:22:18.751386 12623 net.cpp:84] Creating Layer transform2_eltwise_sum_tnet2_0_split
I0601 10:22:18.751401 12623 net.cpp:406] transform2_eltwise_sum_tnet2_0_split <- transform2
I0601 10:22:18.751406 12623 net.cpp:380] transform2_eltwise_sum_tnet2_0_split -> transform2_eltwise_sum_tnet2_0_split_0
I0601 10:22:18.751410 12623 net.cpp:380] transform2_eltwise_sum_tnet2_0_split -> transform2_eltwise_sum_tnet2_0_split_1
I0601 10:22:18.751415 12623 net.cpp:380] transform2_eltwise_sum_tnet2_0_split -> transform2_eltwise_sum_tnet2_0_split_2
I0601 10:22:18.751452 12623 net.cpp:122] Setting up transform2_eltwise_sum_tnet2_0_split
I0601 10:22:18.751457 12623 net.cpp:129] Top shape: 32 64 64 (131072)
I0601 10:22:18.751461 12623 net.cpp:129] Top shape: 32 64 64 (131072)
I0601 10:22:18.751463 12623 net.cpp:129] Top shape: 32 64 64 (131072)
I0601 10:22:18.751466 12623 net.cpp:137] Memory required for data: 2729450368
I0601 10:22:18.751469 12623 layer_factory.hpp:77] Creating layer perm_scale2
I0601 10:22:18.751477 12623 net.cpp:84] Creating Layer perm_scale2
I0601 10:22:18.751480 12623 net.cpp:406] perm_scale2 <- conv2_relu2_0_split_1
I0601 10:22:18.751485 12623 net.cpp:380] perm_scale2 -> scale2_permute
I0601 10:22:18.751570 12623 net.cpp:122] Setting up perm_scale2
I0601 10:22:18.751576 12623 net.cpp:129] Top shape: 32 2048 64 1 (4194304)
I0601 10:22:18.751579 12623 net.cpp:137] Memory required for data: 2746227584
I0601 10:22:18.751581 12623 layer_factory.hpp:77] Creating layer reshape_scale2
I0601 10:22:18.751586 12623 net.cpp:84] Creating Layer reshape_scale2
I0601 10:22:18.751590 12623 net.cpp:406] reshape_scale2 <- scale2_permute
I0601 10:22:18.751593 12623 net.cpp:380] reshape_scale2 -> scale2_reshape
I0601 10:22:18.751611 12623 net.cpp:122] Setting up reshape_scale2
I0601 10:22:18.751616 12623 net.cpp:129] Top shape: 32 2048 64 (4194304)
I0601 10:22:18.751619 12623 net.cpp:137] Memory required for data: 2763004800
I0601 10:22:18.751621 12623 layer_factory.hpp:77] Creating layer matmul_feat
I0601 10:22:18.751627 12623 net.cpp:84] Creating Layer matmul_feat
I0601 10:22:18.751631 12623 net.cpp:406] matmul_feat <- scale2_reshape
I0601 10:22:18.751634 12623 net.cpp:406] matmul_feat <- transform2_eltwise_sum_tnet2_0_split_0
I0601 10:22:18.751638 12623 net.cpp:380] matmul_feat -> scale2_transform2
I0601 10:22:18.751654 12623 net.cpp:122] Setting up matmul_feat
I0601 10:22:18.751659 12623 net.cpp:129] Top shape: 32 2048 64 (4194304)
I0601 10:22:18.751662 12623 net.cpp:137] Memory required for data: 2779782016
I0601 10:22:18.751663 12623 layer_factory.hpp:77] Creating layer perm_scale2_transform2
I0601 10:22:18.751667 12623 net.cpp:84] Creating Layer perm_scale2_transform2
I0601 10:22:18.751670 12623 net.cpp:406] perm_scale2_transform2 <- scale2_transform2
I0601 10:22:18.751675 12623 net.cpp:380] perm_scale2_transform2 -> scale2_permute_transform2
I0601 10:22:18.751744 12623 net.cpp:122] Setting up perm_scale2_transform2
I0601 10:22:18.751749 12623 net.cpp:129] Top shape: 32 64 2048 (4194304)
I0601 10:22:18.751752 12623 net.cpp:137] Memory required for data: 2796559232
I0601 10:22:18.751755 12623 layer_factory.hpp:77] Creating layer reshape_scale2_transform2
I0601 10:22:18.751760 12623 net.cpp:84] Creating Layer reshape_scale2_transform2
I0601 10:22:18.751762 12623 net.cpp:406] reshape_scale2_transform2 <- scale2_permute_transform2
I0601 10:22:18.751766 12623 net.cpp:380] reshape_scale2_transform2 -> scale2_transform2_reshape
I0601 10:22:18.751783 12623 net.cpp:122] Setting up reshape_scale2_transform2
I0601 10:22:18.751790 12623 net.cpp:129] Top shape: 32 64 2048 1 (4194304)
I0601 10:22:18.751791 12623 net.cpp:137] Memory required for data: 2813336448
I0601 10:22:18.751793 12623 layer_factory.hpp:77] Creating layer conv3
I0601 10:22:18.751801 12623 net.cpp:84] Creating Layer conv3
I0601 10:22:18.751806 12623 net.cpp:406] conv3 <- scale2_transform2_reshape
I0601 10:22:18.751809 12623 net.cpp:380] conv3 -> conv3
I0601 10:22:18.752885 12623 net.cpp:122] Setting up conv3
I0601 10:22:18.752900 12623 net.cpp:129] Top shape: 32 64 2048 1 (4194304)
I0601 10:22:18.752903 12623 net.cpp:137] Memory required for data: 2830113664
I0601 10:22:18.752921 12623 layer_factory.hpp:77] Creating layer bn3
I0601 10:22:18.752929 12623 net.cpp:84] Creating Layer bn3
I0601 10:22:18.752933 12623 net.cpp:406] bn3 <- conv3
I0601 10:22:18.752938 12623 net.cpp:367] bn3 -> conv3 (in-place)
I0601 10:22:18.753098 12623 net.cpp:122] Setting up bn3
I0601 10:22:18.753104 12623 net.cpp:129] Top shape: 32 64 2048 1 (4194304)
I0601 10:22:18.753108 12623 net.cpp:137] Memory required for data: 2846890880
I0601 10:22:18.753114 12623 layer_factory.hpp:77] Creating layer scale3
I0601 10:22:18.753118 12623 net.cpp:84] Creating Layer scale3
I0601 10:22:18.753123 12623 net.cpp:406] scale3 <- conv3
I0601 10:22:18.753126 12623 net.cpp:367] scale3 -> conv3 (in-place)
I0601 10:22:18.753160 12623 layer_factory.hpp:77] Creating layer scale3
I0601 10:22:18.753250 12623 net.cpp:122] Setting up scale3
I0601 10:22:18.753257 12623 net.cpp:129] Top shape: 32 64 2048 1 (4194304)
I0601 10:22:18.753258 12623 net.cpp:137] Memory required for data: 2863668096
I0601 10:22:18.753264 12623 layer_factory.hpp:77] Creating layer relu3
I0601 10:22:18.753268 12623 net.cpp:84] Creating Layer relu3
I0601 10:22:18.753273 12623 net.cpp:406] relu3 <- conv3
I0601 10:22:18.753278 12623 net.cpp:367] relu3 -> conv3 (in-place)
I0601 10:22:18.753585 12623 net.cpp:122] Setting up relu3
I0601 10:22:18.753597 12623 net.cpp:129] Top shape: 32 64 2048 1 (4194304)
I0601 10:22:18.753599 12623 net.cpp:137] Memory required for data: 2880445312
I0601 10:22:18.753602 12623 layer_factory.hpp:77] Creating layer conv4
I0601 10:22:18.753612 12623 net.cpp:84] Creating Layer conv4
I0601 10:22:18.753615 12623 net.cpp:406] conv4 <- conv3
I0601 10:22:18.753621 12623 net.cpp:380] conv4 -> conv4
I0601 10:22:18.754607 12623 net.cpp:122] Setting up conv4
I0601 10:22:18.754618 12623 net.cpp:129] Top shape: 32 128 2048 1 (8388608)
I0601 10:22:18.754621 12623 net.cpp:137] Memory required for data: 2913999744
I0601 10:22:18.754627 12623 layer_factory.hpp:77] Creating layer bn4
I0601 10:22:18.754633 12623 net.cpp:84] Creating Layer bn4
I0601 10:22:18.754637 12623 net.cpp:406] bn4 <- conv4
I0601 10:22:18.754642 12623 net.cpp:367] bn4 -> conv4 (in-place)
I0601 10:22:18.754794 12623 net.cpp:122] Setting up bn4
I0601 10:22:18.754801 12623 net.cpp:129] Top shape: 32 128 2048 1 (8388608)
I0601 10:22:18.754802 12623 net.cpp:137] Memory required for data: 2947554176
I0601 10:22:18.754808 12623 layer_factory.hpp:77] Creating layer scale4
I0601 10:22:18.754813 12623 net.cpp:84] Creating Layer scale4
I0601 10:22:18.754817 12623 net.cpp:406] scale4 <- conv4
I0601 10:22:18.754819 12623 net.cpp:367] scale4 -> conv4 (in-place)
I0601 10:22:18.754851 12623 layer_factory.hpp:77] Creating layer scale4
I0601 10:22:18.754935 12623 net.cpp:122] Setting up scale4
I0601 10:22:18.754942 12623 net.cpp:129] Top shape: 32 128 2048 1 (8388608)
I0601 10:22:18.754945 12623 net.cpp:137] Memory required for data: 2981108608
I0601 10:22:18.754951 12623 layer_factory.hpp:77] Creating layer relu4
I0601 10:22:18.754954 12623 net.cpp:84] Creating Layer relu4
I0601 10:22:18.754957 12623 net.cpp:406] relu4 <- conv4
I0601 10:22:18.754961 12623 net.cpp:367] relu4 -> conv4 (in-place)
I0601 10:22:18.755120 12623 net.cpp:122] Setting up relu4
I0601 10:22:18.755128 12623 net.cpp:129] Top shape: 32 128 2048 1 (8388608)
I0601 10:22:18.755131 12623 net.cpp:137] Memory required for data: 3014663040
I0601 10:22:18.755134 12623 layer_factory.hpp:77] Creating layer conv5
I0601 10:22:18.755142 12623 net.cpp:84] Creating Layer conv5
I0601 10:22:18.755146 12623 net.cpp:406] conv5 <- conv4
I0601 10:22:18.755151 12623 net.cpp:380] conv5 -> conv5
I0601 10:22:18.756656 12623 net.cpp:122] Setting up conv5
I0601 10:22:18.756669 12623 net.cpp:129] Top shape: 32 1024 2048 1 (67108864)
I0601 10:22:18.756672 12623 net.cpp:137] Memory required for data: 3283098496
I0601 10:22:18.756677 12623 layer_factory.hpp:77] Creating layer bn5
I0601 10:22:18.756685 12623 net.cpp:84] Creating Layer bn5
I0601 10:22:18.756688 12623 net.cpp:406] bn5 <- conv5
I0601 10:22:18.756705 12623 net.cpp:367] bn5 -> conv5 (in-place)
I0601 10:22:18.756867 12623 net.cpp:122] Setting up bn5
I0601 10:22:18.756875 12623 net.cpp:129] Top shape: 32 1024 2048 1 (67108864)
I0601 10:22:18.756878 12623 net.cpp:137] Memory required for data: 3551533952
I0601 10:22:18.756884 12623 layer_factory.hpp:77] Creating layer scale5
I0601 10:22:18.756891 12623 net.cpp:84] Creating Layer scale5
I0601 10:22:18.756893 12623 net.cpp:406] scale5 <- conv5
I0601 10:22:18.756896 12623 net.cpp:367] scale5 -> conv5 (in-place)
I0601 10:22:18.756927 12623 layer_factory.hpp:77] Creating layer scale5
I0601 10:22:18.757015 12623 net.cpp:122] Setting up scale5
I0601 10:22:18.757020 12623 net.cpp:129] Top shape: 32 1024 2048 1 (67108864)
I0601 10:22:18.757024 12623 net.cpp:137] Memory required for data: 3819969408
I0601 10:22:18.757028 12623 layer_factory.hpp:77] Creating layer relu5
I0601 10:22:18.757033 12623 net.cpp:84] Creating Layer relu5
I0601 10:22:18.757036 12623 net.cpp:406] relu5 <- conv5
I0601 10:22:18.757040 12623 net.cpp:367] relu5 -> conv5 (in-place)
I0601 10:22:18.757336 12623 net.cpp:122] Setting up relu5
I0601 10:22:18.757347 12623 net.cpp:129] Top shape: 32 1024 2048 1 (67108864)
I0601 10:22:18.757350 12623 net.cpp:137] Memory required for data: 4088404864
I0601 10:22:18.757352 12623 layer_factory.hpp:77] Creating layer pool
I0601 10:22:18.757359 12623 net.cpp:84] Creating Layer pool
I0601 10:22:18.757361 12623 net.cpp:406] pool <- conv5
I0601 10:22:18.757366 12623 net.cpp:380] pool -> global_feat
I0601 10:22:18.757405 12623 net.cpp:122] Setting up pool
I0601 10:22:18.757411 12623 net.cpp:129] Top shape: 32 1024 1 1 (32768)
I0601 10:22:18.757413 12623 net.cpp:137] Memory required for data: 4088535936
I0601 10:22:18.757416 12623 layer_factory.hpp:77] Creating layer fc1
I0601 10:22:18.757423 12623 net.cpp:84] Creating Layer fc1
I0601 10:22:18.757426 12623 net.cpp:406] fc1 <- global_feat
I0601 10:22:18.757431 12623 net.cpp:380] fc1 -> fc1
I0601 10:22:18.770027 12623 net.cpp:122] Setting up fc1
I0601 10:22:18.770052 12623 net.cpp:129] Top shape: 32 512 (16384)
I0601 10:22:18.770056 12623 net.cpp:137] Memory required for data: 4088601472
I0601 10:22:18.770066 12623 layer_factory.hpp:77] Creating layer bn6
I0601 10:22:18.770077 12623 net.cpp:84] Creating Layer bn6
I0601 10:22:18.770082 12623 net.cpp:406] bn6 <- fc1
I0601 10:22:18.770089 12623 net.cpp:367] bn6 -> fc1 (in-place)
I0601 10:22:18.770265 12623 net.cpp:122] Setting up bn6
I0601 10:22:18.770273 12623 net.cpp:129] Top shape: 32 512 (16384)
I0601 10:22:18.770277 12623 net.cpp:137] Memory required for data: 4088667008
I0601 10:22:18.770283 12623 layer_factory.hpp:77] Creating layer scale6
I0601 10:22:18.770290 12623 net.cpp:84] Creating Layer scale6
I0601 10:22:18.770293 12623 net.cpp:406] scale6 <- fc1
I0601 10:22:18.770298 12623 net.cpp:367] scale6 -> fc1 (in-place)
I0601 10:22:18.770332 12623 layer_factory.hpp:77] Creating layer scale6
I0601 10:22:18.770424 12623 net.cpp:122] Setting up scale6
I0601 10:22:18.770429 12623 net.cpp:129] Top shape: 32 512 (16384)
I0601 10:22:18.770432 12623 net.cpp:137] Memory required for data: 4088732544
I0601 10:22:18.770437 12623 layer_factory.hpp:77] Creating layer relu6
I0601 10:22:18.770442 12623 net.cpp:84] Creating Layer relu6
I0601 10:22:18.770444 12623 net.cpp:406] relu6 <- fc1
I0601 10:22:18.770448 12623 net.cpp:367] relu6 -> fc1 (in-place)
I0601 10:22:18.770891 12623 net.cpp:122] Setting up relu6
I0601 10:22:18.770903 12623 net.cpp:129] Top shape: 32 512 (16384)
I0601 10:22:18.770906 12623 net.cpp:137] Memory required for data: 4088798080
I0601 10:22:18.770910 12623 layer_factory.hpp:77] Creating layer fc2
I0601 10:22:18.770917 12623 net.cpp:84] Creating Layer fc2
I0601 10:22:18.770921 12623 net.cpp:406] fc2 <- fc1
I0601 10:22:18.770926 12623 net.cpp:380] fc2 -> fc2
I0601 10:22:18.774255 12623 net.cpp:122] Setting up fc2
I0601 10:22:18.774266 12623 net.cpp:129] Top shape: 32 256 (8192)
I0601 10:22:18.774269 12623 net.cpp:137] Memory required for data: 4088830848
I0601 10:22:18.774276 12623 layer_factory.hpp:77] Creating layer bn7
I0601 10:22:18.774294 12623 net.cpp:84] Creating Layer bn7
I0601 10:22:18.774298 12623 net.cpp:406] bn7 <- fc2
I0601 10:22:18.774304 12623 net.cpp:367] bn7 -> fc2 (in-place)
I0601 10:22:18.774453 12623 net.cpp:122] Setting up bn7
I0601 10:22:18.774461 12623 net.cpp:129] Top shape: 32 256 (8192)
I0601 10:22:18.774463 12623 net.cpp:137] Memory required for data: 4088863616
I0601 10:22:18.774471 12623 layer_factory.hpp:77] Creating layer scale7
I0601 10:22:18.774477 12623 net.cpp:84] Creating Layer scale7
I0601 10:22:18.774479 12623 net.cpp:406] scale7 <- fc2
I0601 10:22:18.774483 12623 net.cpp:367] scale7 -> fc2 (in-place)
I0601 10:22:18.774515 12623 layer_factory.hpp:77] Creating layer scale7
I0601 10:22:18.774600 12623 net.cpp:122] Setting up scale7
I0601 10:22:18.774605 12623 net.cpp:129] Top shape: 32 256 (8192)
I0601 10:22:18.774607 12623 net.cpp:137] Memory required for data: 4088896384
I0601 10:22:18.774612 12623 layer_factory.hpp:77] Creating layer relu7
I0601 10:22:18.774617 12623 net.cpp:84] Creating Layer relu7
I0601 10:22:18.774621 12623 net.cpp:406] relu7 <- fc2
I0601 10:22:18.774624 12623 net.cpp:367] relu7 -> fc2 (in-place)
I0601 10:22:18.774801 12623 net.cpp:122] Setting up relu7
I0601 10:22:18.774808 12623 net.cpp:129] Top shape: 32 256 (8192)
I0601 10:22:18.774811 12623 net.cpp:137] Memory required for data: 4088929152
I0601 10:22:18.774813 12623 layer_factory.hpp:77] Creating layer drop1
I0601 10:22:18.774822 12623 net.cpp:84] Creating Layer drop1
I0601 10:22:18.774826 12623 net.cpp:406] drop1 <- fc2
I0601 10:22:18.774830 12623 net.cpp:380] drop1 -> drop1
I0601 10:22:18.774868 12623 net.cpp:122] Setting up drop1
I0601 10:22:18.774873 12623 net.cpp:129] Top shape: 32 256 (8192)
I0601 10:22:18.774875 12623 net.cpp:137] Memory required for data: 4088961920
I0601 10:22:18.774878 12623 layer_factory.hpp:77] Creating layer fc3
I0601 10:22:18.774883 12623 net.cpp:84] Creating Layer fc3
I0601 10:22:18.774888 12623 net.cpp:406] fc3 <- drop1
I0601 10:22:18.774891 12623 net.cpp:380] fc3 -> fc3
I0601 10:22:18.775209 12623 net.cpp:122] Setting up fc3
I0601 10:22:18.775215 12623 net.cpp:129] Top shape: 32 40 (1280)
I0601 10:22:18.775218 12623 net.cpp:137] Memory required for data: 4088967040
I0601 10:22:18.775223 12623 layer_factory.hpp:77] Creating layer loss
I0601 10:22:18.775229 12623 net.cpp:84] Creating Layer loss
I0601 10:22:18.775233 12623 net.cpp:406] loss <- fc3
I0601 10:22:18.775236 12623 net.cpp:406] loss <- label
I0601 10:22:18.775240 12623 net.cpp:380] loss -> loss
I0601 10:22:18.775249 12623 layer_factory.hpp:77] Creating layer loss
I0601 10:22:18.775668 12623 net.cpp:122] Setting up loss
I0601 10:22:18.775679 12623 net.cpp:129] Top shape: (1)
I0601 10:22:18.775683 12623 net.cpp:132]     with loss weight 1
I0601 10:22:18.775701 12623 net.cpp:137] Memory required for data: 4088967044
I0601 10:22:18.775703 12623 layer_factory.hpp:77] Creating layer perm_loss_transform2
I0601 10:22:18.775709 12623 net.cpp:84] Creating Layer perm_loss_transform2
I0601 10:22:18.775713 12623 net.cpp:406] perm_loss_transform2 <- transform2_eltwise_sum_tnet2_0_split_1
I0601 10:22:18.775719 12623 net.cpp:380] perm_loss_transform2 -> transform2_transpose
I0601 10:22:18.775811 12623 net.cpp:122] Setting up perm_loss_transform2
I0601 10:22:18.775818 12623 net.cpp:129] Top shape: 32 64 64 (131072)
I0601 10:22:18.775821 12623 net.cpp:137] Memory required for data: 4089491332
I0601 10:22:18.775825 12623 layer_factory.hpp:77] Creating layer matmul_feat_loss
I0601 10:22:18.775828 12623 net.cpp:84] Creating Layer matmul_feat_loss
I0601 10:22:18.775831 12623 net.cpp:406] matmul_feat_loss <- transform2_eltwise_sum_tnet2_0_split_2
I0601 10:22:18.775835 12623 net.cpp:406] matmul_feat_loss <- transform2_transpose
I0601 10:22:18.775838 12623 net.cpp:380] matmul_feat_loss -> transform2_mul
I0601 10:22:18.775858 12623 net.cpp:122] Setting up matmul_feat_loss
I0601 10:22:18.775863 12623 net.cpp:129] Top shape: 32 64 64 (131072)
I0601 10:22:18.775866 12623 net.cpp:137] Memory required for data: 4090015620
I0601 10:22:18.775867 12623 layer_factory.hpp:77] Creating layer loss_feat
I0601 10:22:18.775885 12623 net.cpp:84] Creating Layer loss_feat
I0601 10:22:18.775890 12623 net.cpp:406] loss_feat <- transform2_mul
I0601 10:22:18.775893 12623 net.cpp:406] loss_feat <- eye_tnet2_eye_tnet2_0_split_1
I0601 10:22:18.775897 12623 net.cpp:380] loss_feat -> loss_feat
…
I0601 10:22:18.777721 12623 solver.cpp:190] Creating test net (#0) specified by net file: models/pointnet_cls.prototxt
I0601 10:22:18.777804 12623 net.cpp:294] The NetState phase (1) differed from the phase (0) specified by a rule in layer data
I0601 10:22:18.778107 12623 net.cpp:51] Initializing net from parameters: 
name: "pointnet_cls_basic"
state {
  phase: TEST
}
layer {
  name: "data"
  type: "HDF5Data"
  top: "data"
  top: "label"
  include {
    phase: TEST
  }
  hdf5_data_param {
    source: "data/modelnet40_ply_hdf5_2048/test_files.txt"
    batch_size: 32
  }
}
layer {
  name: "reshape"
  type: "Reshape"
  bottom: "data"
  top: "data_reshape"
  reshape_param {
    shape {
      dim: 0
      dim: 1
      dim: -1
      dim: 3
    }
  }
}
layer {
  name: "conv1_tnet1"
  type: "Convolution"
  bottom: "data_reshape"
  top: "conv1_tnet1"
  param {
    lr_mult: 1
  }
  param {
    lr_mult: 2
  }
  convolution_param {
    num_output: 64
    pad: 0
    stride: 1
    weight_filler {
      type: "xavier"
    }
    bias_filler {
      type: "constant"
      value: 0
    }
    kernel_h: 1
    kernel_w: 3
  }
}
layer {
  name: "bn1_tnet1"
  type: "BatchNorm"
  bottom: "conv1_tnet1"
  top: "conv1_tnet1"
}
layer {
  name: "scale1_tnet1"
  type: "Scale"
  bottom: "conv1_tnet1"
  top: "conv1_tnet1"
  scale_param {
    bias_term: true
  }
}
layer {
  name: "relu1_tnet1"
  type: "ReLU"
  bottom: "conv1_tnet1"
  top: "conv1_tnet1"
}
layer {
  name: "conv2_tnet1"
  type: "Convolution"
  bottom: "conv1_tnet1"
  top: "conv2_tnet1"
  param {
    lr_mult: 1
  }
  param {
    lr_mult: 2
  }
  convolution_param {
    num_output: 128
    pad: 0
    stride: 1
    weight_filler {
      type: "xavier"
    }
    bias_filler {
      type: "constant"
      value: 0
    }
    kernel_h: 1
    kernel_w: 1
  }
}
layer {
  name: "bn2_tnet1"
  type: "BatchNorm"
  bottom: "conv2_tnet1"
  top: "conv2_tnet1"
}
layer {
  name: "scale2_tnet1"
  type: "Scale"
  bottom: "conv2_tnet1"
  top: "conv2_tnet1"
  scale_param {
    bias_term: true
  }
}
layer {
  name: "relu2_tnet1"
  type: "ReLU"
  bottom: "conv2_tnet1"
  top: "conv2_tnet1"
}
layer {
  name: "conv3_tnet1"
  type: "Convolution"
  bottom: "conv2_tnet1"
  top: "conv3_tnet1"
  param {
    lr_mult: 1
  }
  param {
    lr_mult: 2
  }
  convolution_param {
    num_output: 1024
    pad: 0
    stride: 1
    weight_filler {
      type: "xavier"
    }
    bias_filler {
      type: "constant"
      value: 0
    }
    kernel_h: 1
    kernel_w: 1
  }
}
layer {
  name: "bn3_tnet1"
  type: "BatchNorm"
  bottom: "conv3_tnet1"
  top: "conv3_tnet1"
}
layer {
  name: "scale3_tnet1"
  type: "Scale"
  bottom: "conv3_tnet1"
  top: "conv3_tnet1"
  scale_param {
    bias_term: true
  }
}
layer {
  name: "relu3_tnet1"
  type: "ReLU"
  bottom: "conv3_tnet1"
  top: "conv3_tnet1"
}
layer {
  name: "pool_tnet1"
  type: "Pooling"
  bottom: "conv3_tnet1"
  top: "global_feat_tnet1"
  pooling_param {
    pool: MAX
    stride: 1
    pad: 0
    kernel_h: 2048
    kernel_w: 1
  }
}
layer {
  name: "fc1_tnet1"
  type: "InnerProduct"
  bottom: "global_feat_tnet1"
  top: "fc1_tnet1"
  param {
    lr_mult: 1
    decay_mult: 1
  }
  param {
    lr_mult: 1
    decay_mult: 1
  }
  inner_product_param {
    num_output: 512
    weight_filler {
      type: "gaussian"
      std: 0.001
    }
    bias_filler {
      type: "constant"
      value: 0
    }
  }
}
layer {
  name: "bn6_tnet1"
  type: "BatchNorm"
  bottom: "fc1_tnet1"
  top: "fc1_tnet1"
}
layer {
  name: "scale6_tnet1"
  type: "Scale"
  bottom: "fc1_tnet1"
  top: "fc1_tnet1"
  scale_param {
    bias_term: true
  }
}
layer {
  name: "relu6_tnet1"
  type: "ReLU"
  bottom: "fc1_tnet1"
  top: "fc1_tnet1"
}
layer {
  name: "fc2_tnet1"
  type: "InnerProduct"
  bottom: "fc1_tnet1"
  top: "fc2_tnet1"
  param {
    lr_mult: 1
    decay_mult: 1
  }
  param {
    lr_mult: 1
    decay_mult: 1
  }
  inner_product_param {
    num_output: 256
    weight_filler {
      type: "gaussian"
      std: 0.001
    }
    bias_filler {
      type: "constant"
      value: 0
    }
  }
}
layer {
  name: "bn7_tnet1"
  type: "BatchNorm"
  bottom: "fc2_tnet1"
  top: "fc2_tnet1"
}
layer {
  name: "scale7_tnet1"
  type: "Scale"
  bottom: "fc2_tnet1"
  top: "fc2_tnet1"
  scale_param {
    bias_term: true
  }
}
layer {
  name: "relu7_tnet1"
  type: "ReLU"
  bottom: "fc2_tnet1"
  top: "fc2_tnet1"
}
layer {
  name: "fc3_tnet1"
  type: "InnerProduct"
  bottom: "fc2_tnet1"
  top: "fc3_tnet1"
  param {
    lr_mult: 1
    decay_mult: 1
  }
  param {
    lr_mult: 1
    decay_mult: 1
  }
  inner_product_param {
    num_output: 9
    weight_filler {
      type: "constant"
      value: 0
    }
    bias_filler {
      type: "constant"
      value: 0
    }
  }
}
layer {
  name: "reshape_tnet1"
  type: "Reshape"
  bottom: "fc3_tnet1"
  top: "fc3_tnet1_reshape"
  reshape_param {
    shape {
      dim: -1
      dim: 3
      dim: 3
    }
  }
}
layer {
  name: "eye_tnet1"
  type: "Python"
  bottom: "fc3_tnet1"
  top: "eye_tnet1"
  python_param {
    module: "eye_matrix_layer"
    layer: "EyeMatrixLayer"
    param_str: "{\'K\': 3}"
  }
}
layer {
  name: "eltwise_sum_tnet1"
  type: "Eltwise"
  bottom: "fc3_tnet1_reshape"
  bottom: "eye_tnet1"
  top: "transform1"
  eltwise_param {
    operation: SUM
  }
}
layer {
  name: "matmul_input"
  type: "MatrixMultiplication"
  bottom: "data"
  bottom: "transform1"
  top: "data_transform1"
}
layer {
  name: "reshape_input_data"
  type: "Reshape"
  bottom: "data_transform1"
  top: "data_transform1_reshape"
  reshape_param {
    shape {
      dim: 0
      dim: 1
      dim: -1
      dim: 3
    }
  }
}
layer {
  name: "conv1"
  type: "Convolution"
  bottom: "data_transform1_reshape"
  top: "conv1"
  param {
    lr_mult: 1
  }
  param {
    lr_mult: 2
  }
  convolution_param {
    num_output: 64
    pad: 0
    stride: 1
    weight_filler {
      type: "xavier"
    }
    bias_filler {
      type: "constant"
      value: 0
    }
    kernel_h: 1
    kernel_w: 3
  }
}
layer {
  name: "bn1"
  type: "BatchNorm"
  bottom: "conv1"
  top: "conv1"
}
layer {
  name: "scale1"
  type: "Scale"
  bottom: "conv1"
  top: "conv1"
  scale_param {
    bias_term: true
  }
}
layer {
  name: "relu1"
  type: "ReLU"
  bottom: "conv1"
  top: "conv1"
}
layer {
  name: "conv2"
  type: "Convolution"
  bottom: "conv1"
  top: "conv2"
  param {
    lr_mult: 1
  }
  param {
    lr_mult: 2
  }
  convolution_param {
    num_output: 64
    pad: 0
    stride: 1
    weight_filler {
      type: "xavier"
    }
    bias_filler {
      type: "constant"
      value: 0
    }
    kernel_h: 1
    kernel_w: 1
  }
}
layer {
  name: "bn2"
  type: "BatchNorm"
  bottom: "conv2"
  top: "conv2"
}
layer {
  name: "scale2"
  type: "Scale"
  bottom: "conv2"
  top: "conv2"
  scale_param {
    bias_term: true
  }
}
layer {
  name: "relu2"
  type: "ReLU"
  bottom: "conv2"
  top: "conv2"
}
layer {
  name: "conv1_tnet2"
  type: "Convolution"
  bottom: "conv2"
  top: "conv1_tnet2"
  param {
    lr_mult: 1
  }
  param {
    lr_mult: 2
  }
  convolution_param {
    num_output: 64
    pad: 0
    stride: 1
    weight_filler {
      type: "xavier"
    }
    bias_filler {
      type: "constant"
      value: 0
    }
    kernel_h: 1
    kernel_w: 1
  }
}
layer {
  name: "bn1_tnet2"
  type: "BatchNorm"
  bottom: "conv1_tnet2"
  top: "conv1_tnet2"
}
layer {
  name: "scale1_tnet2"
  type: "Scale"
  bottom: "conv1_tnet2"
  top: "conv1_tnet2"
  scale_param {
    bias_term: true
  }
}
layer {
  name: "relu1_tnet2"
  type: "ReLU"
  bottom: "conv1_tnet2"
  top: "conv1_tnet2"
}
layer {
  name: "conv2_tnet2"
  type: "Convolution"
  bottom: "conv1_tnet2"
  top: "conv2_tnet2"
  param {
    lr_mult: 1
  }
  param {
    lr_mult: 2
  }
  convolution_param {
    num_output: 128
    pad: 0
    stride: 1
    weight_filler {
      type: "xavier"
    }
    bias_filler {
      type: "constant"
      value: 0
    }
    kernel_h: 1
    kernel_w: 1
  }
}
layer {
  name: "bn2_tnet2"
  type: "BatchNorm"
  bottom: "conv2_tnet2"
  top: "conv2_tnet2"
}
layer {
  name: "scale2_tnet2"
  type: "Scale"
  bottom: "conv2_tnet2"
  top: "conv2_tnet2"
  scale_param {
    bias_term: true
  }
}
layer {
  name: "relu2_tnet2"
  type: "ReLU"
  bottom: "conv2_tnet2"
  top: "conv2_tnet2"
}
layer {
  name: "conv3_tnet2"
  type: "Convolution"
  bottom: "conv2_tnet2"
  top: "conv3_tnet2"
  param {
    lr_mult: 1
  }
  param {
    lr_mult: 2
  }
  convolution_param {
    num_output: 1024
    pad: 0
    stride: 1
    weight_filler {
      type: "xavier"
    }
    bias_filler {
      type: "constant"
      value: 0
    }
    kernel_h: 1
    kernel_w: 1
  }
}
layer {
  name: "bn3_tnet2"
  type: "BatchNorm"
  bottom: "conv3_tnet2"
  top: "conv3_tnet2"
}
layer {
  name: "scale3_tnet2"
  type: "Scale"
  bottom: "conv3_tnet2"
  top: "conv3_tnet2"
  scale_param {
    bias_term: true
  }
}
layer {
  name: "relu3_tnet2"
  type: "ReLU"
  bottom: "conv3_tnet2"
  top: "conv3_tnet2"
}
layer {
  name: "pool_tnet2"
  type: "Pooling"
  bottom: "conv3_tnet2"
  top: "global_feat_tnet2"
  pooling_param {
    pool: MAX
    stride: 1
    pad: 0
    kernel_h: 2048
    kernel_w: 1
  }
}
layer {
  name: "fc1_tnet2"
  type: "InnerProduct"
  bottom: "global_feat_tnet2"
  top: "fc1_tnet2"
  param {
    lr_mult: 1
    decay_mult: 1
  }
  param {
    lr_mult: 1
    decay_mult: 1
  }
  inner_product_param {
    num_output: 512
    weight_filler {
      type: "gaussian"
      std: 0.001
    }
    bias_filler {
      type: "constant"
      value: 0
    }
  }
}
layer {
  name: "bn6_tnet2"
  type: "BatchNorm"
  bottom: "fc1_tnet2"
  top: "fc1_tnet2"
}
layer {
  name: "scale6_tnet2"
  type: "Scale"
  bottom: "fc1_tnet2"
  top: "fc1_tnet2"
  scale_param {
    bias_term: true
  }
}
layer {
  name: "relu6_tnet2"
  type: "ReLU"
  bottom: "fc1_tnet2"
  top: "fc1_tnet2"
}
layer {
  name: "fc2_tnet2"
  type: "InnerProduct"
  bottom: "fc1_tnet2"
  top: "fc2_tnet2"
  param {
    lr_mult: 1
    decay_mult: 1
  }
  param {
    lr_mult: 1
    decay_mult: 1
  }
  inner_product_param {
    num_output: 256
    weight_filler {
      type: "gaussian"
      std: 0.001
    }
    bias_filler {
      type: "constant"
      value: 0
    }
  }
}
layer {
  name: "bn7_tnet2"
  type: "BatchNorm"
  bottom: "fc2_tnet2"
  top: "fc2_tnet2"
}
layer {
  name: "scale7_tnet2"
  type: "Scale"
  bottom: "fc2_tnet2"
  top: "fc2_tnet2"
  scale_param {
    bias_term: true
  }
}
layer {
  name: "relu7_tnet2"
  type: "ReLU"
  bottom: "fc2_tnet2"
  top: "fc2_tnet2"
}
layer {
  name: "fc3_tnet2"
  type: "InnerProduct"
  bottom: "fc2_tnet2"
  top: "fc3_tnet2"
  param {
    lr_mult: 1
    decay_mult: 1
  }
  param {
    lr_mult: 1
    decay_mult: 1
  }
  inner_product_param {
    num_output: 4096
    weight_filler {
      type: "constant"
      value: 0
    }
    bias_filler {
      type: "constant"
      value: 0
    }
  }
}
layer {
  name: "reshape_tnet2"
  type: "Reshape"
  bottom: "fc3_tnet2"
  top: "fc3_tnet2_reshape"
  reshape_param {
    shape {
      dim: -1
      dim: 64
      dim: 64
    }
  }
}
layer {
  name: "eye_tnet2"
  type: "Python"
  bottom: "fc3_tnet2"
  top: "eye_tnet2"
  python_param {
    module: "eye_matrix_layer"
    layer: "EyeMatrixLayer"
    param_str: "{\'K\': 64}"
  }
}
layer {
  name: "eltwise_sum_tnet2"
  type: "Eltwise"
  bottom: "fc3_tnet2_reshape"
  bottom: "eye_tnet2"
  top: "transform2"
  eltwise_param {
    operation: SUM
  }
}
layer {
  name: "perm_scale2"
  type: "Permute"
  bottom: "conv2"
  top: "scale2_permute"
  permute_param {
    order: 0
    order: 2
    order: 1
    order: 3
  }
}
layer {
  name: "reshape_scale2"
  type: "Reshape"
  bottom: "scale2_permute"
  top: "scale2_reshape"
  reshape_param {
    shape {
      dim: 0
      dim: -1
      dim: 64
    }
  }
}
layer {
  name: "matmul_feat"
  type: "MatrixMultiplication"
  bottom: "scale2_reshape"
  bottom: "transform2"
  top: "scale2_transform2"
}
layer {
  name: "perm_scale2_transform2"
  type: "Permute"
  bottom: "scale2_transform2"
  top: "scale2_permute_transform2"
  permute_param {
    order: 0
    order: 2
    order: 1
  }
}
layer {
  name: "reshape_scale2_transform2"
  type: "Reshape"
  bottom: "scale2_permute_transform2"
  top: "scale2_transform2_reshape"
  reshape_param {
    shape {
      dim: 0
      dim: 0
      dim: 0
      dim: 1
    }
  }
}
layer {
  name: "conv3"
  type: "Convolution"
  bottom: "scale2_transform2_reshape"
  top: "conv3"
  param {
    lr_mult: 1
  }
  param {
    lr_mult: 2
  }
  convolution_param {
    num_output: 64
    pad: 0
    stride: 1
    weight_filler {
      type: "xavier"
    }
    bias_filler {
      type: "constant"
      value: 0
    }
    kernel_h: 1
    kernel_w: 1
  }
}
layer {
  name: "bn3"
  type: "BatchNorm"
  bottom: "conv3"
  top: "conv3"
}
layer {
  name: "scale3"
  type: "Scale"
  bottom: "conv3"
  top: "conv3"
  scale_param {
    bias_term: true
  }
}
layer {
  name: "relu3"
  type: "ReLU"
  bottom: "conv3"
  top: "conv3"
}
layer {
  name: "conv4"
  type: "Convolution"
  bottom: "conv3"
  top: "conv4"
  param {
    lr_mult: 1
  }
  param {
    lr_mult: 2
  }
  convolution_param {
    num_output: 128
    pad: 0
    stride: 1
    weight_filler {
      type: "xavier"
    }
    bias_filler {
      type: "constant"
      value: 0
    }
    kernel_h: 1
    kernel_w: 1
  }
}
layer {
  name: "bn4"
  type: "BatchNorm"
  bottom: "conv4"
  top: "conv4"
}
layer {
  name: "scale4"
  type: "Scale"
  bottom: "conv4"
  top: "conv4"
  scale_param {
    bias_term: true
  }
}
layer {
  name: "relu4"
  type: "ReLU"
  bottom: "conv4"
  top: "conv4"
}
layer {
  name: "conv5"
  type: "Convolution"
  bottom: "conv4"
  top: "conv5"
  param {
    lr_mult: 1
  }
  param {
    lr_mult: 2
  }
  convolution_param {
    num_output: 1024
    pad: 0
    stride: 1
    weight_filler {
      type: "xavier"
    }
    bias_filler {
      type: "constant"
      value: 0
    }
    kernel_h: 1
    kernel_w: 1
  }
}
layer {
  name: "bn5"
  type: "BatchNorm"
  bottom: "conv5"
  top: "conv5"
}
layer {
  name: "scale5"
  type: "Scale"
  bottom: "conv5"
  top: "conv5"
  scale_param {
    bias_term: true
  }
}
layer {
  name: "relu5"
  type: "ReLU"
  bottom: "conv5"
  top: "conv5"
}
layer {
  name: "pool"
  type: "Pooling"
  bottom: "conv5"
  top: "global_feat"
  pooling_param {
    pool: MAX
    stride: 1
    pad: 0
    kernel_h: 2048
    kernel_w: 1
  }
}
layer {
  name: "fc1"
  type: "InnerProduct"
  bottom: "global_feat"
  top: "fc1"
  param {
    lr_mult: 1
    decay_mult: 1
  }
  param {
    lr_mult: 1
    decay_mult: 1
  }
  inner_product_param {
    num_output: 512
    weight_filler {
      type: "gaussian"
      std: 0.001
    }
    bias_filler {
      type: "constant"
      value: 0
    }
  }
}
layer {
  name: "bn6"
  type: "BatchNorm"
  bottom: "fc1"
  top: "fc1"
}
layer {
  name: "scale6"
  type: "Scale"
  bottom: "fc1"
  top: "fc1"
  scale_param {
    bias_term: true
  }
}
layer {
  name: "relu6"
  type: "ReLU"
  bottom: "fc1"
  top: "fc1"
}
layer {
  name: "fc2"
  type: "InnerProduct"
  bottom: "fc1"
  top: "fc2"
  param {
    lr_mult: 1
    decay_mult: 1
  }
  param {
    lr_mult: 1
    decay_mult: 1
  }
  inner_product_param {
    num_output: 256
    weight_filler {
      type: "gaussian"
      std: 0.001
    }
    bias_filler {
      type: "constant"
      value: 0
    }
  }
}
layer {
  name: "bn7"
  type: "BatchNorm"
  bottom: "fc2"
  top: "fc2"
}
layer {
  name: "scale7"
  type: "Scale"
  bottom: "fc2"
  top: "fc2"
  scale_param {
    bias_term: true
  }
}
layer {
  name: "relu7"
  type: "ReLU"
  bottom: "fc2"
  top: "fc2"
}
layer {
  name: "drop1"
  type: "Dropout"
  bottom: "fc2"
  top: "drop1"
  dropout_param {
    dropout_ratio: 0.3
  }
}
layer {
  name: "fc3"
  type: "InnerProduct"
  bottom: "drop1"
  top: "fc3"
  param {
    lr_mult: 1
    decay_mult: 1
  }
  param {
    lr_mult: 1
    decay_mult: 1
  }
  inner_product_param {
    num_output: 40
    weight_filler {
      type: "gaussian"
      std: 0.001
    }
    bias_filler {
      type: "constant"
      value: 0
    }
  }
}
layer {
  name: "accuracy"
  type: "Accuracy"
  bottom: "fc3"
  bottom: "label"
  top: "accuracy"
  include {
    phase: TEST
  }
}
layer {
  name: "loss"
  type: "SoftmaxWithLoss"
  bottom: "fc3"
  bottom: "label"
  top: "loss"
}
layer {
  name: "perm_loss_transform2"
  type: "Permute"
  bottom: "transform2"
  top: "transform2_transpose"
  permute_param {
    order: 0
    order: 2
    order: 1
  }
}
layer {
  name: "matmul_feat_loss"
  type: "MatrixMultiplication"
  bottom: "transform2"
  bottom: "transform2_transpose"
  top: "transform2_mul"
}
layer {
  name: "loss_feat"
  type: "EuclideanLoss"
  bottom: "transform2_mul"
  bottom: "eye_tnet2"
  top: "loss_feat"
  loss_weight: 0.001
}
I0601 10:22:18.778364 12623 layer_factory.hpp:77] Creating layer data
I0601 10:22:18.778373 12623 net.cpp:84] Creating Layer data
I0601 10:22:18.778378 12623 net.cpp:380] data -> data
I0601 10:22:18.778383 12623 net.cpp:380] data -> label
I0601 10:22:18.778389 12623 hdf5_data_layer.cpp:80] Loading list of HDF5 filenames from: data/modelnet40_ply_hdf5_2048/test_files.txt
I0601 10:22:18.778406 12623 hdf5_data_layer.cpp:94] Number of HDF5 files: 2
I0601 10:22:19.118729 12623 net.cpp:122] Setting up data
I0601 10:22:19.118755 12623 net.cpp:129] Top shape: 32 2048 3 (196608)
I0601 10:22:19.118760 12623 net.cpp:129] Top shape: 32 1 (32)
I0601 10:22:19.118763 12623 net.cpp:137] Memory required for data: 786560
I0601 10:22:19.118768 12623 layer_factory.hpp:77] Creating layer data_data_0_split
I0601 10:22:19.118777 12623 net.cpp:84] Creating Layer data_data_0_split
I0601 10:22:19.118782 12623 net.cpp:406] data_data_0_split <- data
I0601 10:22:19.118786 12623 net.cpp:380] data_data_0_split -> data_data_0_split_0
I0601 10:22:19.118794 12623 net.cpp:380] data_data_0_split -> data_data_0_split_1
I0601 10:22:19.118825 12623 net.cpp:122] Setting up data_data_0_split
I0601 10:22:19.118831 12623 net.cpp:129] Top shape: 32 2048 3 (196608)
I0601 10:22:19.118834 12623 net.cpp:129] Top shape: 32 2048 3 (196608)
I0601 10:22:19.118837 12623 net.cpp:137] Memory required for data: 2359424
I0601 10:22:19.118839 12623 layer_factory.hpp:77] Creating layer label_data_1_split
I0601 10:22:19.118844 12623 net.cpp:84] Creating Layer label_data_1_split
I0601 10:22:19.118857 12623 net.cpp:406] label_data_1_split <- label
I0601 10:22:19.118861 12623 net.cpp:380] label_data_1_split -> label_data_1_split_0
I0601 10:22:19.118866 12623 net.cpp:380] label_data_1_split -> label_data_1_split_1
I0601 10:22:19.118892 12623 net.cpp:122] Setting up label_data_1_split
I0601 10:22:19.118898 12623 net.cpp:129] Top shape: 32 1 (32)
I0601 10:22:19.118901 12623 net.cpp:129] Top shape: 32 1 (32)
I0601 10:22:19.118903 12623 net.cpp:137] Memory required for data: 2359680
I0601 10:22:19.118906 12623 layer_factory.hpp:77] Creating layer reshape
I0601 10:22:19.118911 12623 net.cpp:84] Creating Layer reshape
I0601 10:22:19.118914 12623 net.cpp:406] reshape <- data_data_0_split_0
I0601 10:22:19.118918 12623 net.cpp:380] reshape -> data_reshape
I0601 10:22:19.118939 12623 net.cpp:122] Setting up reshape
I0601 10:22:19.118947 12623 net.cpp:129] Top shape: 32 1 2048 3 (196608)
I0601 10:22:19.118949 12623 net.cpp:137] Memory required for data: 3146112
I0601 10:22:19.118952 12623 layer_factory.hpp:77] Creating layer conv1_tnet1
I0601 10:22:19.118960 12623 net.cpp:84] Creating Layer conv1_tnet1
I0601 10:22:19.118966 12623 net.cpp:406] conv1_tnet1 <- data_reshape
I0601 10:22:19.118971 12623 net.cpp:380] conv1_tnet1 -> conv1_tnet1
I0601 10:22:19.120062 12623 net.cpp:122] Setting up conv1_tnet1
I0601 10:22:19.120075 12623 net.cpp:129] Top shape: 32 64 2048 1 (4194304)
I0601 10:22:19.120079 12623 net.cpp:137] Memory required for data: 19923328
I0601 10:22:19.120087 12623 layer_factory.hpp:77] Creating layer bn1_tnet1
I0601 10:22:19.120110 12623 net.cpp:84] Creating Layer bn1_tnet1
I0601 10:22:19.120115 12623 net.cpp:406] bn1_tnet1 <- conv1_tnet1
I0601 10:22:19.120118 12623 net.cpp:367] bn1_tnet1 -> conv1_tnet1 (in-place)
I0601 10:22:19.120276 12623 net.cpp:122] Setting up bn1_tnet1
I0601 10:22:19.120283 12623 net.cpp:129] Top shape: 32 64 2048 1 (4194304)
I0601 10:22:19.120286 12623 net.cpp:137] Memory required for data: 36700544
I0601 10:22:19.120295 12623 layer_factory.hpp:77] Creating layer scale1_tnet1
I0601 10:22:19.120299 12623 net.cpp:84] Creating Layer scale1_tnet1
I0601 10:22:19.120302 12623 net.cpp:406] scale1_tnet1 <- conv1_tnet1
I0601 10:22:19.120306 12623 net.cpp:367] scale1_tnet1 -> conv1_tnet1 (in-place)
I0601 10:22:19.120342 12623 layer_factory.hpp:77] Creating layer scale1_tnet1
I0601 10:22:19.120431 12623 net.cpp:122] Setting up scale1_tnet1
I0601 10:22:19.120437 12623 net.cpp:129] Top shape: 32 64 2048 1 (4194304)
I0601 10:22:19.120440 12623 net.cpp:137] Memory required for data: 53477760
I0601 10:22:19.120445 12623 layer_factory.hpp:77] Creating layer relu1_tnet1
I0601 10:22:19.120450 12623 net.cpp:84] Creating Layer relu1_tnet1
I0601 10:22:19.120453 12623 net.cpp:406] relu1_tnet1 <- conv1_tnet1
I0601 10:22:19.120456 12623 net.cpp:367] relu1_tnet1 -> conv1_tnet1 (in-place)
I0601 10:22:19.120612 12623 net.cpp:122] Setting up relu1_tnet1
I0601 10:22:19.120620 12623 net.cpp:129] Top shape: 32 64 2048 1 (4194304)
I0601 10:22:19.120623 12623 net.cpp:137] Memory required for data: 70254976
I0601 10:22:19.120626 12623 layer_factory.hpp:77] Creating layer conv2_tnet1
I0601 10:22:19.120635 12623 net.cpp:84] Creating Layer conv2_tnet1
I0601 10:22:19.120638 12623 net.cpp:406] conv2_tnet1 <- conv1_tnet1
I0601 10:22:19.120642 12623 net.cpp:380] conv2_tnet1 -> conv2_tnet1
I0601 10:22:19.121609 12623 net.cpp:122] Setting up conv2_tnet1
I0601 10:22:19.121621 12623 net.cpp:129] Top shape: 32 128 2048 1 (8388608)
I0601 10:22:19.121625 12623 net.cpp:137] Memory required for data: 103809408
I0601 10:22:19.121634 12623 layer_factory.hpp:77] Creating layer bn2_tnet1
I0601 10:22:19.121639 12623 net.cpp:84] Creating Layer bn2_tnet1
I0601 10:22:19.121642 12623 net.cpp:406] bn2_tnet1 <- conv2_tnet1
I0601 10:22:19.121646 12623 net.cpp:367] bn2_tnet1 -> conv2_tnet1 (in-place)
I0601 10:22:19.121798 12623 net.cpp:122] Setting up bn2_tnet1
I0601 10:22:19.121804 12623 net.cpp:129] Top shape: 32 128 2048 1 (8388608)
I0601 10:22:19.121807 12623 net.cpp:137] Memory required for data: 137363840
I0601 10:22:19.121812 12623 layer_factory.hpp:77] Creating layer scale2_tnet1
I0601 10:22:19.121817 12623 net.cpp:84] Creating Layer scale2_tnet1
I0601 10:22:19.121819 12623 net.cpp:406] scale2_tnet1 <- conv2_tnet1
I0601 10:22:19.121824 12623 net.cpp:367] scale2_tnet1 -> conv2_tnet1 (in-place)
I0601 10:22:19.121853 12623 layer_factory.hpp:77] Creating layer scale2_tnet1
I0601 10:22:19.121937 12623 net.cpp:122] Setting up scale2_tnet1
I0601 10:22:19.121942 12623 net.cpp:129] Top shape: 32 128 2048 1 (8388608)
I0601 10:22:19.121944 12623 net.cpp:137] Memory required for data: 170918272
I0601 10:22:19.121949 12623 layer_factory.hpp:77] Creating layer relu2_tnet1
I0601 10:22:19.121953 12623 net.cpp:84] Creating Layer relu2_tnet1
I0601 10:22:19.121955 12623 net.cpp:406] relu2_tnet1 <- conv2_tnet1
I0601 10:22:19.121959 12623 net.cpp:367] relu2_tnet1 -> conv2_tnet1 (in-place)
I0601 10:22:19.122256 12623 net.cpp:122] Setting up relu2_tnet1
I0601 10:22:19.122267 12623 net.cpp:129] Top shape: 32 128 2048 1 (8388608)
I0601 10:22:19.122269 12623 net.cpp:137] Memory required for data: 204472704
I0601 10:22:19.122272 12623 layer_factory.hpp:77] Creating layer conv3_tnet1
I0601 10:22:19.122279 12623 net.cpp:84] Creating Layer conv3_tnet1
I0601 10:22:19.122282 12623 net.cpp:406] conv3_tnet1 <- conv2_tnet1
I0601 10:22:19.122287 12623 net.cpp:380] conv3_tnet1 -> conv3_tnet1
I0601 10:22:19.123760 12623 net.cpp:122] Setting up conv3_tnet1
I0601 10:22:19.123772 12623 net.cpp:129] Top shape: 32 1024 2048 1 (67108864)
I0601 10:22:19.123776 12623 net.cpp:137] Memory required for data: 472908160
I0601 10:22:19.123792 12623 layer_factory.hpp:77] Creating layer bn3_tnet1
I0601 10:22:19.123798 12623 net.cpp:84] Creating Layer bn3_tnet1
I0601 10:22:19.123801 12623 net.cpp:406] bn3_tnet1 <- conv3_tnet1
I0601 10:22:19.123806 12623 net.cpp:367] bn3_tnet1 -> conv3_tnet1 (in-place)
I0601 10:22:19.123960 12623 net.cpp:122] Setting up bn3_tnet1
I0601 10:22:19.123967 12623 net.cpp:129] Top shape: 32 1024 2048 1 (67108864)
I0601 10:22:19.123970 12623 net.cpp:137] Memory required for data: 741343616
I0601 10:22:19.123978 12623 layer_factory.hpp:77] Creating layer scale3_tnet1
I0601 10:22:19.123983 12623 net.cpp:84] Creating Layer scale3_tnet1
I0601 10:22:19.123986 12623 net.cpp:406] scale3_tnet1 <- conv3_tnet1
I0601 10:22:19.123991 12623 net.cpp:367] scale3_tnet1 -> conv3_tnet1 (in-place)
I0601 10:22:19.124020 12623 layer_factory.hpp:77] Creating layer scale3_tnet1
I0601 10:22:19.124107 12623 net.cpp:122] Setting up scale3_tnet1
I0601 10:22:19.124114 12623 net.cpp:129] Top shape: 32 1024 2048 1 (67108864)
I0601 10:22:19.124116 12623 net.cpp:137] Memory required for data: 1009779072
I0601 10:22:19.124120 12623 layer_factory.hpp:77] Creating layer relu3_tnet1
I0601 10:22:19.124125 12623 net.cpp:84] Creating Layer relu3_tnet1
I0601 10:22:19.124127 12623 net.cpp:406] relu3_tnet1 <- conv3_tnet1
I0601 10:22:19.124131 12623 net.cpp:367] relu3_tnet1 -> conv3_tnet1 (in-place)
I0601 10:22:19.124418 12623 net.cpp:122] Setting up relu3_tnet1
I0601 10:22:19.124430 12623 net.cpp:129] Top shape: 32 1024 2048 1 (67108864)
I0601 10:22:19.124433 12623 net.cpp:137] Memory required for data: 1278214528
I0601 10:22:19.124436 12623 layer_factory.hpp:77] Creating layer pool_tnet1
I0601 10:22:19.124442 12623 net.cpp:84] Creating Layer pool_tnet1
I0601 10:22:19.124445 12623 net.cpp:406] pool_tnet1 <- conv3_tnet1
I0601 10:22:19.124450 12623 net.cpp:380] pool_tnet1 -> global_feat_tnet1
I0601 10:22:19.124487 12623 net.cpp:122] Setting up pool_tnet1
I0601 10:22:19.124495 12623 net.cpp:129] Top shape: 32 1024 1 1 (32768)
I0601 10:22:19.124496 12623 net.cpp:137] Memory required for data: 1278345600
I0601 10:22:19.124500 12623 layer_factory.hpp:77] Creating layer fc1_tnet1
I0601 10:22:19.124505 12623 net.cpp:84] Creating Layer fc1_tnet1
I0601 10:22:19.124507 12623 net.cpp:406] fc1_tnet1 <- global_feat_tnet1
I0601 10:22:19.124512 12623 net.cpp:380] fc1_tnet1 -> fc1_tnet1
I0601 10:22:19.136788 12623 net.cpp:122] Setting up fc1_tnet1
I0601 10:22:19.136813 12623 net.cpp:129] Top shape: 32 512 (16384)
I0601 10:22:19.136816 12623 net.cpp:137] Memory required for data: 1278411136
I0601 10:22:19.136826 12623 layer_factory.hpp:77] Creating layer bn6_tnet1
I0601 10:22:19.136832 12623 net.cpp:84] Creating Layer bn6_tnet1
I0601 10:22:19.136837 12623 net.cpp:406] bn6_tnet1 <- fc1_tnet1
I0601 10:22:19.136842 12623 net.cpp:367] bn6_tnet1 -> fc1_tnet1 (in-place)
I0601 10:22:19.137008 12623 net.cpp:122] Setting up bn6_tnet1
I0601 10:22:19.137017 12623 net.cpp:129] Top shape: 32 512 (16384)
I0601 10:22:19.137018 12623 net.cpp:137] Memory required for data: 1278476672
I0601 10:22:19.137024 12623 layer_factory.hpp:77] Creating layer scale6_tnet1
I0601 10:22:19.137029 12623 net.cpp:84] Creating Layer scale6_tnet1
I0601 10:22:19.137032 12623 net.cpp:406] scale6_tnet1 <- fc1_tnet1
I0601 10:22:19.137037 12623 net.cpp:367] scale6_tnet1 -> fc1_tnet1 (in-place)
I0601 10:22:19.137068 12623 layer_factory.hpp:77] Creating layer scale6_tnet1
I0601 10:22:19.137154 12623 net.cpp:122] Setting up scale6_tnet1
I0601 10:22:19.137161 12623 net.cpp:129] Top shape: 32 512 (16384)
I0601 10:22:19.137162 12623 net.cpp:137] Memory required for data: 1278542208
I0601 10:22:19.137167 12623 layer_factory.hpp:77] Creating layer relu6_tnet1
I0601 10:22:19.137172 12623 net.cpp:84] Creating Layer relu6_tnet1
I0601 10:22:19.137176 12623 net.cpp:406] relu6_tnet1 <- fc1_tnet1
I0601 10:22:19.137179 12623 net.cpp:367] relu6_tnet1 -> fc1_tnet1 (in-place)
I0601 10:22:19.137588 12623 net.cpp:122] Setting up relu6_tnet1
I0601 10:22:19.137598 12623 net.cpp:129] Top shape: 32 512 (16384)
I0601 10:22:19.137617 12623 net.cpp:137] Memory required for data: 1278607744
I0601 10:22:19.137621 12623 layer_factory.hpp:77] Creating layer fc2_tnet1
I0601 10:22:19.137629 12623 net.cpp:84] Creating Layer fc2_tnet1
I0601 10:22:19.137631 12623 net.cpp:406] fc2_tnet1 <- fc1_tnet1
I0601 10:22:19.137636 12623 net.cpp:380] fc2_tnet1 -> fc2_tnet1
I0601 10:22:19.140913 12623 net.cpp:122] Setting up fc2_tnet1
I0601 10:22:19.140925 12623 net.cpp:129] Top shape: 32 256 (8192)
I0601 10:22:19.140928 12623 net.cpp:137] Memory required for data: 1278640512
I0601 10:22:19.140933 12623 layer_factory.hpp:77] Creating layer bn7_tnet1
I0601 10:22:19.140939 12623 net.cpp:84] Creating Layer bn7_tnet1
I0601 10:22:19.140942 12623 net.cpp:406] bn7_tnet1 <- fc2_tnet1
I0601 10:22:19.140946 12623 net.cpp:367] bn7_tnet1 -> fc2_tnet1 (in-place)
I0601 10:22:19.141096 12623 net.cpp:122] Setting up bn7_tnet1
I0601 10:22:19.141103 12623 net.cpp:129] Top shape: 32 256 (8192)
I0601 10:22:19.141105 12623 net.cpp:137] Memory required for data: 1278673280
I0601 10:22:19.141115 12623 layer_factory.hpp:77] Creating layer scale7_tnet1
I0601 10:22:19.141121 12623 net.cpp:84] Creating Layer scale7_tnet1
I0601 10:22:19.141124 12623 net.cpp:406] scale7_tnet1 <- fc2_tnet1
I0601 10:22:19.141127 12623 net.cpp:367] scale7_tnet1 -> fc2_tnet1 (in-place)
I0601 10:22:19.141158 12623 layer_factory.hpp:77] Creating layer scale7_tnet1
I0601 10:22:19.141243 12623 net.cpp:122] Setting up scale7_tnet1
I0601 10:22:19.141248 12623 net.cpp:129] Top shape: 32 256 (8192)
I0601 10:22:19.141252 12623 net.cpp:137] Memory required for data: 1278706048
I0601 10:22:19.141257 12623 layer_factory.hpp:77] Creating layer relu7_tnet1
I0601 10:22:19.141260 12623 net.cpp:84] Creating Layer relu7_tnet1
I0601 10:22:19.141263 12623 net.cpp:406] relu7_tnet1 <- fc2_tnet1
I0601 10:22:19.141266 12623 net.cpp:367] relu7_tnet1 -> fc2_tnet1 (in-place)
I0601 10:22:19.141584 12623 net.cpp:122] Setting up relu7_tnet1
I0601 10:22:19.141595 12623 net.cpp:129] Top shape: 32 256 (8192)
I0601 10:22:19.141598 12623 net.cpp:137] Memory required for data: 1278738816
I0601 10:22:19.141602 12623 layer_factory.hpp:77] Creating layer fc3_tnet1
I0601 10:22:19.141607 12623 net.cpp:84] Creating Layer fc3_tnet1
I0601 10:22:19.141610 12623 net.cpp:406] fc3_tnet1 <- fc2_tnet1
I0601 10:22:19.141615 12623 net.cpp:380] fc3_tnet1 -> fc3_tnet1
I0601 10:22:19.141719 12623 net.cpp:122] Setting up fc3_tnet1
I0601 10:22:19.141726 12623 net.cpp:129] Top shape: 32 9 (288)
I0601 10:22:19.141728 12623 net.cpp:137] Memory required for data: 1278739968
I0601 10:22:19.141733 12623 layer_factory.hpp:77] Creating layer fc3_tnet1_fc3_tnet1_0_split
I0601 10:22:19.141738 12623 net.cpp:84] Creating Layer fc3_tnet1_fc3_tnet1_0_split
I0601 10:22:19.141741 12623 net.cpp:406] fc3_tnet1_fc3_tnet1_0_split <- fc3_tnet1
I0601 10:22:19.141744 12623 net.cpp:380] fc3_tnet1_fc3_tnet1_0_split -> fc3_tnet1_fc3_tnet1_0_split_0
I0601 10:22:19.141749 12623 net.cpp:380] fc3_tnet1_fc3_tnet1_0_split -> fc3_tnet1_fc3_tnet1_0_split_1
I0601 10:22:19.141777 12623 net.cpp:122] Setting up fc3_tnet1_fc3_tnet1_0_split
I0601 10:22:19.141782 12623 net.cpp:129] Top shape: 32 9 (288)
I0601 10:22:19.141786 12623 net.cpp:129] Top shape: 32 9 (288)
I0601 10:22:19.141788 12623 net.cpp:137] Memory required for data: 1278742272
I0601 10:22:19.141790 12623 layer_factory.hpp:77] Creating layer reshape_tnet1
I0601 10:22:19.141795 12623 net.cpp:84] Creating Layer reshape_tnet1
I0601 10:22:19.141798 12623 net.cpp:406] reshape_tnet1 <- fc3_tnet1_fc3_tnet1_0_split_0
I0601 10:22:19.141803 12623 net.cpp:380] reshape_tnet1 -> fc3_tnet1_reshape
I0601 10:22:19.141824 12623 net.cpp:122] Setting up reshape_tnet1
I0601 10:22:19.141830 12623 net.cpp:129] Top shape: 32 3 3 (288)
I0601 10:22:19.141832 12623 net.cpp:137] Memory required for data: 1278743424
I0601 10:22:19.141835 12623 layer_factory.hpp:77] Creating layer eye_tnet1
I0601 10:22:19.141880 12623 net.cpp:84] Creating Layer eye_tnet1
I0601 10:22:19.141885 12623 net.cpp:406] eye_tnet1 <- fc3_tnet1_fc3_tnet1_0_split_1
I0601 10:22:19.141890 12623 net.cpp:380] eye_tnet1 -> eye_tnet1
I0601 10:22:19.142009 12623 net.cpp:122] Setting up eye_tnet1
I0601 10:22:19.142019 12623 net.cpp:129] Top shape: 32 3 3 (288)
I0601 10:22:19.142021 12623 net.cpp:137] Memory required for data: 1278744576
I0601 10:22:19.142024 12623 layer_factory.hpp:77] Creating layer eltwise_sum_tnet1
I0601 10:22:19.142029 12623 net.cpp:84] Creating Layer eltwise_sum_tnet1
I0601 10:22:19.142032 12623 net.cpp:406] eltwise_sum_tnet1 <- fc3_tnet1_reshape
I0601 10:22:19.142036 12623 net.cpp:406] eltwise_sum_tnet1 <- eye_tnet1
I0601 10:22:19.142040 12623 net.cpp:380] eltwise_sum_tnet1 -> transform1
I0601 10:22:19.142062 12623 net.cpp:122] Setting up eltwise_sum_tnet1
I0601 10:22:19.142067 12623 net.cpp:129] Top shape: 32 3 3 (288)
I0601 10:22:19.142071 12623 net.cpp:137] Memory required for data: 1278745728
I0601 10:22:19.142072 12623 layer_factory.hpp:77] Creating layer matmul_input
I0601 10:22:19.142077 12623 net.cpp:84] Creating Layer matmul_input
I0601 10:22:19.142079 12623 net.cpp:406] matmul_input <- data_data_0_split_1
I0601 10:22:19.142083 12623 net.cpp:406] matmul_input <- transform1
I0601 10:22:19.142087 12623 net.cpp:380] matmul_input -> data_transform1
I0601 10:22:19.142105 12623 net.cpp:122] Setting up matmul_input
I0601 10:22:19.142110 12623 net.cpp:129] Top shape: 32 2048 3 (196608)
I0601 10:22:19.142112 12623 net.cpp:137] Memory required for data: 1279532160
I0601 10:22:19.142115 12623 layer_factory.hpp:77] Creating layer reshape_input_data
I0601 10:22:19.142119 12623 net.cpp:84] Creating Layer reshape_input_data
I0601 10:22:19.142122 12623 net.cpp:406] reshape_input_data <- data_transform1
I0601 10:22:19.142127 12623 net.cpp:380] reshape_input_data -> data_transform1_reshape
I0601 10:22:19.142146 12623 net.cpp:122] Setting up reshape_input_data
I0601 10:22:19.142151 12623 net.cpp:129] Top shape: 32 1 2048 3 (196608)
I0601 10:22:19.142154 12623 net.cpp:137] Memory required for data: 1280318592
I0601 10:22:19.142156 12623 layer_factory.hpp:77] Creating layer conv1
I0601 10:22:19.142166 12623 net.cpp:84] Creating Layer conv1
I0601 10:22:19.142170 12623 net.cpp:406] conv1 <- data_transform1_reshape
I0601 10:22:19.142174 12623 net.cpp:380] conv1 -> conv1
I0601 10:22:19.143126 12623 net.cpp:122] Setting up conv1
I0601 10:22:19.143138 12623 net.cpp:129] Top shape: 32 64 2048 1 (4194304)
I0601 10:22:19.143142 12623 net.cpp:137] Memory required for data: 1297095808
I0601 10:22:19.143148 12623 layer_factory.hpp:77] Creating layer bn1
I0601 10:22:19.143154 12623 net.cpp:84] Creating Layer bn1
I0601 10:22:19.143157 12623 net.cpp:406] bn1 <- conv1
I0601 10:22:19.143162 12623 net.cpp:367] bn1 -> conv1 (in-place)
I0601 10:22:19.143323 12623 net.cpp:122] Setting up bn1
I0601 10:22:19.143329 12623 net.cpp:129] Top shape: 32 64 2048 1 (4194304)
I0601 10:22:19.143332 12623 net.cpp:137] Memory required for data: 1313873024
I0601 10:22:19.143337 12623 layer_factory.hpp:77] Creating layer scale1
I0601 10:22:19.143342 12623 net.cpp:84] Creating Layer scale1
I0601 10:22:19.143344 12623 net.cpp:406] scale1 <- conv1
I0601 10:22:19.143348 12623 net.cpp:367] scale1 -> conv1 (in-place)
I0601 10:22:19.143380 12623 layer_factory.hpp:77] Creating layer scale1
I0601 10:22:19.143470 12623 net.cpp:122] Setting up scale1
I0601 10:22:19.143476 12623 net.cpp:129] Top shape: 32 64 2048 1 (4194304)
I0601 10:22:19.143477 12623 net.cpp:137] Memory required for data: 1330650240
I0601 10:22:19.143482 12623 layer_factory.hpp:77] Creating layer relu1
I0601 10:22:19.143486 12623 net.cpp:84] Creating Layer relu1
I0601 10:22:19.143489 12623 net.cpp:406] relu1 <- conv1
I0601 10:22:19.143492 12623 net.cpp:367] relu1 -> conv1 (in-place)
I0601 10:22:19.143642 12623 net.cpp:122] Setting up relu1
I0601 10:22:19.143651 12623 net.cpp:129] Top shape: 32 64 2048 1 (4194304)
I0601 10:22:19.143652 12623 net.cpp:137] Memory required for data: 1347427456
I0601 10:22:19.143656 12623 layer_factory.hpp:77] Creating layer conv2
I0601 10:22:19.143663 12623 net.cpp:84] Creating Layer conv2
I0601 10:22:19.143667 12623 net.cpp:406] conv2 <- conv1
I0601 10:22:19.143671 12623 net.cpp:380] conv2 -> conv2
I0601 10:22:19.144605 12623 net.cpp:122] Setting up conv2
I0601 10:22:19.144616 12623 net.cpp:129] Top shape: 32 64 2048 1 (4194304)
I0601 10:22:19.144620 12623 net.cpp:137] Memory required for data: 1364204672
I0601 10:22:19.144625 12623 layer_factory.hpp:77] Creating layer bn2
I0601 10:22:19.144630 12623 net.cpp:84] Creating Layer bn2
I0601 10:22:19.144634 12623 net.cpp:406] bn2 <- conv2
I0601 10:22:19.144639 12623 net.cpp:367] bn2 -> conv2 (in-place)
I0601 10:22:19.144794 12623 net.cpp:122] Setting up bn2
I0601 10:22:19.144801 12623 net.cpp:129] Top shape: 32 64 2048 1 (4194304)
I0601 10:22:19.144804 12623 net.cpp:137] Memory required for data: 1380981888
I0601 10:22:19.144809 12623 layer_factory.hpp:77] Creating layer scale2
I0601 10:22:19.144814 12623 net.cpp:84] Creating Layer scale2
I0601 10:22:19.144816 12623 net.cpp:406] scale2 <- conv2
I0601 10:22:19.144820 12623 net.cpp:367] scale2 -> conv2 (in-place)
I0601 10:22:19.144857 12623 layer_factory.hpp:77] Creating layer scale2
I0601 10:22:19.144949 12623 net.cpp:122] Setting up scale2
I0601 10:22:19.144955 12623 net.cpp:129] Top shape: 32 64 2048 1 (4194304)
I0601 10:22:19.144958 12623 net.cpp:137] Memory required for data: 1397759104
I0601 10:22:19.144963 12623 layer_factory.hpp:77] Creating layer relu2
I0601 10:22:19.144966 12623 net.cpp:84] Creating Layer relu2
I0601 10:22:19.144969 12623 net.cpp:406] relu2 <- conv2
I0601 10:22:19.144973 12623 net.cpp:367] relu2 -> conv2 (in-place)
I0601 10:22:19.145261 12623 net.cpp:122] Setting up relu2
I0601 10:22:19.145272 12623 net.cpp:129] Top shape: 32 64 2048 1 (4194304)
I0601 10:22:19.145274 12623 net.cpp:137] Memory required for data: 1414536320
I0601 10:22:19.145277 12623 layer_factory.hpp:77] Creating layer conv2_relu2_0_split
I0601 10:22:19.145282 12623 net.cpp:84] Creating Layer conv2_relu2_0_split
I0601 10:22:19.145285 12623 net.cpp:406] conv2_relu2_0_split <- conv2
I0601 10:22:19.145289 12623 net.cpp:380] conv2_relu2_0_split -> conv2_relu2_0_split_0
I0601 10:22:19.145298 12623 net.cpp:380] conv2_relu2_0_split -> conv2_relu2_0_split_1
I0601 10:22:19.145331 12623 net.cpp:122] Setting up conv2_relu2_0_split
I0601 10:22:19.145337 12623 net.cpp:129] Top shape: 32 64 2048 1 (4194304)
I0601 10:22:19.145340 12623 net.cpp:129] Top shape: 32 64 2048 1 (4194304)
I0601 10:22:19.145344 12623 net.cpp:137] Memory required for data: 1448090752
I0601 10:22:19.145345 12623 layer_factory.hpp:77] Creating layer conv1_tnet2
I0601 10:22:19.145352 12623 net.cpp:84] Creating Layer conv1_tnet2
I0601 10:22:19.145355 12623 net.cpp:406] conv1_tnet2 <- conv2_relu2_0_split_0
I0601 10:22:19.145360 12623 net.cpp:380] conv1_tnet2 -> conv1_tnet2
I0601 10:22:19.146273 12623 net.cpp:122] Setting up conv1_tnet2
I0601 10:22:19.146284 12623 net.cpp:129] Top shape: 32 64 2048 1 (4194304)
I0601 10:22:19.146287 12623 net.cpp:137] Memory required for data: 1464867968
I0601 10:22:19.146293 12623 layer_factory.hpp:77] Creating layer bn1_tnet2
I0601 10:22:19.146298 12623 net.cpp:84] Creating Layer bn1_tnet2
I0601 10:22:19.146301 12623 net.cpp:406] bn1_tnet2 <- conv1_tnet2
I0601 10:22:19.146306 12623 net.cpp:367] bn1_tnet2 -> conv1_tnet2 (in-place)
I0601 10:22:19.146462 12623 net.cpp:122] Setting up bn1_tnet2
I0601 10:22:19.146468 12623 net.cpp:129] Top shape: 32 64 2048 1 (4194304)
I0601 10:22:19.146471 12623 net.cpp:137] Memory required for data: 1481645184
I0601 10:22:19.146476 12623 layer_factory.hpp:77] Creating layer scale1_tnet2
I0601 10:22:19.146481 12623 net.cpp:84] Creating Layer scale1_tnet2
I0601 10:22:19.146484 12623 net.cpp:406] scale1_tnet2 <- conv1_tnet2
I0601 10:22:19.146487 12623 net.cpp:367] scale1_tnet2 -> conv1_tnet2 (in-place)
I0601 10:22:19.146520 12623 layer_factory.hpp:77] Creating layer scale1_tnet2
I0601 10:22:19.146611 12623 net.cpp:122] Setting up scale1_tnet2
I0601 10:22:19.146617 12623 net.cpp:129] Top shape: 32 64 2048 1 (4194304)
I0601 10:22:19.146620 12623 net.cpp:137] Memory required for data: 1498422400
I0601 10:22:19.146625 12623 layer_factory.hpp:77] Creating layer relu1_tnet2
I0601 10:22:19.146641 12623 net.cpp:84] Creating Layer relu1_tnet2
I0601 10:22:19.146643 12623 net.cpp:406] relu1_tnet2 <- conv1_tnet2
I0601 10:22:19.146647 12623 net.cpp:367] relu1_tnet2 -> conv1_tnet2 (in-place)
I0601 10:22:19.146936 12623 net.cpp:122] Setting up relu1_tnet2
I0601 10:22:19.146946 12623 net.cpp:129] Top shape: 32 64 2048 1 (4194304)
I0601 10:22:19.146950 12623 net.cpp:137] Memory required for data: 1515199616
I0601 10:22:19.146952 12623 layer_factory.hpp:77] Creating layer conv2_tnet2
I0601 10:22:19.146960 12623 net.cpp:84] Creating Layer conv2_tnet2
I0601 10:22:19.146963 12623 net.cpp:406] conv2_tnet2 <- conv1_tnet2
I0601 10:22:19.146970 12623 net.cpp:380] conv2_tnet2 -> conv2_tnet2
I0601 10:22:19.147922 12623 net.cpp:122] Setting up conv2_tnet2
I0601 10:22:19.147934 12623 net.cpp:129] Top shape: 32 128 2048 1 (8388608)
I0601 10:22:19.147938 12623 net.cpp:137] Memory required for data: 1548754048
I0601 10:22:19.147943 12623 layer_factory.hpp:77] Creating layer bn2_tnet2
I0601 10:22:19.147948 12623 net.cpp:84] Creating Layer bn2_tnet2
I0601 10:22:19.147950 12623 net.cpp:406] bn2_tnet2 <- conv2_tnet2
I0601 10:22:19.147954 12623 net.cpp:367] bn2_tnet2 -> conv2_tnet2 (in-place)
I0601 10:22:19.148108 12623 net.cpp:122] Setting up bn2_tnet2
I0601 10:22:19.148114 12623 net.cpp:129] Top shape: 32 128 2048 1 (8388608)
I0601 10:22:19.148118 12623 net.cpp:137] Memory required for data: 1582308480
I0601 10:22:19.148123 12623 layer_factory.hpp:77] Creating layer scale2_tnet2
I0601 10:22:19.148128 12623 net.cpp:84] Creating Layer scale2_tnet2
I0601 10:22:19.148130 12623 net.cpp:406] scale2_tnet2 <- conv2_tnet2
I0601 10:22:19.148133 12623 net.cpp:367] scale2_tnet2 -> conv2_tnet2 (in-place)
I0601 10:22:19.148165 12623 layer_factory.hpp:77] Creating layer scale2_tnet2
I0601 10:22:19.148248 12623 net.cpp:122] Setting up scale2_tnet2
I0601 10:22:19.148254 12623 net.cpp:129] Top shape: 32 128 2048 1 (8388608)
I0601 10:22:19.148257 12623 net.cpp:137] Memory required for data: 1615862912
I0601 10:22:19.148268 12623 layer_factory.hpp:77] Creating layer relu2_tnet2
I0601 10:22:19.148273 12623 net.cpp:84] Creating Layer relu2_tnet2
I0601 10:22:19.148277 12623 net.cpp:406] relu2_tnet2 <- conv2_tnet2
I0601 10:22:19.148280 12623 net.cpp:367] relu2_tnet2 -> conv2_tnet2 (in-place)
I0601 10:22:19.148435 12623 net.cpp:122] Setting up relu2_tnet2
I0601 10:22:19.148443 12623 net.cpp:129] Top shape: 32 128 2048 1 (8388608)
I0601 10:22:19.148447 12623 net.cpp:137] Memory required for data: 1649417344
I0601 10:22:19.148448 12623 layer_factory.hpp:77] Creating layer conv3_tnet2
I0601 10:22:19.148456 12623 net.cpp:84] Creating Layer conv3_tnet2
I0601 10:22:19.148459 12623 net.cpp:406] conv3_tnet2 <- conv2_tnet2
I0601 10:22:19.148464 12623 net.cpp:380] conv3_tnet2 -> conv3_tnet2
I0601 10:22:19.150182 12623 net.cpp:122] Setting up conv3_tnet2
I0601 10:22:19.150197 12623 net.cpp:129] Top shape: 32 1024 2048 1 (67108864)
I0601 10:22:19.150199 12623 net.cpp:137] Memory required for data: 1917852800
I0601 10:22:19.150207 12623 layer_factory.hpp:77] Creating layer bn3_tnet2
I0601 10:22:19.150212 12623 net.cpp:84] Creating Layer bn3_tnet2
I0601 10:22:19.150215 12623 net.cpp:406] bn3_tnet2 <- conv3_tnet2
I0601 10:22:19.150219 12623 net.cpp:367] bn3_tnet2 -> conv3_tnet2 (in-place)
I0601 10:22:19.150379 12623 net.cpp:122] Setting up bn3_tnet2
I0601 10:22:19.150387 12623 net.cpp:129] Top shape: 32 1024 2048 1 (67108864)
I0601 10:22:19.150389 12623 net.cpp:137] Memory required for data: 2186288256
I0601 10:22:19.150395 12623 layer_factory.hpp:77] Creating layer scale3_tnet2
I0601 10:22:19.150400 12623 net.cpp:84] Creating Layer scale3_tnet2
I0601 10:22:19.150403 12623 net.cpp:406] scale3_tnet2 <- conv3_tnet2
I0601 10:22:19.150406 12623 net.cpp:367] scale3_tnet2 -> conv3_tnet2 (in-place)
I0601 10:22:19.150439 12623 layer_factory.hpp:77] Creating layer scale3_tnet2
I0601 10:22:19.150538 12623 net.cpp:122] Setting up scale3_tnet2
I0601 10:22:19.150544 12623 net.cpp:129] Top shape: 32 1024 2048 1 (67108864)
I0601 10:22:19.150547 12623 net.cpp:137] Memory required for data: 2454723712
I0601 10:22:19.150565 12623 layer_factory.hpp:77] Creating layer relu3_tnet2
I0601 10:22:19.150571 12623 net.cpp:84] Creating Layer relu3_tnet2
I0601 10:22:19.150574 12623 net.cpp:406] relu3_tnet2 <- conv3_tnet2
I0601 10:22:19.150578 12623 net.cpp:367] relu3_tnet2 -> conv3_tnet2 (in-place)
I0601 10:22:19.150879 12623 net.cpp:122] Setting up relu3_tnet2
I0601 10:22:19.150890 12623 net.cpp:129] Top shape: 32 1024 2048 1 (67108864)
I0601 10:22:19.150894 12623 net.cpp:137] Memory required for data: 2723159168
I0601 10:22:19.150897 12623 layer_factory.hpp:77] Creating layer pool_tnet2
I0601 10:22:19.150902 12623 net.cpp:84] Creating Layer pool_tnet2
I0601 10:22:19.150905 12623 net.cpp:406] pool_tnet2 <- conv3_tnet2
I0601 10:22:19.150910 12623 net.cpp:380] pool_tnet2 -> global_feat_tnet2
I0601 10:22:19.150949 12623 net.cpp:122] Setting up pool_tnet2
I0601 10:22:19.150954 12623 net.cpp:129] Top shape: 32 1024 1 1 (32768)
I0601 10:22:19.150957 12623 net.cpp:137] Memory required for data: 2723290240
I0601 10:22:19.150959 12623 layer_factory.hpp:77] Creating layer fc1_tnet2
I0601 10:22:19.150965 12623 net.cpp:84] Creating Layer fc1_tnet2
I0601 10:22:19.150969 12623 net.cpp:406] fc1_tnet2 <- global_feat_tnet2
I0601 10:22:19.150974 12623 net.cpp:380] fc1_tnet2 -> fc1_tnet2
I0601 10:22:19.163058 12623 net.cpp:122] Setting up fc1_tnet2
I0601 10:22:19.163080 12623 net.cpp:129] Top shape: 32 512 (16384)
I0601 10:22:19.163084 12623 net.cpp:137] Memory required for data: 2723355776
I0601 10:22:19.163091 12623 layer_factory.hpp:77] Creating layer bn6_tnet2
I0601 10:22:19.163098 12623 net.cpp:84] Creating Layer bn6_tnet2
I0601 10:22:19.163102 12623 net.cpp:406] bn6_tnet2 <- fc1_tnet2
I0601 10:22:19.163108 12623 net.cpp:367] bn6_tnet2 -> fc1_tnet2 (in-place)
I0601 10:22:19.163274 12623 net.cpp:122] Setting up bn6_tnet2
I0601 10:22:19.163280 12623 net.cpp:129] Top shape: 32 512 (16384)
I0601 10:22:19.163282 12623 net.cpp:137] Memory required for data: 2723421312
I0601 10:22:19.163287 12623 layer_factory.hpp:77] Creating layer scale6_tnet2
I0601 10:22:19.163293 12623 net.cpp:84] Creating Layer scale6_tnet2
I0601 10:22:19.163295 12623 net.cpp:406] scale6_tnet2 <- fc1_tnet2
I0601 10:22:19.163300 12623 net.cpp:367] scale6_tnet2 -> fc1_tnet2 (in-place)
I0601 10:22:19.163331 12623 layer_factory.hpp:77] Creating layer scale6_tnet2
I0601 10:22:19.163419 12623 net.cpp:122] Setting up scale6_tnet2
I0601 10:22:19.163425 12623 net.cpp:129] Top shape: 32 512 (16384)
I0601 10:22:19.163427 12623 net.cpp:137] Memory required for data: 2723486848
I0601 10:22:19.163432 12623 layer_factory.hpp:77] Creating layer relu6_tnet2
I0601 10:22:19.163436 12623 net.cpp:84] Creating Layer relu6_tnet2
I0601 10:22:19.163439 12623 net.cpp:406] relu6_tnet2 <- fc1_tnet2
I0601 10:22:19.163444 12623 net.cpp:367] relu6_tnet2 -> fc1_tnet2 (in-place)
I0601 10:22:19.163637 12623 net.cpp:122] Setting up relu6_tnet2
I0601 10:22:19.163645 12623 net.cpp:129] Top shape: 32 512 (16384)
I0601 10:22:19.163648 12623 net.cpp:137] Memory required for data: 2723552384
I0601 10:22:19.163651 12623 layer_factory.hpp:77] Creating layer fc2_tnet2
I0601 10:22:19.163657 12623 net.cpp:84] Creating Layer fc2_tnet2
I0601 10:22:19.163661 12623 net.cpp:406] fc2_tnet2 <- fc1_tnet2
I0601 10:22:19.163666 12623 net.cpp:380] fc2_tnet2 -> fc2_tnet2
I0601 10:22:19.167181 12623 net.cpp:122] Setting up fc2_tnet2
I0601 10:22:19.167192 12623 net.cpp:129] Top shape: 32 256 (8192)
I0601 10:22:19.167196 12623 net.cpp:137] Memory required for data: 2723585152
I0601 10:22:19.167201 12623 layer_factory.hpp:77] Creating layer bn7_tnet2
I0601 10:22:19.167207 12623 net.cpp:84] Creating Layer bn7_tnet2
I0601 10:22:19.167210 12623 net.cpp:406] bn7_tnet2 <- fc2_tnet2
I0601 10:22:19.167214 12623 net.cpp:367] bn7_tnet2 -> fc2_tnet2 (in-place)
I0601 10:22:19.167369 12623 net.cpp:122] Setting up bn7_tnet2
I0601 10:22:19.167376 12623 net.cpp:129] Top shape: 32 256 (8192)
I0601 10:22:19.167377 12623 net.cpp:137] Memory required for data: 2723617920
I0601 10:22:19.167383 12623 layer_factory.hpp:77] Creating layer scale7_tnet2
I0601 10:22:19.167402 12623 net.cpp:84] Creating Layer scale7_tnet2
I0601 10:22:19.167405 12623 net.cpp:406] scale7_tnet2 <- fc2_tnet2
I0601 10:22:19.167409 12623 net.cpp:367] scale7_tnet2 -> fc2_tnet2 (in-place)
I0601 10:22:19.167443 12623 layer_factory.hpp:77] Creating layer scale7_tnet2
I0601 10:22:19.167528 12623 net.cpp:122] Setting up scale7_tnet2
I0601 10:22:19.167533 12623 net.cpp:129] Top shape: 32 256 (8192)
I0601 10:22:19.167536 12623 net.cpp:137] Memory required for data: 2723650688
I0601 10:22:19.167541 12623 layer_factory.hpp:77] Creating layer relu7_tnet2
I0601 10:22:19.167546 12623 net.cpp:84] Creating Layer relu7_tnet2
I0601 10:22:19.167547 12623 net.cpp:406] relu7_tnet2 <- fc2_tnet2
I0601 10:22:19.167551 12623 net.cpp:367] relu7_tnet2 -> fc2_tnet2 (in-place)
I0601 10:22:19.167892 12623 net.cpp:122] Setting up relu7_tnet2
I0601 10:22:19.167903 12623 net.cpp:129] Top shape: 32 256 (8192)
I0601 10:22:19.167906 12623 net.cpp:137] Memory required for data: 2723683456
I0601 10:22:19.167909 12623 layer_factory.hpp:77] Creating layer fc3_tnet2
I0601 10:22:19.167917 12623 net.cpp:84] Creating Layer fc3_tnet2
I0601 10:22:19.167919 12623 net.cpp:406] fc3_tnet2 <- fc2_tnet2
I0601 10:22:19.167924 12623 net.cpp:380] fc3_tnet2 -> fc3_tnet2
I0601 10:22:19.169798 12623 net.cpp:122] Setting up fc3_tnet2
I0601 10:22:19.169816 12623 net.cpp:129] Top shape: 32 4096 (131072)
I0601 10:22:19.169819 12623 net.cpp:137] Memory required for data: 2724207744
I0601 10:22:19.169828 12623 layer_factory.hpp:77] Creating layer fc3_tnet2_fc3_tnet2_0_split
I0601 10:22:19.169834 12623 net.cpp:84] Creating Layer fc3_tnet2_fc3_tnet2_0_split
I0601 10:22:19.169838 12623 net.cpp:406] fc3_tnet2_fc3_tnet2_0_split <- fc3_tnet2
I0601 10:22:19.169844 12623 net.cpp:380] fc3_tnet2_fc3_tnet2_0_split -> fc3_tnet2_fc3_tnet2_0_split_0
I0601 10:22:19.169853 12623 net.cpp:380] fc3_tnet2_fc3_tnet2_0_split -> fc3_tnet2_fc3_tnet2_0_split_1
I0601 10:22:19.169889 12623 net.cpp:122] Setting up fc3_tnet2_fc3_tnet2_0_split
I0601 10:22:19.169895 12623 net.cpp:129] Top shape: 32 4096 (131072)
I0601 10:22:19.169899 12623 net.cpp:129] Top shape: 32 4096 (131072)
I0601 10:22:19.169901 12623 net.cpp:137] Memory required for data: 2725256320
I0601 10:22:19.169904 12623 layer_factory.hpp:77] Creating layer reshape_tnet2
I0601 10:22:19.169914 12623 net.cpp:84] Creating Layer reshape_tnet2
I0601 10:22:19.169917 12623 net.cpp:406] reshape_tnet2 <- fc3_tnet2_fc3_tnet2_0_split_0
I0601 10:22:19.169922 12623 net.cpp:380] reshape_tnet2 -> fc3_tnet2_reshape
I0601 10:22:19.169945 12623 net.cpp:122] Setting up reshape_tnet2
I0601 10:22:19.169950 12623 net.cpp:129] Top shape: 32 64 64 (131072)
I0601 10:22:19.169952 12623 net.cpp:137] Memory required for data: 2725780608
I0601 10:22:19.169955 12623 layer_factory.hpp:77] Creating layer eye_tnet2
I0601 10:22:19.169999 12623 net.cpp:84] Creating Layer eye_tnet2
I0601 10:22:19.170004 12623 net.cpp:406] eye_tnet2 <- fc3_tnet2_fc3_tnet2_0_split_1
I0601 10:22:19.170008 12623 net.cpp:380] eye_tnet2 -> eye_tnet2
I0601 10:22:19.170161 12623 net.cpp:122] Setting up eye_tnet2
I0601 10:22:19.170171 12623 net.cpp:129] Top shape: 32 64 64 (131072)
I0601 10:22:19.170173 12623 net.cpp:137] Memory required for data: 2726304896
I0601 10:22:19.170176 12623 layer_factory.hpp:77] Creating layer eye_tnet2_eye_tnet2_0_split
I0601 10:22:19.170181 12623 net.cpp:84] Creating Layer eye_tnet2_eye_tnet2_0_split
I0601 10:22:19.170184 12623 net.cpp:406] eye_tnet2_eye_tnet2_0_split <- eye_tnet2
I0601 10:22:19.170188 12623 net.cpp:380] eye_tnet2_eye_tnet2_0_split -> eye_tnet2_eye_tnet2_0_split_0
I0601 10:22:19.170193 12623 net.cpp:380] eye_tnet2_eye_tnet2_0_split -> eye_tnet2_eye_tnet2_0_split_1
I0601 10:22:19.170224 12623 net.cpp:122] Setting up eye_tnet2_eye_tnet2_0_split
I0601 10:22:19.170229 12623 net.cpp:129] Top shape: 32 64 64 (131072)
I0601 10:22:19.170233 12623 net.cpp:129] Top shape: 32 64 64 (131072)
I0601 10:22:19.170235 12623 net.cpp:137] Memory required for data: 2727353472
I0601 10:22:19.170238 12623 layer_factory.hpp:77] Creating layer eltwise_sum_tnet2
I0601 10:22:19.170258 12623 net.cpp:84] Creating Layer eltwise_sum_tnet2
I0601 10:22:19.170262 12623 net.cpp:406] eltwise_sum_tnet2 <- fc3_tnet2_reshape
I0601 10:22:19.170266 12623 net.cpp:406] eltwise_sum_tnet2 <- eye_tnet2_eye_tnet2_0_split_0
I0601 10:22:19.170270 12623 net.cpp:380] eltwise_sum_tnet2 -> transform2
I0601 10:22:19.170292 12623 net.cpp:122] Setting up eltwise_sum_tnet2
I0601 10:22:19.170298 12623 net.cpp:129] Top shape: 32 64 64 (131072)
I0601 10:22:19.170300 12623 net.cpp:137] Memory required for data: 2727877760
I0601 10:22:19.170303 12623 layer_factory.hpp:77] Creating layer transform2_eltwise_sum_tnet2_0_split
I0601 10:22:19.170307 12623 net.cpp:84] Creating Layer transform2_eltwise_sum_tnet2_0_split
I0601 10:22:19.170310 12623 net.cpp:406] transform2_eltwise_sum_tnet2_0_split <- transform2
I0601 10:22:19.170315 12623 net.cpp:380] transform2_eltwise_sum_tnet2_0_split -> transform2_eltwise_sum_tnet2_0_split_0
I0601 10:22:19.170318 12623 net.cpp:380] transform2_eltwise_sum_tnet2_0_split -> transform2_eltwise_sum_tnet2_0_split_1
I0601 10:22:19.170323 12623 net.cpp:380] transform2_eltwise_sum_tnet2_0_split -> transform2_eltwise_sum_tnet2_0_split_2
I0601 10:22:19.170359 12623 net.cpp:122] Setting up transform2_eltwise_sum_tnet2_0_split
I0601 10:22:19.170364 12623 net.cpp:129] Top shape: 32 64 64 (131072)
I0601 10:22:19.170368 12623 net.cpp:129] Top shape: 32 64 64 (131072)
I0601 10:22:19.170372 12623 net.cpp:129] Top shape: 32 64 64 (131072)
I0601 10:22:19.170373 12623 net.cpp:137] Memory required for data: 2729450624
I0601 10:22:19.170377 12623 layer_factory.hpp:77] Creating layer perm_scale2
I0601 10:22:19.170382 12623 net.cpp:84] Creating Layer perm_scale2
I0601 10:22:19.170384 12623 net.cpp:406] perm_scale2 <- conv2_relu2_0_split_1
I0601 10:22:19.170388 12623 net.cpp:380] perm_scale2 -> scale2_permute
I0601 10:22:19.170476 12623 net.cpp:122] Setting up perm_scale2
I0601 10:22:19.170482 12623 net.cpp:129] Top shape: 32 2048 64 1 (4194304)
I0601 10:22:19.170485 12623 net.cpp:137] Memory required for data: 2746227840
I0601 10:22:19.170487 12623 layer_factory.hpp:77] Creating layer reshape_scale2
I0601 10:22:19.170491 12623 net.cpp:84] Creating Layer reshape_scale2
I0601 10:22:19.170495 12623 net.cpp:406] reshape_scale2 <- scale2_permute
I0601 10:22:19.170498 12623 net.cpp:380] reshape_scale2 -> scale2_reshape
I0601 10:22:19.170517 12623 net.cpp:122] Setting up reshape_scale2
I0601 10:22:19.170522 12623 net.cpp:129] Top shape: 32 2048 64 (4194304)
I0601 10:22:19.170526 12623 net.cpp:137] Memory required for data: 2763005056
I0601 10:22:19.170528 12623 layer_factory.hpp:77] Creating layer matmul_feat
I0601 10:22:19.170532 12623 net.cpp:84] Creating Layer matmul_feat
I0601 10:22:19.170536 12623 net.cpp:406] matmul_feat <- scale2_reshape
I0601 10:22:19.170538 12623 net.cpp:406] matmul_feat <- transform2_eltwise_sum_tnet2_0_split_0
I0601 10:22:19.170542 12623 net.cpp:380] matmul_feat -> scale2_transform2
I0601 10:22:19.170562 12623 net.cpp:122] Setting up matmul_feat
I0601 10:22:19.170567 12623 net.cpp:129] Top shape: 32 2048 64 (4194304)
I0601 10:22:19.170568 12623 net.cpp:137] Memory required for data: 2779782272
I0601 10:22:19.170572 12623 layer_factory.hpp:77] Creating layer perm_scale2_transform2
I0601 10:22:19.170575 12623 net.cpp:84] Creating Layer perm_scale2_transform2
I0601 10:22:19.170578 12623 net.cpp:406] perm_scale2_transform2 <- scale2_transform2
I0601 10:22:19.170581 12623 net.cpp:380] perm_scale2_transform2 -> scale2_permute_transform2
I0601 10:22:19.170660 12623 net.cpp:122] Setting up perm_scale2_transform2
I0601 10:22:19.170665 12623 net.cpp:129] Top shape: 32 64 2048 (4194304)
I0601 10:22:19.170667 12623 net.cpp:137] Memory required for data: 2796559488
I0601 10:22:19.170670 12623 layer_factory.hpp:77] Creating layer reshape_scale2_transform2
I0601 10:22:19.170673 12623 net.cpp:84] Creating Layer reshape_scale2_transform2
I0601 10:22:19.170676 12623 net.cpp:406] reshape_scale2_transform2 <- scale2_permute_transform2
I0601 10:22:19.170680 12623 net.cpp:380] reshape_scale2_transform2 -> scale2_transform2_reshape
I0601 10:22:19.170707 12623 net.cpp:122] Setting up reshape_scale2_transform2
I0601 10:22:19.170713 12623 net.cpp:129] Top shape: 32 64 2048 1 (4194304)
I0601 10:22:19.170716 12623 net.cpp:137] Memory required for data: 2813336704
I0601 10:22:19.170717 12623 layer_factory.hpp:77] Creating layer conv3
I0601 10:22:19.170727 12623 net.cpp:84] Creating Layer conv3
I0601 10:22:19.170729 12623 net.cpp:406] conv3 <- scale2_transform2_reshape
I0601 10:22:19.170734 12623 net.cpp:380] conv3 -> conv3
I0601 10:22:19.171803 12623 net.cpp:122] Setting up conv3
I0601 10:22:19.171815 12623 net.cpp:129] Top shape: 32 64 2048 1 (4194304)
I0601 10:22:19.171819 12623 net.cpp:137] Memory required for data: 2830113920
I0601 10:22:19.171824 12623 layer_factory.hpp:77] Creating layer bn3
I0601 10:22:19.171830 12623 net.cpp:84] Creating Layer bn3
I0601 10:22:19.171833 12623 net.cpp:406] bn3 <- conv3
I0601 10:22:19.171838 12623 net.cpp:367] bn3 -> conv3 (in-place)
I0601 10:22:19.172004 12623 net.cpp:122] Setting up bn3
I0601 10:22:19.172010 12623 net.cpp:129] Top shape: 32 64 2048 1 (4194304)
I0601 10:22:19.172013 12623 net.cpp:137] Memory required for data: 2846891136
I0601 10:22:19.172019 12623 layer_factory.hpp:77] Creating layer scale3
I0601 10:22:19.172024 12623 net.cpp:84] Creating Layer scale3
I0601 10:22:19.172026 12623 net.cpp:406] scale3 <- conv3
I0601 10:22:19.172030 12623 net.cpp:367] scale3 -> conv3 (in-place)
I0601 10:22:19.172067 12623 layer_factory.hpp:77] Creating layer scale3
I0601 10:22:19.172163 12623 net.cpp:122] Setting up scale3
I0601 10:22:19.172168 12623 net.cpp:129] Top shape: 32 64 2048 1 (4194304)
I0601 10:22:19.172170 12623 net.cpp:137] Memory required for data: 2863668352
I0601 10:22:19.172175 12623 layer_factory.hpp:77] Creating layer relu3
I0601 10:22:19.172179 12623 net.cpp:84] Creating Layer relu3
I0601 10:22:19.172183 12623 net.cpp:406] relu3 <- conv3
I0601 10:22:19.172185 12623 net.cpp:367] relu3 -> conv3 (in-place)
I0601 10:22:19.172475 12623 net.cpp:122] Setting up relu3
I0601 10:22:19.172485 12623 net.cpp:129] Top shape: 32 64 2048 1 (4194304)
I0601 10:22:19.172489 12623 net.cpp:137] Memory required for data: 2880445568
I0601 10:22:19.172492 12623 layer_factory.hpp:77] Creating layer conv4
I0601 10:22:19.172499 12623 net.cpp:84] Creating Layer conv4
I0601 10:22:19.172502 12623 net.cpp:406] conv4 <- conv3
I0601 10:22:19.172508 12623 net.cpp:380] conv4 -> conv4
I0601 10:22:19.173491 12623 net.cpp:122] Setting up conv4
I0601 10:22:19.173501 12623 net.cpp:129] Top shape: 32 128 2048 1 (8388608)
I0601 10:22:19.173506 12623 net.cpp:137] Memory required for data: 2914000000
I0601 10:22:19.173511 12623 layer_factory.hpp:77] Creating layer bn4
I0601 10:22:19.173516 12623 net.cpp:84] Creating Layer bn4
I0601 10:22:19.173518 12623 net.cpp:406] bn4 <- conv4
I0601 10:22:19.173523 12623 net.cpp:367] bn4 -> conv4 (in-place)
I0601 10:22:19.173681 12623 net.cpp:122] Setting up bn4
I0601 10:22:19.173688 12623 net.cpp:129] Top shape: 32 128 2048 1 (8388608)
I0601 10:22:19.173691 12623 net.cpp:137] Memory required for data: 2947554432
I0601 10:22:19.173696 12623 layer_factory.hpp:77] Creating layer scale4
I0601 10:22:19.173702 12623 net.cpp:84] Creating Layer scale4
I0601 10:22:19.173703 12623 net.cpp:406] scale4 <- conv4
I0601 10:22:19.173707 12623 net.cpp:367] scale4 -> conv4 (in-place)
I0601 10:22:19.173740 12623 layer_factory.hpp:77] Creating layer scale4
I0601 10:22:19.173826 12623 net.cpp:122] Setting up scale4
I0601 10:22:19.173832 12623 net.cpp:129] Top shape: 32 128 2048 1 (8388608)
I0601 10:22:19.173835 12623 net.cpp:137] Memory required for data: 2981108864
I0601 10:22:19.173840 12623 layer_factory.hpp:77] Creating layer relu4
I0601 10:22:19.173843 12623 net.cpp:84] Creating Layer relu4
I0601 10:22:19.173846 12623 net.cpp:406] relu4 <- conv4
I0601 10:22:19.173849 12623 net.cpp:367] relu4 -> conv4 (in-place)
I0601 10:22:19.174000 12623 net.cpp:122] Setting up relu4
I0601 10:22:19.174008 12623 net.cpp:129] Top shape: 32 128 2048 1 (8388608)
I0601 10:22:19.174011 12623 net.cpp:137] Memory required for data: 3014663296
I0601 10:22:19.174023 12623 layer_factory.hpp:77] Creating layer conv5
I0601 10:22:19.174031 12623 net.cpp:84] Creating Layer conv5
I0601 10:22:19.174036 12623 net.cpp:406] conv5 <- conv4
I0601 10:22:19.174041 12623 net.cpp:380] conv5 -> conv5
I0601 10:22:19.176039 12623 net.cpp:122] Setting up conv5
I0601 10:22:19.176051 12623 net.cpp:129] Top shape: 32 1024 2048 1 (67108864)
I0601 10:22:19.176055 12623 net.cpp:137] Memory required for data: 3283098752
I0601 10:22:19.176060 12623 layer_factory.hpp:77] Creating layer bn5
I0601 10:22:19.176065 12623 net.cpp:84] Creating Layer bn5
I0601 10:22:19.176069 12623 net.cpp:406] bn5 <- conv5
I0601 10:22:19.176074 12623 net.cpp:367] bn5 -> conv5 (in-place)
I0601 10:22:19.176237 12623 net.cpp:122] Setting up bn5
I0601 10:22:19.176244 12623 net.cpp:129] Top shape: 32 1024 2048 1 (67108864)
I0601 10:22:19.176245 12623 net.cpp:137] Memory required for data: 3551534208
I0601 10:22:19.176251 12623 layer_factory.hpp:77] Creating layer scale5
I0601 10:22:19.176256 12623 net.cpp:84] Creating Layer scale5
I0601 10:22:19.176259 12623 net.cpp:406] scale5 <- conv5
I0601 10:22:19.176262 12623 net.cpp:367] scale5 -> conv5 (in-place)
I0601 10:22:19.176293 12623 layer_factory.hpp:77] Creating layer scale5
I0601 10:22:19.176386 12623 net.cpp:122] Setting up scale5
I0601 10:22:19.176393 12623 net.cpp:129] Top shape: 32 1024 2048 1 (67108864)
I0601 10:22:19.176395 12623 net.cpp:137] Memory required for data: 3819969664
I0601 10:22:19.176399 12623 layer_factory.hpp:77] Creating layer relu5
I0601 10:22:19.176403 12623 net.cpp:84] Creating Layer relu5
I0601 10:22:19.176406 12623 net.cpp:406] relu5 <- conv5
I0601 10:22:19.176410 12623 net.cpp:367] relu5 -> conv5 (in-place)
I0601 10:22:19.176705 12623 net.cpp:122] Setting up relu5
I0601 10:22:19.176717 12623 net.cpp:129] Top shape: 32 1024 2048 1 (67108864)
I0601 10:22:19.176720 12623 net.cpp:137] Memory required for data: 4088405120
I0601 10:22:19.176723 12623 layer_factory.hpp:77] Creating layer pool
I0601 10:22:19.176728 12623 net.cpp:84] Creating Layer pool
I0601 10:22:19.176731 12623 net.cpp:406] pool <- conv5
I0601 10:22:19.176736 12623 net.cpp:380] pool -> global_feat
I0601 10:22:19.176775 12623 net.cpp:122] Setting up pool
I0601 10:22:19.176781 12623 net.cpp:129] Top shape: 32 1024 1 1 (32768)
I0601 10:22:19.176784 12623 net.cpp:137] Memory required for data: 4088536192
I0601 10:22:19.176786 12623 layer_factory.hpp:77] Creating layer fc1
I0601 10:22:19.176792 12623 net.cpp:84] Creating Layer fc1
I0601 10:22:19.176795 12623 net.cpp:406] fc1 <- global_feat
I0601 10:22:19.176800 12623 net.cpp:380] fc1 -> fc1
I0601 10:22:19.189651 12623 net.cpp:122] Setting up fc1
I0601 10:22:19.189677 12623 net.cpp:129] Top shape: 32 512 (16384)
I0601 10:22:19.189680 12623 net.cpp:137] Memory required for data: 4088601728
I0601 10:22:19.189690 12623 layer_factory.hpp:77] Creating layer bn6
I0601 10:22:19.189698 12623 net.cpp:84] Creating Layer bn6
I0601 10:22:19.189703 12623 net.cpp:406] bn6 <- fc1
I0601 10:22:19.189709 12623 net.cpp:367] bn6 -> fc1 (in-place)
I0601 10:22:19.189878 12623 net.cpp:122] Setting up bn6
I0601 10:22:19.189885 12623 net.cpp:129] Top shape: 32 512 (16384)
I0601 10:22:19.189888 12623 net.cpp:137] Memory required for data: 4088667264
I0601 10:22:19.189893 12623 layer_factory.hpp:77] Creating layer scale6
I0601 10:22:19.189898 12623 net.cpp:84] Creating Layer scale6
I0601 10:22:19.189901 12623 net.cpp:406] scale6 <- fc1
I0601 10:22:19.189905 12623 net.cpp:367] scale6 -> fc1 (in-place)
I0601 10:22:19.189939 12623 layer_factory.hpp:77] Creating layer scale6
I0601 10:22:19.190042 12623 net.cpp:122] Setting up scale6
I0601 10:22:19.190047 12623 net.cpp:129] Top shape: 32 512 (16384)
I0601 10:22:19.190049 12623 net.cpp:137] Memory required for data: 4088732800
I0601 10:22:19.190054 12623 layer_factory.hpp:77] Creating layer relu6
I0601 10:22:19.190058 12623 net.cpp:84] Creating Layer relu6
I0601 10:22:19.190062 12623 net.cpp:406] relu6 <- fc1
I0601 10:22:19.190065 12623 net.cpp:367] relu6 -> fc1 (in-place)
I0601 10:22:19.190284 12623 net.cpp:122] Setting up relu6
I0601 10:22:19.190292 12623 net.cpp:129] Top shape: 32 512 (16384)
I0601 10:22:19.190295 12623 net.cpp:137] Memory required for data: 4088798336
I0601 10:22:19.190297 12623 layer_factory.hpp:77] Creating layer fc2
I0601 10:22:19.190304 12623 net.cpp:84] Creating Layer fc2
I0601 10:22:19.190307 12623 net.cpp:406] fc2 <- fc1
I0601 10:22:19.190312 12623 net.cpp:380] fc2 -> fc2
I0601 10:22:19.193205 12623 net.cpp:122] Setting up fc2
I0601 10:22:19.193213 12623 net.cpp:129] Top shape: 32 256 (8192)
I0601 10:22:19.193217 12623 net.cpp:137] Memory required for data: 4088831104
I0601 10:22:19.193220 12623 layer_factory.hpp:77] Creating layer bn7
I0601 10:22:19.193225 12623 net.cpp:84] Creating Layer bn7
I0601 10:22:19.193228 12623 net.cpp:406] bn7 <- fc2
I0601 10:22:19.193231 12623 net.cpp:367] bn7 -> fc2 (in-place)
I0601 10:22:19.193388 12623 net.cpp:122] Setting up bn7
I0601 10:22:19.193393 12623 net.cpp:129] Top shape: 32 256 (8192)
I0601 10:22:19.193397 12623 net.cpp:137] Memory required for data: 4088863872
I0601 10:22:19.193401 12623 layer_factory.hpp:77] Creating layer scale7
I0601 10:22:19.193405 12623 net.cpp:84] Creating Layer scale7
I0601 10:22:19.193408 12623 net.cpp:406] scale7 <- fc2
I0601 10:22:19.193411 12623 net.cpp:367] scale7 -> fc2 (in-place)
I0601 10:22:19.193444 12623 layer_factory.hpp:77] Creating layer scale7
I0601 10:22:19.193531 12623 net.cpp:122] Setting up scale7
I0601 10:22:19.193536 12623 net.cpp:129] Top shape: 32 256 (8192)
I0601 10:22:19.193538 12623 net.cpp:137] Memory required for data: 4088896640
I0601 10:22:19.193543 12623 layer_factory.hpp:77] Creating layer relu7
I0601 10:22:19.193547 12623 net.cpp:84] Creating Layer relu7
I0601 10:22:19.193550 12623 net.cpp:406] relu7 <- fc2
I0601 10:22:19.193553 12623 net.cpp:367] relu7 -> fc2 (in-place)
I0601 10:22:19.193918 12623 net.cpp:122] Setting up relu7
I0601 10:22:19.193929 12623 net.cpp:129] Top shape: 32 256 (8192)
I0601 10:22:19.193931 12623 net.cpp:137] Memory required for data: 4088929408
I0601 10:22:19.193935 12623 layer_factory.hpp:77] Creating layer drop1
I0601 10:22:19.193940 12623 net.cpp:84] Creating Layer drop1
I0601 10:22:19.193944 12623 net.cpp:406] drop1 <- fc2
I0601 10:22:19.193949 12623 net.cpp:380] drop1 -> drop1
I0601 10:22:19.193987 12623 net.cpp:122] Setting up drop1
I0601 10:22:19.193994 12623 net.cpp:129] Top shape: 32 256 (8192)
I0601 10:22:19.193995 12623 net.cpp:137] Memory required for data: 4088962176
I0601 10:22:19.193998 12623 layer_factory.hpp:77] Creating layer fc3
I0601 10:22:19.194003 12623 net.cpp:84] Creating Layer fc3
I0601 10:22:19.194006 12623 net.cpp:406] fc3 <- drop1
I0601 10:22:19.194011 12623 net.cpp:380] fc3 -> fc3
I0601 10:22:19.194329 12623 net.cpp:122] Setting up fc3
I0601 10:22:19.194335 12623 net.cpp:129] Top shape: 32 40 (1280)
I0601 10:22:19.194339 12623 net.cpp:137] Memory required for data: 4088967296
I0601 10:22:19.194344 12623 layer_factory.hpp:77] Creating layer fc3_fc3_0_split
I0601 10:22:19.194348 12623 net.cpp:84] Creating Layer fc3_fc3_0_split
I0601 10:22:19.194351 12623 net.cpp:406] fc3_fc3_0_split <- fc3
I0601 10:22:19.194355 12623 net.cpp:380] fc3_fc3_0_split -> fc3_fc3_0_split_0
I0601 10:22:19.194360 12623 net.cpp:380] fc3_fc3_0_split -> fc3_fc3_0_split_1
I0601 10:22:19.194391 12623 net.cpp:122] Setting up fc3_fc3_0_split
I0601 10:22:19.194396 12623 net.cpp:129] Top shape: 32 40 (1280)
I0601 10:22:19.194399 12623 net.cpp:129] Top shape: 32 40 (1280)
I0601 10:22:19.194402 12623 net.cpp:137] Memory required for data: 4088977536
I0601 10:22:19.194404 12623 layer_factory.hpp:77] Creating layer accuracy
I0601 10:22:19.194409 12623 net.cpp:84] Creating Layer accuracy
I0601 10:22:19.194413 12623 net.cpp:406] accuracy <- fc3_fc3_0_split_0
I0601 10:22:19.194417 12623 net.cpp:406] accuracy <- label_data_1_split_0
I0601 10:22:19.194422 12623 net.cpp:380] accuracy -> accuracy
…
