…
D 0
I0807 15:37:05.304072 25923 caffe.cpp:270] GPU device name: Tesla K40c
I0807 15:37:05.495018 25923 net.cpp:294] The NetState phase (1) differed from the phase (0) specified by a rule in layer data
I0807 15:37:05.495427 25923 net.cpp:51] Initializing net from parameters: 
name: "pointnet_cls_basic"
state {
  phase: TEST
  level: 0
  stage: ""
}
layer {
  name: "data"
  type: "HDF5Data"
  top: "data"
  top: "label"
  include {
    phase: TEST
  }
  hdf5_data_param {
    source: "data/modelnet40_ply_hdf5_2048/test_files.txt"
    batch_size: 32
  }
}
layer {
  name: "reshape"
  type: "Reshape"
  bottom: "data"
  top: "data_reshape"
  reshape_param {
    shape {
      dim: 0
      dim: 1
      dim: -1
      dim: 3
    }
  }
}
layer {
  name: "conv1_tnet1"
  type: "Convolution"
  bottom: "data_reshape"
  top: "conv1_tnet1"
  param {
    lr_mult: 1
  }
  param {
    lr_mult: 2
  }
  convolution_param {
    num_output: 64
    pad: 0
    stride: 1
    weight_filler {
      type: "xavier"
    }
    bias_filler {
      type: "constant"
      value: 0
    }
    kernel_h: 1
    kernel_w: 3
  }
}
layer {
  name: "bn1_tnet1"
  type: "BatchNorm"
  bottom: "conv1_tnet1"
  top: "conv1_tnet1"
}
layer {
  name: "scale1_tnet1"
  type: "Scale"
  bottom: "conv1_tnet1"
  top: "conv1_tnet1"
  scale_param {
    bias_term: true
  }
}
layer {
  name: "relu1_tnet1"
  type: "ReLU"
  bottom: "conv1_tnet1"
  top: "conv1_tnet1"
}
layer {
  name: "conv2_tnet1"
  type: "Convolution"
  bottom: "conv1_tnet1"
  top: "conv2_tnet1"
  param {
    lr_mult: 1
  }
  param {
    lr_mult: 2
  }
  convolution_param {
    num_output: 128
    pad: 0
    stride: 1
    weight_filler {
      type: "xavier"
    }
    bias_filler {
      type: "constant"
      value: 0
    }
    kernel_h: 1
    kernel_w: 1
  }
}
layer {
  name: "bn2_tnet1"
  type: "BatchNorm"
  bottom: "conv2_tnet1"
  top: "conv2_tnet1"
}
layer {
  name: "scale2_tnet1"
  type: "Scale"
  bottom: "conv2_tnet1"
  top: "conv2_tnet1"
  scale_param {
    bias_term: true
  }
}
layer {
  name: "relu2_tnet1"
  type: "ReLU"
  bottom: "conv2_tnet1"
  top: "conv2_tnet1"
}
layer {
  name: "conv3_tnet1"
  type: "Convolution"
  bottom: "conv2_tnet1"
  top: "conv3_tnet1"
  param {
    lr_mult: 1
  }
  param {
    lr_mult: 2
  }
  convolution_param {
    num_output: 1024
    pad: 0
    stride: 1
    weight_filler {
      type: "xavier"
    }
    bias_filler {
      type: "constant"
      value: 0
    }
    kernel_h: 1
    kernel_w: 1
  }
}
layer {
  name: "bn3_tnet1"
  type: "BatchNorm"
  bottom: "conv3_tnet1"
  top: "conv3_tnet1"
}
layer {
  name: "scale3_tnet1"
  type: "Scale"
  bottom: "conv3_tnet1"
  top: "conv3_tnet1"
  scale_param {
    bias_term: true
  }
}
layer {
  name: "relu3_tnet1"
  type: "ReLU"
  bottom: "conv3_tnet1"
  top: "conv3_tnet1"
}
layer {
  name: "pool_tnet1"
  type: "Pooling"
  bottom: "conv3_tnet1"
  top: "global_feat_tnet1"
  pooling_param {
    pool: MAX
    stride: 1
    pad: 0
    kernel_h: 2048
    kernel_w: 1
  }
}
layer {
  name: "fc1_tnet1"
  type: "InnerProduct"
  bottom: "global_feat_tnet1"
  top: "fc1_tnet1"
  param {
    lr_mult: 1
    decay_mult: 1
  }
  param {
    lr_mult: 1
    decay_mult: 1
  }
  inner_product_param {
    num_output: 512
    weight_filler {
      type: "gaussian"
      std: 0.001
    }
    bias_filler {
      type: "constant"
      value: 0
    }
  }
}
layer {
  name: "bn6_tnet1"
  type: "BatchNorm"
  bottom: "fc1_tnet1"
  top: "fc1_tnet1"
}
layer {
  name: "scale6_tnet1"
  type: "Scale"
  bottom: "fc1_tnet1"
  top: "fc1_tnet1"
  scale_param {
    bias_term: true
  }
}
layer {
  name: "relu6_tnet1"
  type: "ReLU"
  bottom: "fc1_tnet1"
  top: "fc1_tnet1"
}
layer {
  name: "fc2_tnet1"
  type: "InnerProduct"
  bottom: "fc1_tnet1"
  top: "fc2_tnet1"
  param {
    lr_mult: 1
    decay_mult: 1
  }
  param {
    lr_mult: 1
    decay_mult: 1
  }
  inner_product_param {
    num_output: 256
    weight_filler {
      type: "gaussian"
      std: 0.001
    }
    bias_filler {
      type: "constant"
      value: 0
    }
  }
}
layer {
  name: "bn7_tnet1"
  type: "BatchNorm"
  bottom: "fc2_tnet1"
  top: "fc2_tnet1"
}
layer {
  name: "scale7_tnet1"
  type: "Scale"
  bottom: "fc2_tnet1"
  top: "fc2_tnet1"
  scale_param {
    bias_term: true
  }
}
layer {
  name: "relu7_tnet1"
  type: "ReLU"
  bottom: "fc2_tnet1"
  top: "fc2_tnet1"
}
layer {
  name: "fc3_tnet1"
  type: "InnerProduct"
  bottom: "fc2_tnet1"
  top: "fc3_tnet1"
  param {
    lr_mult: 1
    decay_mult: 1
  }
  param {
    lr_mult: 1
    decay_mult: 1
  }
  inner_product_param {
    num_output: 9
    weight_filler {
      type: "constant"
      value: 0
    }
    bias_filler {
      type: "constant"
      value: 0
    }
  }
}
layer {
  name: "reshape_tnet1"
  type: "Reshape"
  bottom: "fc3_tnet1"
  top: "fc3_tnet1_reshape"
  reshape_param {
    shape {
      dim: -1
      dim: 3
      dim: 3
    }
  }
}
layer {
  name: "eye_tnet1"
  type: "Python"
  bottom: "fc3_tnet1"
  top: "eye_tnet1"
  python_param {
    module: "eye_matrix_layer"
    layer: "EyeMatrixLayer"
    param_str: "{\'K\': 3}"
  }
}
layer {
  name: "eltwise_sum_tnet1"
  type: "Eltwise"
  bottom: "fc3_tnet1_reshape"
  bottom: "eye_tnet1"
  top: "transform1"
  eltwise_param {
    operation: SUM
  }
}
layer {
  name: "matmul_input"
  type: "MatrixMultiplication"
  bottom: "data"
  bottom: "transform1"
  top: "data_transform1"
}
layer {
  name: "reshape_input_data"
  type: "Reshape"
  bottom: "data_transform1"
  top: "data_transform1_reshape"
  reshape_param {
    shape {
      dim: 0
      dim: 1
      dim: -1
      dim: 3
    }
  }
}
layer {
  name: "conv1"
  type: "Convolution"
  bottom: "data_transform1_reshape"
  top: "conv1"
  param {
    lr_mult: 1
  }
  param {
    lr_mult: 2
  }
  convolution_param {
    num_output: 64
    pad: 0
    stride: 1
    weight_filler {
      type: "xavier"
    }
    bias_filler {
      type: "constant"
      value: 0
    }
    kernel_h: 1
    kernel_w: 3
  }
}
layer {
  name: "bn1"
  type: "BatchNorm"
  bottom: "conv1"
  top: "conv1"
}
layer {
  name: "scale1"
  type: "Scale"
  bottom: "conv1"
  top: "conv1"
  scale_param {
    bias_term: true
  }
}
layer {
  name: "relu1"
  type: "ReLU"
  bottom: "conv1"
  top: "conv1"
}
layer {
  name: "conv2"
  type: "Convolution"
  bottom: "conv1"
  top: "conv2"
  param {
    lr_mult: 1
  }
  param {
    lr_mult: 2
  }
  convolution_param {
    num_output: 64
    pad: 0
    stride: 1
    weight_filler {
      type: "xavier"
    }
    bias_filler {
      type: "constant"
      value: 0
    }
    kernel_h: 1
    kernel_w: 1
  }
}
layer {
  name: "bn2"
  type: "BatchNorm"
  bottom: "conv2"
  top: "conv2"
}
layer {
  name: "scale2"
  type: "Scale"
  bottom: "conv2"
  top: "conv2"
  scale_param {
    bias_term: true
  }
}
layer {
  name: "relu2"
  type: "ReLU"
  bottom: "conv2"
  top: "conv2"
}
layer {
  name: "conv1_tnet2"
  type: "Convolution"
  bottom: "conv2"
  top: "conv1_tnet2"
  param {
    lr_mult: 1
  }
  param {
    lr_mult: 2
  }
  convolution_param {
    num_output: 64
    pad: 0
    stride: 1
    weight_filler {
      type: "xavier"
    }
    bias_filler {
      type: "constant"
      value: 0
    }
    kernel_h: 1
    kernel_w: 1
  }
}
layer {
  name: "bn1_tnet2"
  type: "BatchNorm"
  bottom: "conv1_tnet2"
  top: "conv1_tnet2"
}
layer {
  name: "scale1_tnet2"
  type: "Scale"
  bottom: "conv1_tnet2"
  top: "conv1_tnet2"
  scale_param {
    bias_term: true
  }
}
layer {
  name: "relu1_tnet2"
  type: "ReLU"
  bottom: "conv1_tnet2"
  top: "conv1_tnet2"
}
layer {
  name: "conv2_tnet2"
  type: "Convolution"
  bottom: "conv1_tnet2"
  top: "conv2_tnet2"
  param {
    lr_mult: 1
  }
  param {
    lr_mult: 2
  }
  convolution_param {
    num_output: 128
    pad: 0
    stride: 1
    weight_filler {
      type: "xavier"
    }
    bias_filler {
      type: "constant"
      value: 0
    }
    kernel_h: 1
    kernel_w: 1
  }
}
layer {
  name: "bn2_tnet2"
  type: "BatchNorm"
  bottom: "conv2_tnet2"
  top: "conv2_tnet2"
}
layer {
  name: "scale2_tnet2"
  type: "Scale"
  bottom: "conv2_tnet2"
  top: "conv2_tnet2"
  scale_param {
    bias_term: true
  }
}
layer {
  name: "relu2_tnet2"
  type: "ReLU"
  bottom: "conv2_tnet2"
  top: "conv2_tnet2"
}
layer {
  name: "conv3_tnet2"
  type: "Convolution"
  bottom: "conv2_tnet2"
  top: "conv3_tnet2"
  param {
    lr_mult: 1
  }
  param {
    lr_mult: 2
  }
  convolution_param {
    num_output: 1024
    pad: 0
    stride: 1
    weight_filler {
      type: "xavier"
    }
    bias_filler {
      type: "constant"
      value: 0
    }
    kernel_h: 1
    kernel_w: 1
  }
}
layer {
  name: "bn3_tnet2"
  type: "BatchNorm"
  bottom: "conv3_tnet2"
  top: "conv3_tnet2"
}
layer {
  name: "scale3_tnet2"
  type: "Scale"
  bottom: "conv3_tnet2"
  top: "conv3_tnet2"
  scale_param {
    bias_term: true
  }
}
layer {
  name: "relu3_tnet2"
  type: "ReLU"
  bottom: "conv3_tnet2"
  top: "conv3_tnet2"
}
layer {
  name: "pool_tnet2"
  type: "Pooling"
  bottom: "conv3_tnet2"
  top: "global_feat_tnet2"
  pooling_param {
    pool: MAX
    stride: 1
    pad: 0
    kernel_h: 2048
    kernel_w: 1
  }
}
layer {
  name: "fc1_tnet2"
  type: "InnerProduct"
  bottom: "global_feat_tnet2"
  top: "fc1_tnet2"
  param {
    lr_mult: 1
    decay_mult: 1
  }
  param {
    lr_mult: 1
    decay_mult: 1
  }
  inner_product_param {
    num_output: 512
    weight_filler {
      type: "gaussian"
      std: 0.001
    }
    bias_filler {
      type: "constant"
      value: 0
    }
  }
}
layer {
  name: "bn6_tnet2"
  type: "BatchNorm"
  bottom: "fc1_tnet2"
  top: "fc1_tnet2"
}
layer {
  name: "scale6_tnet2"
  type: "Scale"
  bottom: "fc1_tnet2"
  top: "fc1_tnet2"
  scale_param {
    bias_term: true
  }
}
layer {
  name: "relu6_tnet2"
  type: "ReLU"
  bottom: "fc1_tnet2"
  top: "fc1_tnet2"
}
layer {
  name: "fc2_tnet2"
  type: "InnerProduct"
  bottom: "fc1_tnet2"
  top: "fc2_tnet2"
  param {
    lr_mult: 1
    decay_mult: 1
  }
  param {
    lr_mult: 1
    decay_mult: 1
  }
  inner_product_param {
    num_output: 256
    weight_filler {
      type: "gaussian"
      std: 0.001
    }
    bias_filler {
      type: "constant"
      value: 0
    }
  }
}
layer {
  name: "bn7_tnet2"
  type: "BatchNorm"
  bottom: "fc2_tnet2"
  top: "fc2_tnet2"
}
layer {
  name: "scale7_tnet2"
  type: "Scale"
  bottom: "fc2_tnet2"
  top: "fc2_tnet2"
  scale_param {
    bias_term: true
  }
}
layer {
  name: "relu7_tnet2"
  type: "ReLU"
  bottom: "fc2_tnet2"
  top: "fc2_tnet2"
}
layer {
  name: "fc3_tnet2"
  type: "InnerProduct"
  bottom: "fc2_tnet2"
  top: "fc3_tnet2"
  param {
    lr_mult: 1
    decay_mult: 1
  }
  param {
    lr_mult: 1
    decay_mult: 1
  }
  inner_product_param {
    num_output: 4096
    weight_filler {
      type: "constant"
      value: 0
    }
    bias_filler {
      type: "constant"
      value: 0
    }
  }
}
layer {
  name: "reshape_tnet2"
  type: "Reshape"
  bottom: "fc3_tnet2"
  top: "fc3_tnet2_reshape"
  reshape_param {
    shape {
      dim: -1
      dim: 64
      dim: 64
    }
  }
}
layer {
  name: "eye_tnet2"
  type: "Python"
  bottom: "fc3_tnet2"
  top: "eye_tnet2"
  python_param {
    module: "eye_matrix_layer"
    layer: "EyeMatrixLayer"
    param_str: "{\'K\': 64}"
  }
}
layer {
  name: "eltwise_sum_tnet2"
  type: "Eltwise"
  bottom: "fc3_tnet2_reshape"
  bottom: "eye_tnet2"
  top: "transform2"
  eltwise_param {
    operation: SUM
  }
}
layer {
  name: "perm_scale2"
  type: "Permute"
  bottom: "conv2"
  top: "scale2_permute"
  permute_param {
    order: 0
    order: 2
    order: 1
    order: 3
  }
}
layer {
  name: "reshape_scale2"
  type: "Reshape"
  bottom: "scale2_permute"
  top: "scale2_reshape"
  reshape_param {
    shape {
      dim: 0
      dim: -1
      dim: 64
    }
  }
}
layer {
  name: "matmul_feat"
  type: "MatrixMultiplication"
  bottom: "scale2_reshape"
  bottom: "transform2"
  top: "scale2_transform2"
}
layer {
  name: "perm_scale2_transform2"
  type: "Permute"
  bottom: "scale2_transform2"
  top: "scale2_permute_transform2"
  permute_param {
    order: 0
    order: 2
    order: 1
  }
}
layer {
  name: "reshape_scale2_transform2"
  type: "Reshape"
  bottom: "scale2_permute_transform2"
  top: "scale2_transform2_reshape"
  reshape_param {
    shape {
      dim: 0
      dim: 0
      dim: 0
      dim: 1
    }
  }
}
layer {
  name: "conv3"
  type: "Convolution"
  bottom: "scale2_transform2_reshape"
  top: "conv3"
  param {
    lr_mult: 1
  }
  param {
    lr_mult: 2
  }
  convolution_param {
    num_output: 64
    pad: 0
    stride: 1
    weight_filler {
      type: "xavier"
    }
    bias_filler {
      type: "constant"
      value: 0
    }
    kernel_h: 1
    kernel_w: 1
  }
}
layer {
  name: "bn3"
  type: "BatchNorm"
  bottom: "conv3"
  top: "conv3"
}
layer {
  name: "scale3"
  type: "Scale"
  bottom: "conv3"
  top: "conv3"
  scale_param {
    bias_term: true
  }
}
layer {
  name: "relu3"
  type: "ReLU"
  bottom: "conv3"
  top: "conv3"
}
layer {
  name: "conv4"
  type: "Convolution"
  bottom: "conv3"
  top: "conv4"
  param {
    lr_mult: 1
  }
  param {
    lr_mult: 2
  }
  convolution_param {
    num_output: 128
    pad: 0
    stride: 1
    weight_filler {
      type: "xavier"
    }
    bias_filler {
      type: "constant"
      value: 0
    }
    kernel_h: 1
    kernel_w: 1
  }
}
layer {
  name: "bn4"
  type: "BatchNorm"
  bottom: "conv4"
  top: "conv4"
}
layer {
  name: "scale4"
  type: "Scale"
  bottom: "conv4"
  top: "conv4"
  scale_param {
    bias_term: true
  }
}
layer {
  name: "relu4"
  type: "ReLU"
  bottom: "conv4"
  top: "conv4"
}
layer {
  name: "conv5"
  type: "Convolution"
  bottom: "conv4"
  top: "conv5"
  param {
    lr_mult: 1
  }
  param {
    lr_mult: 2
  }
  convolution_param {
    num_output: 1024
    pad: 0
    stride: 1
    weight_filler {
      type: "xavier"
    }
    bias_filler {
      type: "constant"
      value: 0
    }
    kernel_h: 1
    kernel_w: 1
  }
}
layer {
  name: "bn5"
  type: "BatchNorm"
  bottom: "conv5"
  top: "conv5"
}
layer {
  name: "scale5"
  type: "Scale"
  bottom: "conv5"
  top: "conv5"
  scale_param {
    bias_term: true
  }
}
layer {
  name: "relu5"
  type: "ReLU"
  bottom: "conv5"
  top: "conv5"
}
layer {
  name: "pool"
  type: "Pooling"
  bottom: "conv5"
  top: "global_feat"
  pooling_param {
    pool: MAX
    stride: 1
    pad: 0
    kernel_h: 2048
    kernel_w: 1
  }
}
layer {
  name: "fc1"
  type: "InnerProduct"
  bottom: "global_feat"
  top: "fc1"
  param {
    lr_mult: 1
    decay_mult: 1
  }
  param {
    lr_mult: 1
    decay_mult: 1
  }
  inner_product_param {
    num_output: 512
    weight_filler {
      type: "gaussian"
      std: 0.001
    }
    bias_filler {
      type: "constant"
      value: 0
    }
  }
}
layer {
  name: "bn6"
  type: "BatchNorm"
  bottom: "fc1"
  top: "fc1"
}
layer {
  name: "scale6"
  type: "Scale"
  bottom: "fc1"
  top: "fc1"
  scale_param {
    bias_term: true
  }
}
layer {
  name: "relu6"
  type: "ReLU"
  bottom: "fc1"
  top: "fc1"
}
layer {
  name: "fc2"
  type: "InnerProduct"
  bottom: "fc1"
  top: "fc2"
  param {
    lr_mult: 1
    decay_mult: 1
  }
  param {
    lr_mult: 1
    decay_mult: 1
  }
  inner_product_param {
    num_output: 256
    weight_filler {
      type: "gaussian"
      std: 0.001
    }
    bias_filler {
      type: "constant"
      value: 0
    }
  }
}
layer {
  name: "bn7"
  type: "BatchNorm"
  bottom: "fc2"
  top: "fc2"
}
layer {
  name: "scale7"
  type: "Scale"
  bottom: "fc2"
  top: "fc2"
  scale_param {
    bias_term: true
  }
}
layer {
  name: "relu7"
  type: "ReLU"
  bottom: "fc2"
  top: "fc2"
}
layer {
  name: "drop1"
  type: "Dropout"
  bottom: "fc2"
  top: "drop1"
  dropout_param {
    dropout_ratio: 0.3
  }
}
layer {
  name: "fc3"
  type: "InnerProduct"
  bottom: "drop1"
  top: "fc3"
  param {
    lr_mult: 1
    decay_mult: 1
  }
  param {
    lr_mult: 1
    decay_mult: 1
  }
  inner_product_param {
    num_output: 40
    weight_filler {
      type: "gaussian"
      std: 0.001
    }
    bias_filler {
      type: "constant"
      value: 0
    }
  }
}
layer {
  name: "accuracy"
  type: "Accuracy"
  bottom: "fc3"
  bottom: "label"
  top: "accuracy"
  include {
    phase: TEST
  }
}
layer {
  name: "loss"
  type: "SoftmaxWithLoss"
  bottom: "fc3"
  bottom: "label"
  top: "loss"
}
layer {
  name: "perm_loss_transform2"
  type: "Permute"
  bottom: "transform2"
  top: "transform2_transpose"
  permute_param {
    order: 0
    order: 2
    order: 1
  }
}
layer {
  name: "matmul_feat_loss"
  type: "MatrixMultiplication"
  bottom: "transform2"
  bottom: "transform2_transpose"
  top: "transform2_mul"
}
layer {
  name: "loss_feat"
  type: "EuclideanLoss"
  bottom: "transform2_mul"
  bottom: "eye_tnet2"
  top: "loss_feat"
  loss_weight: 0.001
}
I0807 15:37:05.495729 25923 layer_factory.hpp:77] Creating layer data
I0807 15:37:05.495743 25923 net.cpp:84] Creating Layer data
I0807 15:37:05.495748 25923 net.cpp:380] data -> data
I0807 15:37:05.495764 25923 net.cpp:380] data -> label
I0807 15:37:05.495771 25923 hdf5_data_layer.cpp:80] Loading list of HDF5 filenames from: data/modelnet40_ply_hdf5_2048/test_files.txt
I0807 15:37:05.495801 25923 hdf5_data_layer.cpp:94] Number of HDF5 files: 2
I0807 15:37:05.496400 25923 hdf5.cpp:32] Datatype class: H5T_FLOAT
I0807 15:37:05.839654 25923 hdf5.cpp:35] Datatype class: H5T_INTEGER
I0807 15:37:05.840345 25923 net.cpp:122] Setting up data
I0807 15:37:05.840363 25923 net.cpp:129] Top shape: 32 2048 3 (196608)
I0807 15:37:05.840366 25923 net.cpp:129] Top shape: 32 1 (32)
I0807 15:37:05.840370 25923 net.cpp:137] Memory required for data: 786560
I0807 15:37:05.840376 25923 layer_factory.hpp:77] Creating layer data_data_0_split
I0807 15:37:05.840385 25923 net.cpp:84] Creating Layer data_data_0_split
I0807 15:37:05.840391 25923 net.cpp:406] data_data_0_split <- data
I0807 15:37:05.840399 25923 net.cpp:380] data_data_0_split -> data_data_0_split_0
I0807 15:37:05.840409 25923 net.cpp:380] data_data_0_split -> data_data_0_split_1
I0807 15:37:05.840435 25923 net.cpp:122] Setting up data_data_0_split
I0807 15:37:05.840440 25923 net.cpp:129] Top shape: 32 2048 3 (196608)
I0807 15:37:05.840442 25923 net.cpp:129] Top shape: 32 2048 3 (196608)
I0807 15:37:05.840445 25923 net.cpp:137] Memory required for data: 2359424
I0807 15:37:05.840447 25923 layer_factory.hpp:77] Creating layer label_data_1_split
I0807 15:37:05.840452 25923 net.cpp:84] Creating Layer label_data_1_split
I0807 15:37:05.840456 25923 net.cpp:406] label_data_1_split <- label
I0807 15:37:05.840458 25923 net.cpp:380] label_data_1_split -> label_data_1_split_0
I0807 15:37:05.840463 25923 net.cpp:380] label_data_1_split -> label_data_1_split_1
I0807 15:37:05.840483 25923 net.cpp:122] Setting up label_data_1_split
I0807 15:37:05.840488 25923 net.cpp:129] Top shape: 32 1 (32)
I0807 15:37:05.840492 25923 net.cpp:129] Top shape: 32 1 (32)
I0807 15:37:05.840494 25923 net.cpp:137] Memory required for data: 2359680
I0807 15:37:05.840497 25923 layer_factory.hpp:77] Creating layer reshape
I0807 15:37:05.840503 25923 net.cpp:84] Creating Layer reshape
I0807 15:37:05.840507 25923 net.cpp:406] reshape <- data_data_0_split_0
I0807 15:37:05.840510 25923 net.cpp:380] reshape -> data_reshape
I0807 15:37:05.840531 25923 net.cpp:122] Setting up reshape
I0807 15:37:05.840538 25923 net.cpp:129] Top shape: 32 1 2048 3 (196608)
I0807 15:37:05.840539 25923 net.cpp:137] Memory required for data: 3146112
I0807 15:37:05.840543 25923 layer_factory.hpp:77] Creating layer conv1_tnet1
I0807 15:37:05.840554 25923 net.cpp:84] Creating Layer conv1_tnet1
I0807 15:37:05.840559 25923 net.cpp:406] conv1_tnet1 <- data_reshape
I0807 15:37:05.840562 25923 net.cpp:380] conv1_tnet1 -> conv1_tnet1
I0807 15:37:06.089818 25923 net.cpp:122] Setting up conv1_tnet1
I0807 15:37:06.089845 25923 net.cpp:129] Top shape: 32 64 2048 1 (4194304)
I0807 15:37:06.089849 25923 net.cpp:137] Memory required for data: 19923328
I0807 15:37:06.089866 25923 layer_factory.hpp:77] Creating layer bn1_tnet1
I0807 15:37:06.089875 25923 net.cpp:84] Creating Layer bn1_tnet1
I0807 15:37:06.089879 25923 net.cpp:406] bn1_tnet1 <- conv1_tnet1
I0807 15:37:06.089884 25923 net.cpp:367] bn1_tnet1 -> conv1_tnet1 (in-place)
I0807 15:37:06.090039 25923 net.cpp:122] Setting up bn1_tnet1
I0807 15:37:06.090049 25923 net.cpp:129] Top shape: 32 64 2048 1 (4194304)
I0807 15:37:06.090050 25923 net.cpp:137] Memory required for data: 36700544
I0807 15:37:06.090059 25923 layer_factory.hpp:77] Creating layer scale1_tnet1
I0807 15:37:06.090065 25923 net.cpp:84] Creating Layer scale1_tnet1
I0807 15:37:06.090082 25923 net.cpp:406] scale1_tnet1 <- conv1_tnet1
I0807 15:37:06.090087 25923 net.cpp:367] scale1_tnet1 -> conv1_tnet1 (in-place)
I0807 15:37:06.090122 25923 layer_factory.hpp:77] Creating layer scale1_tnet1
I0807 15:37:06.090206 25923 net.cpp:122] Setting up scale1_tnet1
I0807 15:37:06.090212 25923 net.cpp:129] Top shape: 32 64 2048 1 (4194304)
I0807 15:37:06.090215 25923 net.cpp:137] Memory required for data: 53477760
I0807 15:37:06.090220 25923 layer_factory.hpp:77] Creating layer relu1_tnet1
I0807 15:37:06.090225 25923 net.cpp:84] Creating Layer relu1_tnet1
I0807 15:37:06.090227 25923 net.cpp:406] relu1_tnet1 <- conv1_tnet1
I0807 15:37:06.090231 25923 net.cpp:367] relu1_tnet1 -> conv1_tnet1 (in-place)
I0807 15:37:06.090517 25923 net.cpp:122] Setting up relu1_tnet1
I0807 15:37:06.090529 25923 net.cpp:129] Top shape: 32 64 2048 1 (4194304)
I0807 15:37:06.090533 25923 net.cpp:137] Memory required for data: 70254976
I0807 15:37:06.090535 25923 layer_factory.hpp:77] Creating layer conv2_tnet1
I0807 15:37:06.090545 25923 net.cpp:84] Creating Layer conv2_tnet1
I0807 15:37:06.090549 25923 net.cpp:406] conv2_tnet1 <- conv1_tnet1
I0807 15:37:06.090555 25923 net.cpp:380] conv2_tnet1 -> conv2_tnet1
I0807 15:37:06.091869 25923 net.cpp:122] Setting up conv2_tnet1
I0807 15:37:06.091882 25923 net.cpp:129] Top shape: 32 128 2048 1 (8388608)
I0807 15:37:06.091886 25923 net.cpp:137] Memory required for data: 103809408
I0807 15:37:06.091894 25923 layer_factory.hpp:77] Creating layer bn2_tnet1
I0807 15:37:06.091902 25923 net.cpp:84] Creating Layer bn2_tnet1
I0807 15:37:06.091907 25923 net.cpp:406] bn2_tnet1 <- conv2_tnet1
I0807 15:37:06.091912 25923 net.cpp:367] bn2_tnet1 -> conv2_tnet1 (in-place)
I0807 15:37:06.092046 25923 net.cpp:122] Setting up bn2_tnet1
I0807 15:37:06.092052 25923 net.cpp:129] Top shape: 32 128 2048 1 (8388608)
I0807 15:37:06.092056 25923 net.cpp:137] Memory required for data: 137363840
I0807 15:37:06.092061 25923 layer_factory.hpp:77] Creating layer scale2_tnet1
I0807 15:37:06.092067 25923 net.cpp:84] Creating Layer scale2_tnet1
I0807 15:37:06.092069 25923 net.cpp:406] scale2_tnet1 <- conv2_tnet1
I0807 15:37:06.092072 25923 net.cpp:367] scale2_tnet1 -> conv2_tnet1 (in-place)
I0807 15:37:06.092100 25923 layer_factory.hpp:77] Creating layer scale2_tnet1
I0807 15:37:06.092176 25923 net.cpp:122] Setting up scale2_tnet1
I0807 15:37:06.092182 25923 net.cpp:129] Top shape: 32 128 2048 1 (8388608)
I0807 15:37:06.092185 25923 net.cpp:137] Memory required for data: 170918272
I0807 15:37:06.092190 25923 layer_factory.hpp:77] Creating layer relu2_tnet1
I0807 15:37:06.092195 25923 net.cpp:84] Creating Layer relu2_tnet1
I0807 15:37:06.092196 25923 net.cpp:406] relu2_tnet1 <- conv2_tnet1
I0807 15:37:06.092200 25923 net.cpp:367] relu2_tnet1 -> conv2_tnet1 (in-place)
I0807 15:37:06.092346 25923 net.cpp:122] Setting up relu2_tnet1
I0807 15:37:06.092355 25923 net.cpp:129] Top shape: 32 128 2048 1 (8388608)
I0807 15:37:06.092358 25923 net.cpp:137] Memory required for data: 204472704
I0807 15:37:06.092361 25923 layer_factory.hpp:77] Creating layer conv3_tnet1
I0807 15:37:06.092368 25923 net.cpp:84] Creating Layer conv3_tnet1
I0807 15:37:06.092371 25923 net.cpp:406] conv3_tnet1 <- conv2_tnet1
I0807 15:37:06.092376 25923 net.cpp:380] conv3_tnet1 -> conv3_tnet1
I0807 15:37:06.094609 25923 net.cpp:122] Setting up conv3_tnet1
I0807 15:37:06.094622 25923 net.cpp:129] Top shape: 32 1024 2048 1 (67108864)
I0807 15:37:06.094626 25923 net.cpp:137] Memory required for data: 472908160
I0807 15:37:06.094631 25923 layer_factory.hpp:77] Creating layer bn3_tnet1
I0807 15:37:06.094638 25923 net.cpp:84] Creating Layer bn3_tnet1
I0807 15:37:06.094642 25923 net.cpp:406] bn3_tnet1 <- conv3_tnet1
I0807 15:37:06.094646 25923 net.cpp:367] bn3_tnet1 -> conv3_tnet1 (in-place)
I0807 15:37:06.094784 25923 net.cpp:122] Setting up bn3_tnet1
I0807 15:37:06.094790 25923 net.cpp:129] Top shape: 32 1024 2048 1 (67108864)
I0807 15:37:06.094794 25923 net.cpp:137] Memory required for data: 741343616
I0807 15:37:06.094801 25923 layer_factory.hpp:77] Creating layer scale3_tnet1
I0807 15:37:06.094817 25923 net.cpp:84] Creating Layer scale3_tnet1
I0807 15:37:06.094822 25923 net.cpp:406] scale3_tnet1 <- conv3_tnet1
I0807 15:37:06.094826 25923 net.cpp:367] scale3_tnet1 -> conv3_tnet1 (in-place)
I0807 15:37:06.094853 25923 layer_factory.hpp:77] Creating layer scale3_tnet1
I0807 15:37:06.094933 25923 net.cpp:122] Setting up scale3_tnet1
I0807 15:37:06.094939 25923 net.cpp:129] Top shape: 32 1024 2048 1 (67108864)
I0807 15:37:06.094943 25923 net.cpp:137] Memory required for data: 1009779072
I0807 15:37:06.094946 25923 layer_factory.hpp:77] Creating layer relu3_tnet1
I0807 15:37:06.094951 25923 net.cpp:84] Creating Layer relu3_tnet1
I0807 15:37:06.094954 25923 net.cpp:406] relu3_tnet1 <- conv3_tnet1
I0807 15:37:06.094957 25923 net.cpp:367] relu3_tnet1 -> conv3_tnet1 (in-place)
I0807 15:37:06.095247 25923 net.cpp:122] Setting up relu3_tnet1
I0807 15:37:06.095258 25923 net.cpp:129] Top shape: 32 1024 2048 1 (67108864)
I0807 15:37:06.095261 25923 net.cpp:137] Memory required for data: 1278214528
I0807 15:37:06.095264 25923 layer_factory.hpp:77] Creating layer pool_tnet1
I0807 15:37:06.095273 25923 net.cpp:84] Creating Layer pool_tnet1
I0807 15:37:06.095276 25923 net.cpp:406] pool_tnet1 <- conv3_tnet1
I0807 15:37:06.095280 25923 net.cpp:380] pool_tnet1 -> global_feat_tnet1
I0807 15:37:06.095320 25923 net.cpp:122] Setting up pool_tnet1
I0807 15:37:06.095326 25923 net.cpp:129] Top shape: 32 1024 1 1 (32768)
I0807 15:37:06.095329 25923 net.cpp:137] Memory required for data: 1278345600
I0807 15:37:06.095331 25923 layer_factory.hpp:77] Creating layer fc1_tnet1
I0807 15:37:06.095338 25923 net.cpp:84] Creating Layer fc1_tnet1
I0807 15:37:06.095342 25923 net.cpp:406] fc1_tnet1 <- global_feat_tnet1
I0807 15:37:06.095346 25923 net.cpp:380] fc1_tnet1 -> fc1_tnet1
I0807 15:37:06.107137 25923 net.cpp:122] Setting up fc1_tnet1
I0807 15:37:06.107156 25923 net.cpp:129] Top shape: 32 512 (16384)
I0807 15:37:06.107159 25923 net.cpp:137] Memory required for data: 1278411136
I0807 15:37:06.107167 25923 layer_factory.hpp:77] Creating layer bn6_tnet1
I0807 15:37:06.107173 25923 net.cpp:84] Creating Layer bn6_tnet1
I0807 15:37:06.107178 25923 net.cpp:406] bn6_tnet1 <- fc1_tnet1
I0807 15:37:06.107183 25923 net.cpp:367] bn6_tnet1 -> fc1_tnet1 (in-place)
I0807 15:37:06.107326 25923 net.cpp:122] Setting up bn6_tnet1
I0807 15:37:06.107331 25923 net.cpp:129] Top shape: 32 512 (16384)
I0807 15:37:06.107333 25923 net.cpp:137] Memory required for data: 1278476672
I0807 15:37:06.107340 25923 layer_factory.hpp:77] Creating layer scale6_tnet1
I0807 15:37:06.107345 25923 net.cpp:84] Creating Layer scale6_tnet1
I0807 15:37:06.107348 25923 net.cpp:406] scale6_tnet1 <- fc1_tnet1
I0807 15:37:06.107352 25923 net.cpp:367] scale6_tnet1 -> fc1_tnet1 (in-place)
I0807 15:37:06.107383 25923 layer_factory.hpp:77] Creating layer scale6_tnet1
I0807 15:37:06.107473 25923 net.cpp:122] Setting up scale6_tnet1
I0807 15:37:06.107481 25923 net.cpp:129] Top shape: 32 512 (16384)
I0807 15:37:06.107482 25923 net.cpp:137] Memory required for data: 1278542208
I0807 15:37:06.107487 25923 layer_factory.hpp:77] Creating layer relu6_tnet1
I0807 15:37:06.107492 25923 net.cpp:84] Creating Layer relu6_tnet1
I0807 15:37:06.107496 25923 net.cpp:406] relu6_tnet1 <- fc1_tnet1
I0807 15:37:06.107499 25923 net.cpp:367] relu6_tnet1 -> fc1_tnet1 (in-place)
I0807 15:37:06.107683 25923 net.cpp:122] Setting up relu6_tnet1
I0807 15:37:06.107692 25923 net.cpp:129] Top shape: 32 512 (16384)
I0807 15:37:06.107694 25923 net.cpp:137] Memory required for data: 1278607744
I0807 15:37:06.107697 25923 layer_factory.hpp:77] Creating layer fc2_tnet1
I0807 15:37:06.107704 25923 net.cpp:84] Creating Layer fc2_tnet1
I0807 15:37:06.107707 25923 net.cpp:406] fc2_tnet1 <- fc1_tnet1
I0807 15:37:06.107712 25923 net.cpp:380] fc2_tnet1 -> fc2_tnet1
I0807 15:37:06.110564 25923 net.cpp:122] Setting up fc2_tnet1
I0807 15:37:06.110571 25923 net.cpp:129] Top shape: 32 256 (8192)
I0807 15:37:06.110574 25923 net.cpp:137] Memory required for data: 1278640512
I0807 15:37:06.110592 25923 layer_factory.hpp:77] Creating layer bn7_tnet1
I0807 15:37:06.110599 25923 net.cpp:84] Creating Layer bn7_tnet1
I0807 15:37:06.110600 25923 net.cpp:406] bn7_tnet1 <- fc2_tnet1
I0807 15:37:06.110605 25923 net.cpp:367] bn7_tnet1 -> fc2_tnet1 (in-place)
I0807 15:37:06.110738 25923 net.cpp:122] Setting up bn7_tnet1
I0807 15:37:06.110744 25923 net.cpp:129] Top shape: 32 256 (8192)
I0807 15:37:06.110747 25923 net.cpp:137] Memory required for data: 1278673280
I0807 15:37:06.110756 25923 layer_factory.hpp:77] Creating layer scale7_tnet1
I0807 15:37:06.110761 25923 net.cpp:84] Creating Layer scale7_tnet1
I0807 15:37:06.110764 25923 net.cpp:406] scale7_tnet1 <- fc2_tnet1
I0807 15:37:06.110769 25923 net.cpp:367] scale7_tnet1 -> fc2_tnet1 (in-place)
I0807 15:37:06.110796 25923 layer_factory.hpp:77] Creating layer scale7_tnet1
I0807 15:37:06.110872 25923 net.cpp:122] Setting up scale7_tnet1
I0807 15:37:06.110877 25923 net.cpp:129] Top shape: 32 256 (8192)
I0807 15:37:06.110879 25923 net.cpp:137] Memory required for data: 1278706048
I0807 15:37:06.110884 25923 layer_factory.hpp:77] Creating layer relu7_tnet1
I0807 15:37:06.110888 25923 net.cpp:84] Creating Layer relu7_tnet1
I0807 15:37:06.110890 25923 net.cpp:406] relu7_tnet1 <- fc2_tnet1
I0807 15:37:06.110894 25923 net.cpp:367] relu7_tnet1 -> fc2_tnet1 (in-place)
I0807 15:37:06.111222 25923 net.cpp:122] Setting up relu7_tnet1
I0807 15:37:06.111232 25923 net.cpp:129] Top shape: 32 256 (8192)
I0807 15:37:06.111234 25923 net.cpp:137] Memory required for data: 1278738816
I0807 15:37:06.111238 25923 layer_factory.hpp:77] Creating layer fc3_tnet1
I0807 15:37:06.111243 25923 net.cpp:84] Creating Layer fc3_tnet1
I0807 15:37:06.111246 25923 net.cpp:406] fc3_tnet1 <- fc2_tnet1
I0807 15:37:06.111251 25923 net.cpp:380] fc3_tnet1 -> fc3_tnet1
I0807 15:37:06.111336 25923 net.cpp:122] Setting up fc3_tnet1
I0807 15:37:06.111342 25923 net.cpp:129] Top shape: 32 9 (288)
I0807 15:37:06.111346 25923 net.cpp:137] Memory required for data: 1278739968
I0807 15:37:06.111349 25923 layer_factory.hpp:77] Creating layer fc3_tnet1_fc3_tnet1_0_split
I0807 15:37:06.111354 25923 net.cpp:84] Creating Layer fc3_tnet1_fc3_tnet1_0_split
I0807 15:37:06.111357 25923 net.cpp:406] fc3_tnet1_fc3_tnet1_0_split <- fc3_tnet1
I0807 15:37:06.111361 25923 net.cpp:380] fc3_tnet1_fc3_tnet1_0_split -> fc3_tnet1_fc3_tnet1_0_split_0
I0807 15:37:06.111366 25923 net.cpp:380] fc3_tnet1_fc3_tnet1_0_split -> fc3_tnet1_fc3_tnet1_0_split_1
I0807 15:37:06.111403 25923 net.cpp:122] Setting up fc3_tnet1_fc3_tnet1_0_split
I0807 15:37:06.111410 25923 net.cpp:129] Top shape: 32 9 (288)
I0807 15:37:06.111413 25923 net.cpp:129] Top shape: 32 9 (288)
I0807 15:37:06.111415 25923 net.cpp:137] Memory required for data: 1278742272
I0807 15:37:06.111418 25923 layer_factory.hpp:77] Creating layer reshape_tnet1
I0807 15:37:06.111423 25923 net.cpp:84] Creating Layer reshape_tnet1
I0807 15:37:06.111426 25923 net.cpp:406] reshape_tnet1 <- fc3_tnet1_fc3_tnet1_0_split_0
I0807 15:37:06.111431 25923 net.cpp:380] reshape_tnet1 -> fc3_tnet1_reshape
I0807 15:37:06.111454 25923 net.cpp:122] Setting up reshape_tnet1
I0807 15:37:06.111459 25923 net.cpp:129] Top shape: 32 3 3 (288)
I0807 15:37:06.111462 25923 net.cpp:137] Memory required for data: 1278743424
I0807 15:37:06.111465 25923 layer_factory.hpp:77] Creating layer eye_tnet1
I0807 15:37:06.585749 25923 net.cpp:84] Creating Layer eye_tnet1
I0807 15:37:06.585774 25923 net.cpp:406] eye_tnet1 <- fc3_tnet1_fc3_tnet1_0_split_1
I0807 15:37:06.585788 25923 net.cpp:380] eye_tnet1 -> eye_tnet1
I0807 15:37:06.586012 25923 net.cpp:122] Setting up eye_tnet1
I0807 15:37:06.586025 25923 net.cpp:129] Top shape: 32 3 3 (288)
I0807 15:37:06.586028 25923 net.cpp:137] Memory required for data: 1278744576
I0807 15:37:06.586033 25923 layer_factory.hpp:77] Creating layer eltwise_sum_tnet1
I0807 15:37:06.586040 25923 net.cpp:84] Creating Layer eltwise_sum_tnet1
I0807 15:37:06.586043 25923 net.cpp:406] eltwise_sum_tnet1 <- fc3_tnet1_reshape
I0807 15:37:06.586047 25923 net.cpp:406] eltwise_sum_tnet1 <- eye_tnet1
I0807 15:37:06.586068 25923 net.cpp:380] eltwise_sum_tnet1 -> transform1
I0807 15:37:06.586096 25923 net.cpp:122] Setting up eltwise_sum_tnet1
I0807 15:37:06.586102 25923 net.cpp:129] Top shape: 32 3 3 (288)
I0807 15:37:06.586103 25923 net.cpp:137] Memory required for data: 1278745728
I0807 15:37:06.586107 25923 layer_factory.hpp:77] Creating layer matmul_input
I0807 15:37:06.586112 25923 net.cpp:84] Creating Layer matmul_input
I0807 15:37:06.586114 25923 net.cpp:406] matmul_input <- data_data_0_split_1
I0807 15:37:06.586118 25923 net.cpp:406] matmul_input <- transform1
I0807 15:37:06.586123 25923 net.cpp:380] matmul_input -> data_transform1
I0807 15:37:06.586143 25923 net.cpp:122] Setting up matmul_input
I0807 15:37:06.586148 25923 net.cpp:129] Top shape: 32 2048 3 (196608)
I0807 15:37:06.586149 25923 net.cpp:137] Memory required for data: 1279532160
I0807 15:37:06.586153 25923 layer_factory.hpp:77] Creating layer reshape_input_data
I0807 15:37:06.586158 25923 net.cpp:84] Creating Layer reshape_input_data
I0807 15:37:06.586160 25923 net.cpp:406] reshape_input_data <- data_transform1
I0807 15:37:06.586164 25923 net.cpp:380] reshape_input_data -> data_transform1_reshape
I0807 15:37:06.586187 25923 net.cpp:122] Setting up reshape_input_data
I0807 15:37:06.586192 25923 net.cpp:129] Top shape: 32 1 2048 3 (196608)
I0807 15:37:06.586195 25923 net.cpp:137] Memory required for data: 1280318592
I0807 15:37:06.586197 25923 layer_factory.hpp:77] Creating layer conv1
I0807 15:37:06.586223 25923 net.cpp:84] Creating Layer conv1
I0807 15:37:06.586226 25923 net.cpp:406] conv1 <- data_transform1_reshape
I0807 15:37:06.586231 25923 net.cpp:380] conv1 -> conv1
I0807 15:37:06.587357 25923 net.cpp:122] Setting up conv1
I0807 15:37:06.587369 25923 net.cpp:129] Top shape: 32 64 2048 1 (4194304)
I0807 15:37:06.587373 25923 net.cpp:137] Memory required for data: 1297095808
I0807 15:37:06.587385 25923 layer_factory.hpp:77] Creating layer bn1
I0807 15:37:06.587393 25923 net.cpp:84] Creating Layer bn1
I0807 15:37:06.587395 25923 net.cpp:406] bn1 <- conv1
I0807 15:37:06.587399 25923 net.cpp:367] bn1 -> conv1 (in-place)
I0807 15:37:06.587556 25923 net.cpp:122] Setting up bn1
I0807 15:37:06.587563 25923 net.cpp:129] Top shape: 32 64 2048 1 (4194304)
I0807 15:37:06.587565 25923 net.cpp:137] Memory required for data: 1313873024
I0807 15:37:06.587571 25923 layer_factory.hpp:77] Creating layer scale1
I0807 15:37:06.587576 25923 net.cpp:84] Creating Layer scale1
I0807 15:37:06.587580 25923 net.cpp:406] scale1 <- conv1
I0807 15:37:06.587585 25923 net.cpp:367] scale1 -> conv1 (in-place)
I0807 15:37:06.587620 25923 layer_factory.hpp:77] Creating layer scale1
I0807 15:37:06.587707 25923 net.cpp:122] Setting up scale1
I0807 15:37:06.587714 25923 net.cpp:129] Top shape: 32 64 2048 1 (4194304)
I0807 15:37:06.587718 25923 net.cpp:137] Memory required for data: 1330650240
I0807 15:37:06.587726 25923 layer_factory.hpp:77] Creating layer relu1
I0807 15:37:06.587733 25923 net.cpp:84] Creating Layer relu1
I0807 15:37:06.587739 25923 net.cpp:406] relu1 <- conv1
I0807 15:37:06.587745 25923 net.cpp:367] relu1 -> conv1 (in-place)
I0807 15:37:06.588094 25923 net.cpp:122] Setting up relu1
I0807 15:37:06.588106 25923 net.cpp:129] Top shape: 32 64 2048 1 (4194304)
I0807 15:37:06.588110 25923 net.cpp:137] Memory required for data: 1347427456
I0807 15:37:06.588114 25923 layer_factory.hpp:77] Creating layer conv2
I0807 15:37:06.588120 25923 net.cpp:84] Creating Layer conv2
I0807 15:37:06.588124 25923 net.cpp:406] conv2 <- conv1
I0807 15:37:06.588130 25923 net.cpp:380] conv2 -> conv2
I0807 15:37:06.589059 25923 net.cpp:122] Setting up conv2
I0807 15:37:06.589071 25923 net.cpp:129] Top shape: 32 64 2048 1 (4194304)
I0807 15:37:06.589076 25923 net.cpp:137] Memory required for data: 1364204672
I0807 15:37:06.589082 25923 layer_factory.hpp:77] Creating layer bn2
I0807 15:37:06.589087 25923 net.cpp:84] Creating Layer bn2
I0807 15:37:06.589092 25923 net.cpp:406] bn2 <- conv2
I0807 15:37:06.589095 25923 net.cpp:367] bn2 -> conv2 (in-place)
I0807 15:37:06.589246 25923 net.cpp:122] Setting up bn2
I0807 15:37:06.589260 25923 net.cpp:129] Top shape: 32 64 2048 1 (4194304)
I0807 15:37:06.589264 25923 net.cpp:137] Memory required for data: 1380981888
I0807 15:37:06.589270 25923 layer_factory.hpp:77] Creating layer scale2
I0807 15:37:06.589277 25923 net.cpp:84] Creating Layer scale2
I0807 15:37:06.589279 25923 net.cpp:406] scale2 <- conv2
I0807 15:37:06.589283 25923 net.cpp:367] scale2 -> conv2 (in-place)
I0807 15:37:06.589315 25923 layer_factory.hpp:77] Creating layer scale2
I0807 15:37:06.589401 25923 net.cpp:122] Setting up scale2
I0807 15:37:06.589408 25923 net.cpp:129] Top shape: 32 64 2048 1 (4194304)
I0807 15:37:06.589411 25923 net.cpp:137] Memory required for data: 1397759104
I0807 15:37:06.589416 25923 layer_factory.hpp:77] Creating layer relu2
I0807 15:37:06.589421 25923 net.cpp:84] Creating Layer relu2
I0807 15:37:06.589423 25923 net.cpp:406] relu2 <- conv2
I0807 15:37:06.589426 25923 net.cpp:367] relu2 -> conv2 (in-place)
I0807 15:37:06.589583 25923 net.cpp:122] Setting up relu2
I0807 15:37:06.589592 25923 net.cpp:129] Top shape: 32 64 2048 1 (4194304)
I0807 15:37:06.589596 25923 net.cpp:137] Memory required for data: 1414536320
I0807 15:37:06.589599 25923 layer_factory.hpp:77] Creating layer conv2_relu2_0_split
I0807 15:37:06.589606 25923 net.cpp:84] Creating Layer conv2_relu2_0_split
I0807 15:37:06.589609 25923 net.cpp:406] conv2_relu2_0_split <- conv2
I0807 15:37:06.589613 25923 net.cpp:380] conv2_relu2_0_split -> conv2_relu2_0_split_0
I0807 15:37:06.589618 25923 net.cpp:380] conv2_relu2_0_split -> conv2_relu2_0_split_1
I0807 15:37:06.589648 25923 net.cpp:122] Setting up conv2_relu2_0_split
I0807 15:37:06.589654 25923 net.cpp:129] Top shape: 32 64 2048 1 (4194304)
I0807 15:37:06.589658 25923 net.cpp:129] Top shape: 32 64 2048 1 (4194304)
I0807 15:37:06.589660 25923 net.cpp:137] Memory required for data: 1448090752
I0807 15:37:06.589663 25923 layer_factory.hpp:77] Creating layer conv1_tnet2
I0807 15:37:06.589671 25923 net.cpp:84] Creating Layer conv1_tnet2
I0807 15:37:06.589674 25923 net.cpp:406] conv1_tnet2 <- conv2_relu2_0_split_0
I0807 15:37:06.589680 25923 net.cpp:380] conv1_tnet2 -> conv1_tnet2
I0807 15:37:06.590597 25923 net.cpp:122] Setting up conv1_tnet2
I0807 15:37:06.590608 25923 net.cpp:129] Top shape: 32 64 2048 1 (4194304)
I0807 15:37:06.590612 25923 net.cpp:137] Memory required for data: 1464867968
I0807 15:37:06.590618 25923 layer_factory.hpp:77] Creating layer bn1_tnet2
I0807 15:37:06.590625 25923 net.cpp:84] Creating Layer bn1_tnet2
I0807 15:37:06.590629 25923 net.cpp:406] bn1_tnet2 <- conv1_tnet2
I0807 15:37:06.590633 25923 net.cpp:367] bn1_tnet2 -> conv1_tnet2 (in-place)
I0807 15:37:06.590783 25923 net.cpp:122] Setting up bn1_tnet2
I0807 15:37:06.590790 25923 net.cpp:129] Top shape: 32 64 2048 1 (4194304)
I0807 15:37:06.590792 25923 net.cpp:137] Memory required for data: 1481645184
I0807 15:37:06.590798 25923 layer_factory.hpp:77] Creating layer scale1_tnet2
I0807 15:37:06.590803 25923 net.cpp:84] Creating Layer scale1_tnet2
I0807 15:37:06.590806 25923 net.cpp:406] scale1_tnet2 <- conv1_tnet2
I0807 15:37:06.590811 25923 net.cpp:367] scale1_tnet2 -> conv1_tnet2 (in-place)
I0807 15:37:06.590840 25923 layer_factory.hpp:77] Creating layer scale1_tnet2
I0807 15:37:06.590924 25923 net.cpp:122] Setting up scale1_tnet2
I0807 15:37:06.590930 25923 net.cpp:129] Top shape: 32 64 2048 1 (4194304)
I0807 15:37:06.590934 25923 net.cpp:137] Memory required for data: 1498422400
I0807 15:37:06.590937 25923 layer_factory.hpp:77] Creating layer relu1_tnet2
I0807 15:37:06.590942 25923 net.cpp:84] Creating Layer relu1_tnet2
I0807 15:37:06.590945 25923 net.cpp:406] relu1_tnet2 <- conv1_tnet2
I0807 15:37:06.590950 25923 net.cpp:367] relu1_tnet2 -> conv1_tnet2 (in-place)
I0807 15:37:06.591243 25923 net.cpp:122] Setting up relu1_tnet2
I0807 15:37:06.591253 25923 net.cpp:129] Top shape: 32 64 2048 1 (4194304)
I0807 15:37:06.591256 25923 net.cpp:137] Memory required for data: 1515199616
I0807 15:37:06.591259 25923 layer_factory.hpp:77] Creating layer conv2_tnet2
I0807 15:37:06.591267 25923 net.cpp:84] Creating Layer conv2_tnet2
I0807 15:37:06.591279 25923 net.cpp:406] conv2_tnet2 <- conv1_tnet2
I0807 15:37:06.591287 25923 net.cpp:380] conv2_tnet2 -> conv2_tnet2
I0807 15:37:06.592254 25923 net.cpp:122] Setting up conv2_tnet2
I0807 15:37:06.592267 25923 net.cpp:129] Top shape: 32 128 2048 1 (8388608)
I0807 15:37:06.592270 25923 net.cpp:137] Memory required for data: 1548754048
I0807 15:37:06.592276 25923 layer_factory.hpp:77] Creating layer bn2_tnet2
I0807 15:37:06.592283 25923 net.cpp:84] Creating Layer bn2_tnet2
I0807 15:37:06.592285 25923 net.cpp:406] bn2_tnet2 <- conv2_tnet2
I0807 15:37:06.592290 25923 net.cpp:367] bn2_tnet2 -> conv2_tnet2 (in-place)
I0807 15:37:06.592434 25923 net.cpp:122] Setting up bn2_tnet2
I0807 15:37:06.592440 25923 net.cpp:129] Top shape: 32 128 2048 1 (8388608)
I0807 15:37:06.592443 25923 net.cpp:137] Memory required for data: 1582308480
I0807 15:37:06.592448 25923 layer_factory.hpp:77] Creating layer scale2_tnet2
I0807 15:37:06.592453 25923 net.cpp:84] Creating Layer scale2_tnet2
I0807 15:37:06.592456 25923 net.cpp:406] scale2_tnet2 <- conv2_tnet2
I0807 15:37:06.592461 25923 net.cpp:367] scale2_tnet2 -> conv2_tnet2 (in-place)
I0807 15:37:06.592490 25923 layer_factory.hpp:77] Creating layer scale2_tnet2
I0807 15:37:06.592571 25923 net.cpp:122] Setting up scale2_tnet2
I0807 15:37:06.592576 25923 net.cpp:129] Top shape: 32 128 2048 1 (8388608)
I0807 15:37:06.592579 25923 net.cpp:137] Memory required for data: 1615862912
I0807 15:37:06.592597 25923 layer_factory.hpp:77] Creating layer relu2_tnet2
I0807 15:37:06.592603 25923 net.cpp:84] Creating Layer relu2_tnet2
I0807 15:37:06.592607 25923 net.cpp:406] relu2_tnet2 <- conv2_tnet2
I0807 15:37:06.592609 25923 net.cpp:367] relu2_tnet2 -> conv2_tnet2 (in-place)
I0807 15:37:06.592763 25923 net.cpp:122] Setting up relu2_tnet2
I0807 15:37:06.592772 25923 net.cpp:129] Top shape: 32 128 2048 1 (8388608)
I0807 15:37:06.592775 25923 net.cpp:137] Memory required for data: 1649417344
I0807 15:37:06.592778 25923 layer_factory.hpp:77] Creating layer conv3_tnet2
I0807 15:37:06.592785 25923 net.cpp:84] Creating Layer conv3_tnet2
I0807 15:37:06.592789 25923 net.cpp:406] conv3_tnet2 <- conv2_tnet2
I0807 15:37:06.592794 25923 net.cpp:380] conv3_tnet2 -> conv3_tnet2
I0807 15:37:06.594781 25923 net.cpp:122] Setting up conv3_tnet2
I0807 15:37:06.594794 25923 net.cpp:129] Top shape: 32 1024 2048 1 (67108864)
I0807 15:37:06.594797 25923 net.cpp:137] Memory required for data: 1917852800
I0807 15:37:06.594804 25923 layer_factory.hpp:77] Creating layer bn3_tnet2
I0807 15:37:06.594810 25923 net.cpp:84] Creating Layer bn3_tnet2
I0807 15:37:06.594815 25923 net.cpp:406] bn3_tnet2 <- conv3_tnet2
I0807 15:37:06.594818 25923 net.cpp:367] bn3_tnet2 -> conv3_tnet2 (in-place)
I0807 15:37:06.594967 25923 net.cpp:122] Setting up bn3_tnet2
I0807 15:37:06.594974 25923 net.cpp:129] Top shape: 32 1024 2048 1 (67108864)
I0807 15:37:06.594976 25923 net.cpp:137] Memory required for data: 2186288256
I0807 15:37:06.594982 25923 layer_factory.hpp:77] Creating layer scale3_tnet2
I0807 15:37:06.594987 25923 net.cpp:84] Creating Layer scale3_tnet2
I0807 15:37:06.594990 25923 net.cpp:406] scale3_tnet2 <- conv3_tnet2
I0807 15:37:06.594995 25923 net.cpp:367] scale3_tnet2 -> conv3_tnet2 (in-place)
I0807 15:37:06.595022 25923 layer_factory.hpp:77] Creating layer scale3_tnet2
I0807 15:37:06.595106 25923 net.cpp:122] Setting up scale3_tnet2
I0807 15:37:06.595113 25923 net.cpp:129] Top shape: 32 1024 2048 1 (67108864)
I0807 15:37:06.595114 25923 net.cpp:137] Memory required for data: 2454723712
I0807 15:37:06.595119 25923 layer_factory.hpp:77] Creating layer relu3_tnet2
I0807 15:37:06.595124 25923 net.cpp:84] Creating Layer relu3_tnet2
I0807 15:37:06.595127 25923 net.cpp:406] relu3_tnet2 <- conv3_tnet2
I0807 15:37:06.595132 25923 net.cpp:367] relu3_tnet2 -> conv3_tnet2 (in-place)
I0807 15:37:06.595456 25923 net.cpp:122] Setting up relu3_tnet2
I0807 15:37:06.595468 25923 net.cpp:129] Top shape: 32 1024 2048 1 (67108864)
I0807 15:37:06.595470 25923 net.cpp:137] Memory required for data: 2723159168
I0807 15:37:06.595474 25923 layer_factory.hpp:77] Creating layer pool_tnet2
I0807 15:37:06.595486 25923 net.cpp:84] Creating Layer pool_tnet2
I0807 15:37:06.595491 25923 net.cpp:406] pool_tnet2 <- conv3_tnet2
I0807 15:37:06.595499 25923 net.cpp:380] pool_tnet2 -> global_feat_tnet2
I0807 15:37:06.595537 25923 net.cpp:122] Setting up pool_tnet2
I0807 15:37:06.595543 25923 net.cpp:129] Top shape: 32 1024 1 1 (32768)
I0807 15:37:06.595546 25923 net.cpp:137] Memory required for data: 2723290240
I0807 15:37:06.595549 25923 layer_factory.hpp:77] Creating layer fc1_tnet2
I0807 15:37:06.595556 25923 net.cpp:84] Creating Layer fc1_tnet2
I0807 15:37:06.595561 25923 net.cpp:406] fc1_tnet2 <- global_feat_tnet2
I0807 15:37:06.595566 25923 net.cpp:380] fc1_tnet2 -> fc1_tnet2
I0807 15:37:06.607264 25923 net.cpp:122] Setting up fc1_tnet2
I0807 15:37:06.607283 25923 net.cpp:129] Top shape: 32 512 (16384)
I0807 15:37:06.607286 25923 net.cpp:137] Memory required for data: 2723355776
I0807 15:37:06.607293 25923 layer_factory.hpp:77] Creating layer bn6_tnet2
I0807 15:37:06.607303 25923 net.cpp:84] Creating Layer bn6_tnet2
I0807 15:37:06.607307 25923 net.cpp:406] bn6_tnet2 <- fc1_tnet2
I0807 15:37:06.607311 25923 net.cpp:367] bn6_tnet2 -> fc1_tnet2 (in-place)
I0807 15:37:06.607466 25923 net.cpp:122] Setting up bn6_tnet2
I0807 15:37:06.607473 25923 net.cpp:129] Top shape: 32 512 (16384)
I0807 15:37:06.607475 25923 net.cpp:137] Memory required for data: 2723421312
I0807 15:37:06.607481 25923 layer_factory.hpp:77] Creating layer scale6_tnet2
I0807 15:37:06.607487 25923 net.cpp:84] Creating Layer scale6_tnet2
I0807 15:37:06.607489 25923 net.cpp:406] scale6_tnet2 <- fc1_tnet2
I0807 15:37:06.607494 25923 net.cpp:367] scale6_tnet2 -> fc1_tnet2 (in-place)
I0807 15:37:06.607523 25923 layer_factory.hpp:77] Creating layer scale6_tnet2
I0807 15:37:06.607609 25923 net.cpp:122] Setting up scale6_tnet2
I0807 15:37:06.607614 25923 net.cpp:129] Top shape: 32 512 (16384)
I0807 15:37:06.607616 25923 net.cpp:137] Memory required for data: 2723486848
I0807 15:37:06.607621 25923 layer_factory.hpp:77] Creating layer relu6_tnet2
I0807 15:37:06.607626 25923 net.cpp:84] Creating Layer relu6_tnet2
I0807 15:37:06.607630 25923 net.cpp:406] relu6_tnet2 <- fc1_tnet2
I0807 15:37:06.607633 25923 net.cpp:367] relu6_tnet2 -> fc1_tnet2 (in-place)
I0807 15:37:06.608000 25923 net.cpp:122] Setting up relu6_tnet2
I0807 15:37:06.608011 25923 net.cpp:129] Top shape: 32 512 (16384)
I0807 15:37:06.608013 25923 net.cpp:137] Memory required for data: 2723552384
I0807 15:37:06.608017 25923 layer_factory.hpp:77] Creating layer fc2_tnet2
I0807 15:37:06.608026 25923 net.cpp:84] Creating Layer fc2_tnet2
I0807 15:37:06.608029 25923 net.cpp:406] fc2_tnet2 <- fc1_tnet2
I0807 15:37:06.608034 25923 net.cpp:380] fc2_tnet2 -> fc2_tnet2
I0807 15:37:06.610895 25923 net.cpp:122] Setting up fc2_tnet2
I0807 15:37:06.610903 25923 net.cpp:129] Top shape: 32 256 (8192)
I0807 15:37:06.610905 25923 net.cpp:137] Memory required for data: 2723585152
I0807 15:37:06.610909 25923 layer_factory.hpp:77] Creating layer bn7_tnet2
I0807 15:37:06.610914 25923 net.cpp:84] Creating Layer bn7_tnet2
I0807 15:37:06.610918 25923 net.cpp:406] bn7_tnet2 <- fc2_tnet2
I0807 15:37:06.610921 25923 net.cpp:367] bn7_tnet2 -> fc2_tnet2 (in-place)
I0807 15:37:06.611065 25923 net.cpp:122] Setting up bn7_tnet2
I0807 15:37:06.611070 25923 net.cpp:129] Top shape: 32 256 (8192)
I0807 15:37:06.611073 25923 net.cpp:137] Memory required for data: 2723617920
I0807 15:37:06.611079 25923 layer_factory.hpp:77] Creating layer scale7_tnet2
I0807 15:37:06.611084 25923 net.cpp:84] Creating Layer scale7_tnet2
I0807 15:37:06.611088 25923 net.cpp:406] scale7_tnet2 <- fc2_tnet2
I0807 15:37:06.611090 25923 net.cpp:367] scale7_tnet2 -> fc2_tnet2 (in-place)
I0807 15:37:06.611121 25923 layer_factory.hpp:77] Creating layer scale7_tnet2
I0807 15:37:06.611202 25923 net.cpp:122] Setting up scale7_tnet2
I0807 15:37:06.611207 25923 net.cpp:129] Top shape: 32 256 (8192)
I0807 15:37:06.611209 25923 net.cpp:137] Memory required for data: 2723650688
I0807 15:37:06.611214 25923 layer_factory.hpp:77] Creating layer relu7_tnet2
I0807 15:37:06.611229 25923 net.cpp:84] Creating Layer relu7_tnet2
I0807 15:37:06.611233 25923 net.cpp:406] relu7_tnet2 <- fc2_tnet2
I0807 15:37:06.611238 25923 net.cpp:367] relu7_tnet2 -> fc2_tnet2 (in-place)
I0807 15:37:06.611407 25923 net.cpp:122] Setting up relu7_tnet2
I0807 15:37:06.611415 25923 net.cpp:129] Top shape: 32 256 (8192)
I0807 15:37:06.611418 25923 net.cpp:137] Memory required for data: 2723683456
I0807 15:37:06.611421 25923 layer_factory.hpp:77] Creating layer fc3_tnet2
I0807 15:37:06.611428 25923 net.cpp:84] Creating Layer fc3_tnet2
I0807 15:37:06.611433 25923 net.cpp:406] fc3_tnet2 <- fc2_tnet2
I0807 15:37:06.611436 25923 net.cpp:380] fc3_tnet2 -> fc3_tnet2
I0807 15:37:06.613019 25923 net.cpp:122] Setting up fc3_tnet2
I0807 15:37:06.613032 25923 net.cpp:129] Top shape: 32 4096 (131072)
I0807 15:37:06.613036 25923 net.cpp:137] Memory required for data: 2724207744
I0807 15:37:06.613042 25923 layer_factory.hpp:77] Creating layer fc3_tnet2_fc3_tnet2_0_split
I0807 15:37:06.613049 25923 net.cpp:84] Creating Layer fc3_tnet2_fc3_tnet2_0_split
I0807 15:37:06.613052 25923 net.cpp:406] fc3_tnet2_fc3_tnet2_0_split <- fc3_tnet2
I0807 15:37:06.613057 25923 net.cpp:380] fc3_tnet2_fc3_tnet2_0_split -> fc3_tnet2_fc3_tnet2_0_split_0
I0807 15:37:06.613070 25923 net.cpp:380] fc3_tnet2_fc3_tnet2_0_split -> fc3_tnet2_fc3_tnet2_0_split_1
I0807 15:37:06.613102 25923 net.cpp:122] Setting up fc3_tnet2_fc3_tnet2_0_split
I0807 15:37:06.613109 25923 net.cpp:129] Top shape: 32 4096 (131072)
I0807 15:37:06.613112 25923 net.cpp:129] Top shape: 32 4096 (131072)
I0807 15:37:06.613114 25923 net.cpp:137] Memory required for data: 2725256320
I0807 15:37:06.613117 25923 layer_factory.hpp:77] Creating layer reshape_tnet2
I0807 15:37:06.613127 25923 net.cpp:84] Creating Layer reshape_tnet2
I0807 15:37:06.613131 25923 net.cpp:406] reshape_tnet2 <- fc3_tnet2_fc3_tnet2_0_split_0
I0807 15:37:06.613135 25923 net.cpp:380] reshape_tnet2 -> fc3_tnet2_reshape
I0807 15:37:06.613155 25923 net.cpp:122] Setting up reshape_tnet2
I0807 15:37:06.613160 25923 net.cpp:129] Top shape: 32 64 64 (131072)
I0807 15:37:06.613163 25923 net.cpp:137] Memory required for data: 2725780608
I0807 15:37:06.613167 25923 layer_factory.hpp:77] Creating layer eye_tnet2
I0807 15:37:06.613209 25923 net.cpp:84] Creating Layer eye_tnet2
I0807 15:37:06.613214 25923 net.cpp:406] eye_tnet2 <- fc3_tnet2_fc3_tnet2_0_split_1
I0807 15:37:06.613219 25923 net.cpp:380] eye_tnet2 -> eye_tnet2
I0807 15:37:06.613731 25923 net.cpp:122] Setting up eye_tnet2
I0807 15:37:06.613744 25923 net.cpp:129] Top shape: 32 64 64 (131072)
I0807 15:37:06.613747 25923 net.cpp:137] Memory required for data: 2726304896
I0807 15:37:06.613752 25923 layer_factory.hpp:77] Creating layer eye_tnet2_eye_tnet2_0_split
I0807 15:37:06.613757 25923 net.cpp:84] Creating Layer eye_tnet2_eye_tnet2_0_split
I0807 15:37:06.613760 25923 net.cpp:406] eye_tnet2_eye_tnet2_0_split <- eye_tnet2
I0807 15:37:06.613765 25923 net.cpp:380] eye_tnet2_eye_tnet2_0_split -> eye_tnet2_eye_tnet2_0_split_0
I0807 15:37:06.613771 25923 net.cpp:380] eye_tnet2_eye_tnet2_0_split -> eye_tnet2_eye_tnet2_0_split_1
I0807 15:37:06.613801 25923 net.cpp:122] Setting up eye_tnet2_eye_tnet2_0_split
I0807 15:37:06.613806 25923 net.cpp:129] Top shape: 32 64 64 (131072)
I0807 15:37:06.613808 25923 net.cpp:129] Top shape: 32 64 64 (131072)
I0807 15:37:06.613811 25923 net.cpp:137] Memory required for data: 2727353472
I0807 15:37:06.613813 25923 layer_factory.hpp:77] Creating layer eltwise_sum_tnet2
I0807 15:37:06.613818 25923 net.cpp:84] Creating Layer eltwise_sum_tnet2
I0807 15:37:06.613821 25923 net.cpp:406] eltwise_sum_tnet2 <- fc3_tnet2_reshape
I0807 15:37:06.613826 25923 net.cpp:406] eltwise_sum_tnet2 <- eye_tnet2_eye_tnet2_0_split_0
I0807 15:37:06.613829 25923 net.cpp:380] eltwise_sum_tnet2 -> transform2
I0807 15:37:06.613848 25923 net.cpp:122] Setting up eltwise_sum_tnet2
I0807 15:37:06.613853 25923 net.cpp:129] Top shape: 32 64 64 (131072)
I0807 15:37:06.613855 25923 net.cpp:137] Memory required for data: 2727877760
I0807 15:37:06.613871 25923 layer_factory.hpp:77] Creating layer transform2_eltwise_sum_tnet2_0_split
I0807 15:37:06.613876 25923 net.cpp:84] Creating Layer transform2_eltwise_sum_tnet2_0_split
I0807 15:37:06.613879 25923 net.cpp:406] transform2_eltwise_sum_tnet2_0_split <- transform2
I0807 15:37:06.613883 25923 net.cpp:380] transform2_eltwise_sum_tnet2_0_split -> transform2_eltwise_sum_tnet2_0_split_0
I0807 15:37:06.613888 25923 net.cpp:380] transform2_eltwise_sum_tnet2_0_split -> transform2_eltwise_sum_tnet2_0_split_1
I0807 15:37:06.613893 25923 net.cpp:380] transform2_eltwise_sum_tnet2_0_split -> transform2_eltwise_sum_tnet2_0_split_2
I0807 15:37:06.613929 25923 net.cpp:122] Setting up transform2_eltwise_sum_tnet2_0_split
I0807 15:37:06.613934 25923 net.cpp:129] Top shape: 32 64 64 (131072)
I0807 15:37:06.613939 25923 net.cpp:129] Top shape: 32 64 64 (131072)
I0807 15:37:06.613941 25923 net.cpp:129] Top shape: 32 64 64 (131072)
I0807 15:37:06.613943 25923 net.cpp:137] Memory required for data: 2729450624
I0807 15:37:06.613945 25923 layer_factory.hpp:77] Creating layer perm_scale2
I0807 15:37:06.613952 25923 net.cpp:84] Creating Layer perm_scale2
I0807 15:37:06.613955 25923 net.cpp:406] perm_scale2 <- conv2_relu2_0_split_1
I0807 15:37:06.613960 25923 net.cpp:380] perm_scale2 -> scale2_permute
I0807 15:37:06.614044 25923 net.cpp:122] Setting up perm_scale2
I0807 15:37:06.614049 25923 net.cpp:129] Top shape: 32 2048 64 1 (4194304)
I0807 15:37:06.614053 25923 net.cpp:137] Memory required for data: 2746227840
I0807 15:37:06.614055 25923 layer_factory.hpp:77] Creating layer reshape_scale2
I0807 15:37:06.614059 25923 net.cpp:84] Creating Layer reshape_scale2
I0807 15:37:06.614063 25923 net.cpp:406] reshape_scale2 <- scale2_permute
I0807 15:37:06.614068 25923 net.cpp:380] reshape_scale2 -> scale2_reshape
I0807 15:37:06.614085 25923 net.cpp:122] Setting up reshape_scale2
I0807 15:37:06.614091 25923 net.cpp:129] Top shape: 32 2048 64 (4194304)
I0807 15:37:06.614094 25923 net.cpp:137] Memory required for data: 2763005056
I0807 15:37:06.614095 25923 layer_factory.hpp:77] Creating layer matmul_feat
I0807 15:37:06.614101 25923 net.cpp:84] Creating Layer matmul_feat
I0807 15:37:06.614104 25923 net.cpp:406] matmul_feat <- scale2_reshape
I0807 15:37:06.614107 25923 net.cpp:406] matmul_feat <- transform2_eltwise_sum_tnet2_0_split_0
I0807 15:37:06.614111 25923 net.cpp:380] matmul_feat -> scale2_transform2
I0807 15:37:06.614130 25923 net.cpp:122] Setting up matmul_feat
I0807 15:37:06.614135 25923 net.cpp:129] Top shape: 32 2048 64 (4194304)
I0807 15:37:06.614136 25923 net.cpp:137] Memory required for data: 2779782272
I0807 15:37:06.614138 25923 layer_factory.hpp:77] Creating layer perm_scale2_transform2
I0807 15:37:06.614142 25923 net.cpp:84] Creating Layer perm_scale2_transform2
I0807 15:37:06.614145 25923 net.cpp:406] perm_scale2_transform2 <- scale2_transform2
I0807 15:37:06.614150 25923 net.cpp:380] perm_scale2_transform2 -> scale2_permute_transform2
I0807 15:37:06.614222 25923 net.cpp:122] Setting up perm_scale2_transform2
I0807 15:37:06.614226 25923 net.cpp:129] Top shape: 32 64 2048 (4194304)
I0807 15:37:06.614229 25923 net.cpp:137] Memory required for data: 2796559488
I0807 15:37:06.614231 25923 layer_factory.hpp:77] Creating layer reshape_scale2_transform2
I0807 15:37:06.614235 25923 net.cpp:84] Creating Layer reshape_scale2_transform2
I0807 15:37:06.614238 25923 net.cpp:406] reshape_scale2_transform2 <- scale2_permute_transform2
I0807 15:37:06.614243 25923 net.cpp:380] reshape_scale2_transform2 -> scale2_transform2_reshape
I0807 15:37:06.614260 25923 net.cpp:122] Setting up reshape_scale2_transform2
I0807 15:37:06.614265 25923 net.cpp:129] Top shape: 32 64 2048 1 (4194304)
I0807 15:37:06.614267 25923 net.cpp:137] Memory required for data: 2813336704
I0807 15:37:06.614270 25923 layer_factory.hpp:77] Creating layer conv3
I0807 15:37:06.614280 25923 net.cpp:84] Creating Layer conv3
I0807 15:37:06.614284 25923 net.cpp:406] conv3 <- scale2_transform2_reshape
I0807 15:37:06.614289 25923 net.cpp:380] conv3 -> conv3
I0807 15:37:06.615314 25923 net.cpp:122] Setting up conv3
I0807 15:37:06.615332 25923 net.cpp:129] Top shape: 32 64 2048 1 (4194304)
I0807 15:37:06.615337 25923 net.cpp:137] Memory required for data: 2830113920
I0807 15:37:06.615344 25923 layer_factory.hpp:77] Creating layer bn3
I0807 15:37:06.615350 25923 net.cpp:84] Creating Layer bn3
I0807 15:37:06.615355 25923 net.cpp:406] bn3 <- conv3
I0807 15:37:06.615358 25923 net.cpp:367] bn3 -> conv3 (in-place)
I0807 15:37:06.615527 25923 net.cpp:122] Setting up bn3
I0807 15:37:06.615535 25923 net.cpp:129] Top shape: 32 64 2048 1 (4194304)
I0807 15:37:06.615538 25923 net.cpp:137] Memory required for data: 2846891136
I0807 15:37:06.615545 25923 layer_factory.hpp:77] Creating layer scale3
I0807 15:37:06.615550 25923 net.cpp:84] Creating Layer scale3
I0807 15:37:06.615553 25923 net.cpp:406] scale3 <- conv3
I0807 15:37:06.615556 25923 net.cpp:367] scale3 -> conv3 (in-place)
I0807 15:37:06.615592 25923 layer_factory.hpp:77] Creating layer scale3
I0807 15:37:06.615684 25923 net.cpp:122] Setting up scale3
I0807 15:37:06.615689 25923 net.cpp:129] Top shape: 32 64 2048 1 (4194304)
I0807 15:37:06.615692 25923 net.cpp:137] Memory required for data: 2863668352
I0807 15:37:06.615697 25923 layer_factory.hpp:77] Creating layer relu3
I0807 15:37:06.615702 25923 net.cpp:84] Creating Layer relu3
I0807 15:37:06.615705 25923 net.cpp:406] relu3 <- conv3
I0807 15:37:06.615710 25923 net.cpp:367] relu3 -> conv3 (in-place)
I0807 15:37:06.615999 25923 net.cpp:122] Setting up relu3
I0807 15:37:06.616009 25923 net.cpp:129] Top shape: 32 64 2048 1 (4194304)
I0807 15:37:06.616014 25923 net.cpp:137] Memory required for data: 2880445568
I0807 15:37:06.616016 25923 layer_factory.hpp:77] Creating layer conv4
I0807 15:37:06.616024 25923 net.cpp:84] Creating Layer conv4
I0807 15:37:06.616029 25923 net.cpp:406] conv4 <- conv3
I0807 15:37:06.616034 25923 net.cpp:380] conv4 -> conv4
I0807 15:37:06.616993 25923 net.cpp:122] Setting up conv4
I0807 15:37:06.617004 25923 net.cpp:129] Top shape: 32 128 2048 1 (8388608)
I0807 15:37:06.617007 25923 net.cpp:137] Memory required for data: 2914000000
I0807 15:37:06.617013 25923 layer_factory.hpp:77] Creating layer bn4
I0807 15:37:06.617017 25923 net.cpp:84] Creating Layer bn4
I0807 15:37:06.617020 25923 net.cpp:406] bn4 <- conv4
I0807 15:37:06.617025 25923 net.cpp:367] bn4 -> conv4 (in-place)
I0807 15:37:06.617178 25923 net.cpp:122] Setting up bn4
I0807 15:37:06.617184 25923 net.cpp:129] Top shape: 32 128 2048 1 (8388608)
I0807 15:37:06.617187 25923 net.cpp:137] Memory required for data: 2947554432
I0807 15:37:06.617192 25923 layer_factory.hpp:77] Creating layer scale4
I0807 15:37:06.617197 25923 net.cpp:84] Creating Layer scale4
I0807 15:37:06.617200 25923 net.cpp:406] scale4 <- conv4
I0807 15:37:06.617203 25923 net.cpp:367] scale4 -> conv4 (in-place)
I0807 15:37:06.617235 25923 layer_factory.hpp:77] Creating layer scale4
I0807 15:37:06.617321 25923 net.cpp:122] Setting up scale4
I0807 15:37:06.617326 25923 net.cpp:129] Top shape: 32 128 2048 1 (8388608)
I0807 15:37:06.617328 25923 net.cpp:137] Memory required for data: 2981108864
I0807 15:37:06.617333 25923 layer_factory.hpp:77] Creating layer relu4
I0807 15:37:06.617338 25923 net.cpp:84] Creating Layer relu4
I0807 15:37:06.617341 25923 net.cpp:406] relu4 <- conv4
I0807 15:37:06.617347 25923 net.cpp:367] relu4 -> conv4 (in-place)
I0807 15:37:06.617504 25923 net.cpp:122] Setting up relu4
I0807 15:37:06.617512 25923 net.cpp:129] Top shape: 32 128 2048 1 (8388608)
I0807 15:37:06.617516 25923 net.cpp:137] Memory required for data: 3014663296
I0807 15:37:06.617518 25923 layer_factory.hpp:77] Creating layer conv5
I0807 15:37:06.617525 25923 net.cpp:84] Creating Layer conv5
I0807 15:37:06.617528 25923 net.cpp:406] conv5 <- conv4
I0807 15:37:06.617533 25923 net.cpp:380] conv5 -> conv5
I0807 15:37:06.619004 25923 net.cpp:122] Setting up conv5
I0807 15:37:06.619014 25923 net.cpp:129] Top shape: 32 1024 2048 1 (67108864)
I0807 15:37:06.619019 25923 net.cpp:137] Memory required for data: 3283098752
I0807 15:37:06.619024 25923 layer_factory.hpp:77] Creating layer bn5
I0807 15:37:06.619036 25923 net.cpp:84] Creating Layer bn5
I0807 15:37:06.619041 25923 net.cpp:406] bn5 <- conv5
I0807 15:37:06.619046 25923 net.cpp:367] bn5 -> conv5 (in-place)
I0807 15:37:06.619199 25923 net.cpp:122] Setting up bn5
I0807 15:37:06.619206 25923 net.cpp:129] Top shape: 32 1024 2048 1 (67108864)
I0807 15:37:06.619210 25923 net.cpp:137] Memory required for data: 3551534208
I0807 15:37:06.619215 25923 layer_factory.hpp:77] Creating layer scale5
I0807 15:37:06.619220 25923 net.cpp:84] Creating Layer scale5
I0807 15:37:06.619225 25923 net.cpp:406] scale5 <- conv5
I0807 15:37:06.619227 25923 net.cpp:367] scale5 -> conv5 (in-place)
I0807 15:37:06.619258 25923 layer_factory.hpp:77] Creating layer scale5
I0807 15:37:06.619348 25923 net.cpp:122] Setting up scale5
I0807 15:37:06.619354 25923 net.cpp:129] Top shape: 32 1024 2048 1 (67108864)
I0807 15:37:06.619356 25923 net.cpp:137] Memory required for data: 3819969664
I0807 15:37:06.619361 25923 layer_factory.hpp:77] Creating layer relu5
I0807 15:37:06.619366 25923 net.cpp:84] Creating Layer relu5
I0807 15:37:06.619369 25923 net.cpp:406] relu5 <- conv5
I0807 15:37:06.619374 25923 net.cpp:367] relu5 -> conv5 (in-place)
I0807 15:37:06.619673 25923 net.cpp:122] Setting up relu5
I0807 15:37:06.619683 25923 net.cpp:129] Top shape: 32 1024 2048 1 (67108864)
I0807 15:37:06.619688 25923 net.cpp:137] Memory required for data: 4088405120
I0807 15:37:06.619690 25923 layer_factory.hpp:77] Creating layer pool
I0807 15:37:06.619695 25923 net.cpp:84] Creating Layer pool
I0807 15:37:06.619699 25923 net.cpp:406] pool <- conv5
I0807 15:37:06.619704 25923 net.cpp:380] pool -> global_feat
I0807 15:37:06.619742 25923 net.cpp:122] Setting up pool
I0807 15:37:06.619748 25923 net.cpp:129] Top shape: 32 1024 1 1 (32768)
I0807 15:37:06.619751 25923 net.cpp:137] Memory required for data: 4088536192
I0807 15:37:06.619755 25923 layer_factory.hpp:77] Creating layer fc1
I0807 15:37:06.619761 25923 net.cpp:84] Creating Layer fc1
I0807 15:37:06.619765 25923 net.cpp:406] fc1 <- global_feat
I0807 15:37:06.619769 25923 net.cpp:380] fc1 -> fc1
I0807 15:37:06.632894 25923 net.cpp:122] Setting up fc1
I0807 15:37:06.632915 25923 net.cpp:129] Top shape: 32 512 (16384)
I0807 15:37:06.632917 25923 net.cpp:137] Memory required for data: 4088601728
I0807 15:37:06.632925 25923 layer_factory.hpp:77] Creating layer bn6
I0807 15:37:06.632930 25923 net.cpp:84] Creating Layer bn6
I0807 15:37:06.632936 25923 net.cpp:406] bn6 <- fc1
I0807 15:37:06.632941 25923 net.cpp:367] bn6 -> fc1 (in-place)
I0807 15:37:06.633095 25923 net.cpp:122] Setting up bn6
I0807 15:37:06.633101 25923 net.cpp:129] Top shape: 32 512 (16384)
I0807 15:37:06.633103 25923 net.cpp:137] Memory required for data: 4088667264
I0807 15:37:06.633110 25923 layer_factory.hpp:77] Creating layer scale6
I0807 15:37:06.633114 25923 net.cpp:84] Creating Layer scale6
I0807 15:37:06.633117 25923 net.cpp:406] scale6 <- fc1
I0807 15:37:06.633121 25923 net.cpp:367] scale6 -> fc1 (in-place)
I0807 15:37:06.633150 25923 layer_factory.hpp:77] Creating layer scale6
I0807 15:37:06.633239 25923 net.cpp:122] Setting up scale6
I0807 15:37:06.633244 25923 net.cpp:129] Top shape: 32 512 (16384)
I0807 15:37:06.633246 25923 net.cpp:137] Memory required for data: 4088732800
I0807 15:37:06.633253 25923 layer_factory.hpp:77] Creating layer relu6
I0807 15:37:06.633260 25923 net.cpp:84] Creating Layer relu6
I0807 15:37:06.633261 25923 net.cpp:406] relu6 <- fc1
I0807 15:37:06.633265 25923 net.cpp:367] relu6 -> fc1 (in-place)
I0807 15:37:06.633643 25923 net.cpp:122] Setting up relu6
I0807 15:37:06.633653 25923 net.cpp:129] Top shape: 32 512 (16384)
I0807 15:37:06.633656 25923 net.cpp:137] Memory required for data: 4088798336
I0807 15:37:06.633659 25923 layer_factory.hpp:77] Creating layer fc2
I0807 15:37:06.633667 25923 net.cpp:84] Creating Layer fc2
I0807 15:37:06.633671 25923 net.cpp:406] fc2 <- fc1
I0807 15:37:06.633675 25923 net.cpp:380] fc2 -> fc2
I0807 15:37:06.636910 25923 net.cpp:122] Setting up fc2
I0807 15:37:06.636922 25923 net.cpp:129] Top shape: 32 256 (8192)
I0807 15:37:06.636936 25923 net.cpp:137] Memory required for data: 4088831104
I0807 15:37:06.636943 25923 layer_factory.hpp:77] Creating layer bn7
I0807 15:37:06.636947 25923 net.cpp:84] Creating Layer bn7
I0807 15:37:06.636950 25923 net.cpp:406] bn7 <- fc2
I0807 15:37:06.636955 25923 net.cpp:367] bn7 -> fc2 (in-place)
I0807 15:37:06.637106 25923 net.cpp:122] Setting up bn7
I0807 15:37:06.637112 25923 net.cpp:129] Top shape: 32 256 (8192)
I0807 15:37:06.637115 25923 net.cpp:137] Memory required for data: 4088863872
I0807 15:37:06.637120 25923 layer_factory.hpp:77] Creating layer scale7
I0807 15:37:06.637125 25923 net.cpp:84] Creating Layer scale7
I0807 15:37:06.637127 25923 net.cpp:406] scale7 <- fc2
I0807 15:37:06.637131 25923 net.cpp:367] scale7 -> fc2 (in-place)
I0807 15:37:06.637161 25923 layer_factory.hpp:77] Creating layer scale7
I0807 15:37:06.637244 25923 net.cpp:122] Setting up scale7
I0807 15:37:06.637250 25923 net.cpp:129] Top shape: 32 256 (8192)
I0807 15:37:06.637253 25923 net.cpp:137] Memory required for data: 4088896640
I0807 15:37:06.637256 25923 layer_factory.hpp:77] Creating layer relu7
I0807 15:37:06.637261 25923 net.cpp:84] Creating Layer relu7
I0807 15:37:06.637264 25923 net.cpp:406] relu7 <- fc2
I0807 15:37:06.637269 25923 net.cpp:367] relu7 -> fc2 (in-place)
I0807 15:37:06.637436 25923 net.cpp:122] Setting up relu7
I0807 15:37:06.637445 25923 net.cpp:129] Top shape: 32 256 (8192)
I0807 15:37:06.637449 25923 net.cpp:137] Memory required for data: 4088929408
I0807 15:37:06.637451 25923 layer_factory.hpp:77] Creating layer drop1
I0807 15:37:06.637457 25923 net.cpp:84] Creating Layer drop1
I0807 15:37:06.637460 25923 net.cpp:406] drop1 <- fc2
I0807 15:37:06.637465 25923 net.cpp:380] drop1 -> drop1
I0807 15:37:06.637502 25923 net.cpp:122] Setting up drop1
I0807 15:37:06.637507 25923 net.cpp:129] Top shape: 32 256 (8192)
I0807 15:37:06.637511 25923 net.cpp:137] Memory required for data: 4088962176
I0807 15:37:06.637514 25923 layer_factory.hpp:77] Creating layer fc3
I0807 15:37:06.637521 25923 net.cpp:84] Creating Layer fc3
I0807 15:37:06.637526 25923 net.cpp:406] fc3 <- drop1
I0807 15:37:06.637529 25923 net.cpp:380] fc3 -> fc3
I0807 15:37:06.637846 25923 net.cpp:122] Setting up fc3
I0807 15:37:06.637853 25923 net.cpp:129] Top shape: 32 40 (1280)
I0807 15:37:06.637856 25923 net.cpp:137] Memory required for data: 4088967296
I0807 15:37:06.637861 25923 layer_factory.hpp:77] Creating layer fc3_fc3_0_split
I0807 15:37:06.637866 25923 net.cpp:84] Creating Layer fc3_fc3_0_split
I0807 15:37:06.637869 25923 net.cpp:406] fc3_fc3_0_split <- fc3
I0807 15:37:06.637873 25923 net.cpp:380] fc3_fc3_0_split -> fc3_fc3_0_split_0
I0807 15:37:06.637879 25923 net.cpp:380] fc3_fc3_0_split -> fc3_fc3_0_split_1
I0807 15:37:06.637908 25923 net.cpp:122] Setting up fc3_fc3_0_split
I0807 15:37:06.637913 25923 net.cpp:129] Top shape: 32 40 (1280)
I0807 15:37:06.637917 25923 net.cpp:129] Top shape: 32 40 (1280)
I0807 15:37:06.637919 25923 net.cpp:137] Memory required for data: 4088977536
I0807 15:37:06.637922 25923 layer_factory.hpp:77] Creating layer accuracy
I0807 15:37:06.637928 25923 net.cpp:84] Creating Layer accuracy
I0807 15:37:06.637931 25923 net.cpp:406] accuracy <- fc3_fc3_0_split_0
I0807 15:37:06.637934 25923 net.cpp:406] accuracy <- label_data_1_split_0
I0807 15:37:06.637939 25923 net.cpp:380] accuracy -> accuracy
…
