…
D 0
I0602 08:50:19.485846 27704 caffe.cpp:270] GPU device name: Tesla K40c
I0602 08:50:19.679747 27704 net.cpp:294] The NetState phase (1) differed from the phase (0) specified by a rule in layer data
I0602 08:50:19.680116 27704 net.cpp:51] Initializing net from parameters: 
name: "pointnet_cls_basic"
state {
  phase: TEST
  level: 0
  stage: ""
}
layer {
  name: "data"
  type: "HDF5Data"
  top: "data"
  top: "label"
  include {
    phase: TEST
  }
  hdf5_data_param {
    source: "data/modelnet40_ply_hdf5_2048/test_files.txt"
    batch_size: 32
  }
}
layer {
  name: "reshape"
  type: "Reshape"
  bottom: "data"
  top: "data_reshape"
  reshape_param {
    shape {
      dim: 0
      dim: 1
      dim: -1
      dim: 3
    }
  }
}
layer {
  name: "conv1_tnet1"
  type: "Convolution"
  bottom: "data_reshape"
  top: "conv1_tnet1"
  param {
    lr_mult: 1
  }
  param {
    lr_mult: 2
  }
  convolution_param {
    num_output: 64
    pad: 0
    stride: 1
    weight_filler {
      type: "xavier"
    }
    bias_filler {
      type: "constant"
      value: 0
    }
    kernel_h: 1
    kernel_w: 3
  }
}
layer {
  name: "bn1_tnet1"
  type: "BatchNorm"
  bottom: "conv1_tnet1"
  top: "conv1_tnet1"
}
layer {
  name: "scale1_tnet1"
  type: "Scale"
  bottom: "conv1_tnet1"
  top: "conv1_tnet1"
  scale_param {
    bias_term: true
  }
}
layer {
  name: "relu1_tnet1"
  type: "ReLU"
  bottom: "conv1_tnet1"
  top: "conv1_tnet1"
}
layer {
  name: "conv2_tnet1"
  type: "Convolution"
  bottom: "conv1_tnet1"
  top: "conv2_tnet1"
  param {
    lr_mult: 1
  }
  param {
    lr_mult: 2
  }
  convolution_param {
    num_output: 128
    pad: 0
    stride: 1
    weight_filler {
      type: "xavier"
    }
    bias_filler {
      type: "constant"
      value: 0
    }
    kernel_h: 1
    kernel_w: 1
  }
}
layer {
  name: "bn2_tnet1"
  type: "BatchNorm"
  bottom: "conv2_tnet1"
  top: "conv2_tnet1"
}
layer {
  name: "scale2_tnet1"
  type: "Scale"
  bottom: "conv2_tnet1"
  top: "conv2_tnet1"
  scale_param {
    bias_term: true
  }
}
layer {
  name: "relu2_tnet1"
  type: "ReLU"
  bottom: "conv2_tnet1"
  top: "conv2_tnet1"
}
layer {
  name: "conv3_tnet1"
  type: "Convolution"
  bottom: "conv2_tnet1"
  top: "conv3_tnet1"
  param {
    lr_mult: 1
  }
  param {
    lr_mult: 2
  }
  convolution_param {
    num_output: 1024
    pad: 0
    stride: 1
    weight_filler {
      type: "xavier"
    }
    bias_filler {
      type: "constant"
      value: 0
    }
    kernel_h: 1
    kernel_w: 1
  }
}
layer {
  name: "bn3_tnet1"
  type: "BatchNorm"
  bottom: "conv3_tnet1"
  top: "conv3_tnet1"
}
layer {
  name: "scale3_tnet1"
  type: "Scale"
  bottom: "conv3_tnet1"
  top: "conv3_tnet1"
  scale_param {
    bias_term: true
  }
}
layer {
  name: "relu3_tnet1"
  type: "ReLU"
  bottom: "conv3_tnet1"
  top: "conv3_tnet1"
}
layer {
  name: "pool_tnet1"
  type: "Pooling"
  bottom: "conv3_tnet1"
  top: "global_feat_tnet1"
  pooling_param {
    pool: MAX
    stride: 1
    pad: 0
    kernel_h: 2048
    kernel_w: 1
  }
}
layer {
  name: "fc1_tnet1"
  type: "InnerProduct"
  bottom: "global_feat_tnet1"
  top: "fc1_tnet1"
  param {
    lr_mult: 1
    decay_mult: 1
  }
  param {
    lr_mult: 1
    decay_mult: 1
  }
  inner_product_param {
    num_output: 512
    weight_filler {
      type: "gaussian"
      std: 0.001
    }
    bias_filler {
      type: "constant"
      value: 0
    }
  }
}
layer {
  name: "bn6_tnet1"
  type: "BatchNorm"
  bottom: "fc1_tnet1"
  top: "fc1_tnet1"
}
layer {
  name: "scale6_tnet1"
  type: "Scale"
  bottom: "fc1_tnet1"
  top: "fc1_tnet1"
  scale_param {
    bias_term: true
  }
}
layer {
  name: "relu6_tnet1"
  type: "ReLU"
  bottom: "fc1_tnet1"
  top: "fc1_tnet1"
}
layer {
  name: "fc2_tnet1"
  type: "InnerProduct"
  bottom: "fc1_tnet1"
  top: "fc2_tnet1"
  param {
    lr_mult: 1
    decay_mult: 1
  }
  param {
    lr_mult: 1
    decay_mult: 1
  }
  inner_product_param {
    num_output: 256
    weight_filler {
      type: "gaussian"
      std: 0.001
    }
    bias_filler {
      type: "constant"
      value: 0
    }
  }
}
layer {
  name: "bn7_tnet1"
  type: "BatchNorm"
  bottom: "fc2_tnet1"
  top: "fc2_tnet1"
}
layer {
  name: "scale7_tnet1"
  type: "Scale"
  bottom: "fc2_tnet1"
  top: "fc2_tnet1"
  scale_param {
    bias_term: true
  }
}
layer {
  name: "relu7_tnet1"
  type: "ReLU"
  bottom: "fc2_tnet1"
  top: "fc2_tnet1"
}
layer {
  name: "fc3_tnet1"
  type: "InnerProduct"
  bottom: "fc2_tnet1"
  top: "fc3_tnet1"
  param {
    lr_mult: 1
    decay_mult: 1
  }
  param {
    lr_mult: 1
    decay_mult: 1
  }
  inner_product_param {
    num_output: 9
    weight_filler {
      type: "constant"
      value: 0
    }
    bias_filler {
      type: "constant"
      value: 0
    }
  }
}
layer {
  name: "reshape_tnet1"
  type: "Reshape"
  bottom: "fc3_tnet1"
  top: "fc3_tnet1_reshape"
  reshape_param {
    shape {
      dim: -1
      dim: 3
      dim: 3
    }
  }
}
layer {
  name: "eye_tnet1"
  type: "Python"
  bottom: "fc3_tnet1"
  top: "eye_tnet1"
  python_param {
    module: "eye_matrix_layer"
    layer: "EyeMatrixLayer"
    param_str: "{\'K\': 3}"
  }
}
layer {
  name: "eltwise_sum_tnet1"
  type: "Eltwise"
  bottom: "fc3_tnet1_reshape"
  bottom: "eye_tnet1"
  top: "transform1"
  eltwise_param {
    operation: SUM
  }
}
layer {
  name: "matmul_input"
  type: "MatrixMultiplication"
  bottom: "data"
  bottom: "transform1"
  top: "data_transform1"
}
layer {
  name: "reshape_input_data"
  type: "Reshape"
  bottom: "data_transform1"
  top: "data_transform1_reshape"
  reshape_param {
    shape {
      dim: 0
      dim: 1
      dim: -1
      dim: 3
    }
  }
}
layer {
  name: "conv1"
  type: "Convolution"
  bottom: "data_transform1_reshape"
  top: "conv1"
  param {
    lr_mult: 1
  }
  param {
    lr_mult: 2
  }
  convolution_param {
    num_output: 64
    pad: 0
    stride: 1
    weight_filler {
      type: "xavier"
    }
    bias_filler {
      type: "constant"
      value: 0
    }
    kernel_h: 1
    kernel_w: 3
  }
}
layer {
  name: "bn1"
  type: "BatchNorm"
  bottom: "conv1"
  top: "conv1"
}
layer {
  name: "scale1"
  type: "Scale"
  bottom: "conv1"
  top: "conv1"
  scale_param {
    bias_term: true
  }
}
layer {
  name: "relu1"
  type: "ReLU"
  bottom: "conv1"
  top: "conv1"
}
layer {
  name: "conv2"
  type: "Convolution"
  bottom: "conv1"
  top: "conv2"
  param {
    lr_mult: 1
  }
  param {
    lr_mult: 2
  }
  convolution_param {
    num_output: 64
    pad: 0
    stride: 1
    weight_filler {
      type: "xavier"
    }
    bias_filler {
      type: "constant"
      value: 0
    }
    kernel_h: 1
    kernel_w: 1
  }
}
layer {
  name: "bn2"
  type: "BatchNorm"
  bottom: "conv2"
  top: "conv2"
}
layer {
  name: "scale2"
  type: "Scale"
  bottom: "conv2"
  top: "conv2"
  scale_param {
    bias_term: true
  }
}
layer {
  name: "relu2"
  type: "ReLU"
  bottom: "conv2"
  top: "conv2"
}
layer {
  name: "conv1_tnet2"
  type: "Convolution"
  bottom: "conv2"
  top: "conv1_tnet2"
  param {
    lr_mult: 1
  }
  param {
    lr_mult: 2
  }
  convolution_param {
    num_output: 64
    pad: 0
    stride: 1
    weight_filler {
      type: "xavier"
    }
    bias_filler {
      type: "constant"
      value: 0
    }
    kernel_h: 1
    kernel_w: 1
  }
}
layer {
  name: "bn1_tnet2"
  type: "BatchNorm"
  bottom: "conv1_tnet2"
  top: "conv1_tnet2"
}
layer {
  name: "scale1_tnet2"
  type: "Scale"
  bottom: "conv1_tnet2"
  top: "conv1_tnet2"
  scale_param {
    bias_term: true
  }
}
layer {
  name: "relu1_tnet2"
  type: "ReLU"
  bottom: "conv1_tnet2"
  top: "conv1_tnet2"
}
layer {
  name: "conv2_tnet2"
  type: "Convolution"
  bottom: "conv1_tnet2"
  top: "conv2_tnet2"
  param {
    lr_mult: 1
  }
  param {
    lr_mult: 2
  }
  convolution_param {
    num_output: 128
    pad: 0
    stride: 1
    weight_filler {
      type: "xavier"
    }
    bias_filler {
      type: "constant"
      value: 0
    }
    kernel_h: 1
    kernel_w: 1
  }
}
layer {
  name: "bn2_tnet2"
  type: "BatchNorm"
  bottom: "conv2_tnet2"
  top: "conv2_tnet2"
}
layer {
  name: "scale2_tnet2"
  type: "Scale"
  bottom: "conv2_tnet2"
  top: "conv2_tnet2"
  scale_param {
    bias_term: true
  }
}
layer {
  name: "relu2_tnet2"
  type: "ReLU"
  bottom: "conv2_tnet2"
  top: "conv2_tnet2"
}
layer {
  name: "conv3_tnet2"
  type: "Convolution"
  bottom: "conv2_tnet2"
  top: "conv3_tnet2"
  param {
    lr_mult: 1
  }
  param {
    lr_mult: 2
  }
  convolution_param {
    num_output: 1024
    pad: 0
    stride: 1
    weight_filler {
      type: "xavier"
    }
    bias_filler {
      type: "constant"
      value: 0
    }
    kernel_h: 1
    kernel_w: 1
  }
}
layer {
  name: "bn3_tnet2"
  type: "BatchNorm"
  bottom: "conv3_tnet2"
  top: "conv3_tnet2"
}
layer {
  name: "scale3_tnet2"
  type: "Scale"
  bottom: "conv3_tnet2"
  top: "conv3_tnet2"
  scale_param {
    bias_term: true
  }
}
layer {
  name: "relu3_tnet2"
  type: "ReLU"
  bottom: "conv3_tnet2"
  top: "conv3_tnet2"
}
layer {
  name: "pool_tnet2"
  type: "Pooling"
  bottom: "conv3_tnet2"
  top: "global_feat_tnet2"
  pooling_param {
    pool: MAX
    stride: 1
    pad: 0
    kernel_h: 2048
    kernel_w: 1
  }
}
layer {
  name: "fc1_tnet2"
  type: "InnerProduct"
  bottom: "global_feat_tnet2"
  top: "fc1_tnet2"
  param {
    lr_mult: 1
    decay_mult: 1
  }
  param {
    lr_mult: 1
    decay_mult: 1
  }
  inner_product_param {
    num_output: 512
    weight_filler {
      type: "gaussian"
      std: 0.001
    }
    bias_filler {
      type: "constant"
      value: 0
    }
  }
}
layer {
  name: "bn6_tnet2"
  type: "BatchNorm"
  bottom: "fc1_tnet2"
  top: "fc1_tnet2"
}
layer {
  name: "scale6_tnet2"
  type: "Scale"
  bottom: "fc1_tnet2"
  top: "fc1_tnet2"
  scale_param {
    bias_term: true
  }
}
layer {
  name: "relu6_tnet2"
  type: "ReLU"
  bottom: "fc1_tnet2"
  top: "fc1_tnet2"
}
layer {
  name: "fc2_tnet2"
  type: "InnerProduct"
  bottom: "fc1_tnet2"
  top: "fc2_tnet2"
  param {
    lr_mult: 1
    decay_mult: 1
  }
  param {
    lr_mult: 1
    decay_mult: 1
  }
  inner_product_param {
    num_output: 256
    weight_filler {
      type: "gaussian"
      std: 0.001
    }
    bias_filler {
      type: "constant"
      value: 0
    }
  }
}
layer {
  name: "bn7_tnet2"
  type: "BatchNorm"
  bottom: "fc2_tnet2"
  top: "fc2_tnet2"
}
layer {
  name: "scale7_tnet2"
  type: "Scale"
  bottom: "fc2_tnet2"
  top: "fc2_tnet2"
  scale_param {
    bias_term: true
  }
}
layer {
  name: "relu7_tnet2"
  type: "ReLU"
  bottom: "fc2_tnet2"
  top: "fc2_tnet2"
}
layer {
  name: "fc3_tnet2"
  type: "InnerProduct"
  bottom: "fc2_tnet2"
  top: "fc3_tnet2"
  param {
    lr_mult: 1
    decay_mult: 1
  }
  param {
    lr_mult: 1
    decay_mult: 1
  }
  inner_product_param {
    num_output: 4096
    weight_filler {
      type: "constant"
      value: 0
    }
    bias_filler {
      type: "constant"
      value: 0
    }
  }
}
layer {
  name: "reshape_tnet2"
  type: "Reshape"
  bottom: "fc3_tnet2"
  top: "fc3_tnet2_reshape"
  reshape_param {
    shape {
      dim: -1
      dim: 64
      dim: 64
    }
  }
}
layer {
  name: "eye_tnet2"
  type: "Python"
  bottom: "fc3_tnet2"
  top: "eye_tnet2"
  python_param {
    module: "eye_matrix_layer"
    layer: "EyeMatrixLayer"
    param_str: "{\'K\': 64}"
  }
}
layer {
  name: "eltwise_sum_tnet2"
  type: "Eltwise"
  bottom: "fc3_tnet2_reshape"
  bottom: "eye_tnet2"
  top: "transform2"
  eltwise_param {
    operation: SUM
  }
}
layer {
  name: "perm_scale2"
  type: "Permute"
  bottom: "conv2"
  top: "scale2_permute"
  permute_param {
    order: 0
    order: 2
    order: 1
    order: 3
  }
}
layer {
  name: "reshape_scale2"
  type: "Reshape"
  bottom: "scale2_permute"
  top: "scale2_reshape"
  reshape_param {
    shape {
      dim: 0
      dim: -1
      dim: 64
    }
  }
}
layer {
  name: "matmul_feat"
  type: "MatrixMultiplication"
  bottom: "scale2_reshape"
  bottom: "transform2"
  top: "scale2_transform2"
}
layer {
  name: "perm_scale2_transform2"
  type: "Permute"
  bottom: "scale2_transform2"
  top: "scale2_permute_transform2"
  permute_param {
    order: 0
    order: 2
    order: 1
  }
}
layer {
  name: "reshape_scale2_transform2"
  type: "Reshape"
  bottom: "scale2_permute_transform2"
  top: "scale2_transform2_reshape"
  reshape_param {
    shape {
      dim: 0
      dim: 0
      dim: 0
      dim: 1
    }
  }
}
layer {
  name: "conv3"
  type: "Convolution"
  bottom: "scale2_transform2_reshape"
  top: "conv3"
  param {
    lr_mult: 1
  }
  param {
    lr_mult: 2
  }
  convolution_param {
    num_output: 64
    pad: 0
    stride: 1
    weight_filler {
      type: "xavier"
    }
    bias_filler {
      type: "constant"
      value: 0
    }
    kernel_h: 1
    kernel_w: 1
  }
}
layer {
  name: "bn3"
  type: "BatchNorm"
  bottom: "conv3"
  top: "conv3"
}
layer {
  name: "scale3"
  type: "Scale"
  bottom: "conv3"
  top: "conv3"
  scale_param {
    bias_term: true
  }
}
layer {
  name: "relu3"
  type: "ReLU"
  bottom: "conv3"
  top: "conv3"
}
layer {
  name: "conv4"
  type: "Convolution"
  bottom: "conv3"
  top: "conv4"
  param {
    lr_mult: 1
  }
  param {
    lr_mult: 2
  }
  convolution_param {
    num_output: 128
    pad: 0
    stride: 1
    weight_filler {
      type: "xavier"
    }
    bias_filler {
      type: "constant"
      value: 0
    }
    kernel_h: 1
    kernel_w: 1
  }
}
layer {
  name: "bn4"
  type: "BatchNorm"
  bottom: "conv4"
  top: "conv4"
}
layer {
  name: "scale4"
  type: "Scale"
  bottom: "conv4"
  top: "conv4"
  scale_param {
    bias_term: true
  }
}
layer {
  name: "relu4"
  type: "ReLU"
  bottom: "conv4"
  top: "conv4"
}
layer {
  name: "conv5"
  type: "Convolution"
  bottom: "conv4"
  top: "conv5"
  param {
    lr_mult: 1
  }
  param {
    lr_mult: 2
  }
  convolution_param {
    num_output: 1024
    pad: 0
    stride: 1
    weight_filler {
      type: "xavier"
    }
    bias_filler {
      type: "constant"
      value: 0
    }
    kernel_h: 1
    kernel_w: 1
  }
}
layer {
  name: "bn5"
  type: "BatchNorm"
  bottom: "conv5"
  top: "conv5"
}
layer {
  name: "scale5"
  type: "Scale"
  bottom: "conv5"
  top: "conv5"
  scale_param {
    bias_term: true
  }
}
layer {
  name: "relu5"
  type: "ReLU"
  bottom: "conv5"
  top: "conv5"
}
layer {
  name: "pool"
  type: "Pooling"
  bottom: "conv5"
  top: "global_feat"
  pooling_param {
    pool: MAX
    stride: 1
    pad: 0
    kernel_h: 2048
    kernel_w: 1
  }
}
layer {
  name: "fc1"
  type: "InnerProduct"
  bottom: "global_feat"
  top: "fc1"
  param {
    lr_mult: 1
    decay_mult: 1
  }
  param {
    lr_mult: 1
    decay_mult: 1
  }
  inner_product_param {
    num_output: 512
    weight_filler {
      type: "gaussian"
      std: 0.001
    }
    bias_filler {
      type: "constant"
      value: 0
    }
  }
}
layer {
  name: "bn6"
  type: "BatchNorm"
  bottom: "fc1"
  top: "fc1"
}
layer {
  name: "scale6"
  type: "Scale"
  bottom: "fc1"
  top: "fc1"
  scale_param {
    bias_term: true
  }
}
layer {
  name: "relu6"
  type: "ReLU"
  bottom: "fc1"
  top: "fc1"
}
layer {
  name: "fc2"
  type: "InnerProduct"
  bottom: "fc1"
  top: "fc2"
  param {
    lr_mult: 1
    decay_mult: 1
  }
  param {
    lr_mult: 1
    decay_mult: 1
  }
  inner_product_param {
    num_output: 256
    weight_filler {
      type: "gaussian"
      std: 0.001
    }
    bias_filler {
      type: "constant"
      value: 0
    }
  }
}
layer {
  name: "bn7"
  type: "BatchNorm"
  bottom: "fc2"
  top: "fc2"
}
layer {
  name: "scale7"
  type: "Scale"
  bottom: "fc2"
  top: "fc2"
  scale_param {
    bias_term: true
  }
}
layer {
  name: "relu7"
  type: "ReLU"
  bottom: "fc2"
  top: "fc2"
}
layer {
  name: "drop1"
  type: "Dropout"
  bottom: "fc2"
  top: "drop1"
  dropout_param {
    dropout_ratio: 0.3
  }
}
layer {
  name: "fc3"
  type: "InnerProduct"
  bottom: "drop1"
  top: "fc3"
  param {
    lr_mult: 1
    decay_mult: 1
  }
  param {
    lr_mult: 1
    decay_mult: 1
  }
  inner_product_param {
    num_output: 40
    weight_filler {
      type: "gaussian"
      std: 0.001
    }
    bias_filler {
      type: "constant"
      value: 0
    }
  }
}
layer {
  name: "accuracy"
  type: "Accuracy"
  bottom: "fc3"
  bottom: "label"
  top: "accuracy"
  include {
    phase: TEST
  }
}
layer {
  name: "loss"
  type: "SoftmaxWithLoss"
  bottom: "fc3"
  bottom: "label"
  top: "loss"
}
layer {
  name: "perm_loss_transform2"
  type: "Permute"
  bottom: "transform2"
  top: "transform2_transpose"
  permute_param {
    order: 0
    order: 2
    order: 1
  }
}
layer {
  name: "matmul_feat_loss"
  type: "MatrixMultiplication"
  bottom: "transform2"
  bottom: "transform2_transpose"
  top: "transform2_mul"
}
layer {
  name: "loss_feat"
  type: "EuclideanLoss"
  bottom: "transform2_mul"
  bottom: "eye_tnet2"
  top: "loss_feat"
  loss_weight: 0.001
}
I0602 08:50:19.680419 27704 layer_factory.hpp:77] Creating layer data
I0602 08:50:19.680433 27704 net.cpp:84] Creating Layer data
I0602 08:50:19.680438 27704 net.cpp:380] data -> data
I0602 08:50:19.680452 27704 net.cpp:380] data -> label
I0602 08:50:19.680460 27704 hdf5_data_layer.cpp:80] Loading list of HDF5 filenames from: data/modelnet40_ply_hdf5_2048/test_files.txt
I0602 08:50:19.717600 27704 hdf5_data_layer.cpp:94] Number of HDF5 files: 2
I0602 08:50:19.718614 27704 hdf5.cpp:32] Datatype class: H5T_FLOAT
I0602 08:50:20.065166 27704 hdf5.cpp:35] Datatype class: H5T_INTEGER
I0602 08:50:20.065893 27704 net.cpp:122] Setting up data
I0602 08:50:20.065912 27704 net.cpp:129] Top shape: 32 2048 3 (196608)
I0602 08:50:20.065917 27704 net.cpp:129] Top shape: 32 1 (32)
I0602 08:50:20.065920 27704 net.cpp:137] Memory required for data: 786560
I0602 08:50:20.065927 27704 layer_factory.hpp:77] Creating layer data_data_0_split
I0602 08:50:20.065937 27704 net.cpp:84] Creating Layer data_data_0_split
I0602 08:50:20.065942 27704 net.cpp:406] data_data_0_split <- data
I0602 08:50:20.065949 27704 net.cpp:380] data_data_0_split -> data_data_0_split_0
I0602 08:50:20.065958 27704 net.cpp:380] data_data_0_split -> data_data_0_split_1
I0602 08:50:20.065984 27704 net.cpp:122] Setting up data_data_0_split
I0602 08:50:20.065989 27704 net.cpp:129] Top shape: 32 2048 3 (196608)
I0602 08:50:20.065992 27704 net.cpp:129] Top shape: 32 2048 3 (196608)
I0602 08:50:20.065994 27704 net.cpp:137] Memory required for data: 2359424
I0602 08:50:20.065997 27704 layer_factory.hpp:77] Creating layer label_data_1_split
I0602 08:50:20.066001 27704 net.cpp:84] Creating Layer label_data_1_split
I0602 08:50:20.066004 27704 net.cpp:406] label_data_1_split <- label
I0602 08:50:20.066009 27704 net.cpp:380] label_data_1_split -> label_data_1_split_0
I0602 08:50:20.066012 27704 net.cpp:380] label_data_1_split -> label_data_1_split_1
I0602 08:50:20.066033 27704 net.cpp:122] Setting up label_data_1_split
I0602 08:50:20.066038 27704 net.cpp:129] Top shape: 32 1 (32)
I0602 08:50:20.066041 27704 net.cpp:129] Top shape: 32 1 (32)
I0602 08:50:20.066045 27704 net.cpp:137] Memory required for data: 2359680
I0602 08:50:20.066046 27704 layer_factory.hpp:77] Creating layer reshape
I0602 08:50:20.066053 27704 net.cpp:84] Creating Layer reshape
I0602 08:50:20.066056 27704 net.cpp:406] reshape <- data_data_0_split_0
I0602 08:50:20.066061 27704 net.cpp:380] reshape -> data_reshape
I0602 08:50:20.066082 27704 net.cpp:122] Setting up reshape
I0602 08:50:20.066087 27704 net.cpp:129] Top shape: 32 1 2048 3 (196608)
I0602 08:50:20.066089 27704 net.cpp:137] Memory required for data: 3146112
I0602 08:50:20.066092 27704 layer_factory.hpp:77] Creating layer conv1_tnet1
I0602 08:50:20.066109 27704 net.cpp:84] Creating Layer conv1_tnet1
I0602 08:50:20.066113 27704 net.cpp:406] conv1_tnet1 <- data_reshape
I0602 08:50:20.066118 27704 net.cpp:380] conv1_tnet1 -> conv1_tnet1
I0602 08:50:20.346509 27704 net.cpp:122] Setting up conv1_tnet1
I0602 08:50:20.346536 27704 net.cpp:129] Top shape: 32 64 2048 1 (4194304)
I0602 08:50:20.346539 27704 net.cpp:137] Memory required for data: 19923328
I0602 08:50:20.346557 27704 layer_factory.hpp:77] Creating layer bn1_tnet1
I0602 08:50:20.346566 27704 net.cpp:84] Creating Layer bn1_tnet1
I0602 08:50:20.346570 27704 net.cpp:406] bn1_tnet1 <- conv1_tnet1
I0602 08:50:20.346575 27704 net.cpp:367] bn1_tnet1 -> conv1_tnet1 (in-place)
I0602 08:50:20.346727 27704 net.cpp:122] Setting up bn1_tnet1
I0602 08:50:20.346736 27704 net.cpp:129] Top shape: 32 64 2048 1 (4194304)
I0602 08:50:20.346740 27704 net.cpp:137] Memory required for data: 36700544
I0602 08:50:20.346748 27704 layer_factory.hpp:77] Creating layer scale1_tnet1
I0602 08:50:20.346755 27704 net.cpp:84] Creating Layer scale1_tnet1
I0602 08:50:20.346773 27704 net.cpp:406] scale1_tnet1 <- conv1_tnet1
I0602 08:50:20.346778 27704 net.cpp:367] scale1_tnet1 -> conv1_tnet1 (in-place)
I0602 08:50:20.346813 27704 layer_factory.hpp:77] Creating layer scale1_tnet1
I0602 08:50:20.346892 27704 net.cpp:122] Setting up scale1_tnet1
I0602 08:50:20.346899 27704 net.cpp:129] Top shape: 32 64 2048 1 (4194304)
I0602 08:50:20.346901 27704 net.cpp:137] Memory required for data: 53477760
I0602 08:50:20.346906 27704 layer_factory.hpp:77] Creating layer relu1_tnet1
I0602 08:50:20.346911 27704 net.cpp:84] Creating Layer relu1_tnet1
I0602 08:50:20.346915 27704 net.cpp:406] relu1_tnet1 <- conv1_tnet1
I0602 08:50:20.346920 27704 net.cpp:367] relu1_tnet1 -> conv1_tnet1 (in-place)
I0602 08:50:20.347203 27704 net.cpp:122] Setting up relu1_tnet1
I0602 08:50:20.347213 27704 net.cpp:129] Top shape: 32 64 2048 1 (4194304)
I0602 08:50:20.347216 27704 net.cpp:137] Memory required for data: 70254976
I0602 08:50:20.347219 27704 layer_factory.hpp:77] Creating layer conv2_tnet1
I0602 08:50:20.347229 27704 net.cpp:84] Creating Layer conv2_tnet1
I0602 08:50:20.347234 27704 net.cpp:406] conv2_tnet1 <- conv1_tnet1
I0602 08:50:20.347239 27704 net.cpp:380] conv2_tnet1 -> conv2_tnet1
I0602 08:50:20.348529 27704 net.cpp:122] Setting up conv2_tnet1
I0602 08:50:20.348542 27704 net.cpp:129] Top shape: 32 128 2048 1 (8388608)
I0602 08:50:20.348546 27704 net.cpp:137] Memory required for data: 103809408
I0602 08:50:20.348554 27704 layer_factory.hpp:77] Creating layer bn2_tnet1
I0602 08:50:20.348561 27704 net.cpp:84] Creating Layer bn2_tnet1
I0602 08:50:20.348564 27704 net.cpp:406] bn2_tnet1 <- conv2_tnet1
I0602 08:50:20.348568 27704 net.cpp:367] bn2_tnet1 -> conv2_tnet1 (in-place)
I0602 08:50:20.348697 27704 net.cpp:122] Setting up bn2_tnet1
I0602 08:50:20.348703 27704 net.cpp:129] Top shape: 32 128 2048 1 (8388608)
I0602 08:50:20.348707 27704 net.cpp:137] Memory required for data: 137363840
I0602 08:50:20.348713 27704 layer_factory.hpp:77] Creating layer scale2_tnet1
I0602 08:50:20.348718 27704 net.cpp:84] Creating Layer scale2_tnet1
I0602 08:50:20.348721 27704 net.cpp:406] scale2_tnet1 <- conv2_tnet1
I0602 08:50:20.348726 27704 net.cpp:367] scale2_tnet1 -> conv2_tnet1 (in-place)
I0602 08:50:20.348753 27704 layer_factory.hpp:77] Creating layer scale2_tnet1
I0602 08:50:20.348824 27704 net.cpp:122] Setting up scale2_tnet1
I0602 08:50:20.348829 27704 net.cpp:129] Top shape: 32 128 2048 1 (8388608)
I0602 08:50:20.348832 27704 net.cpp:137] Memory required for data: 170918272
I0602 08:50:20.348837 27704 layer_factory.hpp:77] Creating layer relu2_tnet1
I0602 08:50:20.348842 27704 net.cpp:84] Creating Layer relu2_tnet1
I0602 08:50:20.348845 27704 net.cpp:406] relu2_tnet1 <- conv2_tnet1
I0602 08:50:20.348850 27704 net.cpp:367] relu2_tnet1 -> conv2_tnet1 (in-place)
I0602 08:50:20.349020 27704 net.cpp:122] Setting up relu2_tnet1
I0602 08:50:20.349027 27704 net.cpp:129] Top shape: 32 128 2048 1 (8388608)
I0602 08:50:20.349030 27704 net.cpp:137] Memory required for data: 204472704
I0602 08:50:20.349033 27704 layer_factory.hpp:77] Creating layer conv3_tnet1
I0602 08:50:20.349041 27704 net.cpp:84] Creating Layer conv3_tnet1
I0602 08:50:20.349045 27704 net.cpp:406] conv3_tnet1 <- conv2_tnet1
I0602 08:50:20.349050 27704 net.cpp:380] conv3_tnet1 -> conv3_tnet1
I0602 08:50:20.351279 27704 net.cpp:122] Setting up conv3_tnet1
I0602 08:50:20.351291 27704 net.cpp:129] Top shape: 32 1024 2048 1 (67108864)
I0602 08:50:20.351296 27704 net.cpp:137] Memory required for data: 472908160
I0602 08:50:20.351301 27704 layer_factory.hpp:77] Creating layer bn3_tnet1
I0602 08:50:20.351307 27704 net.cpp:84] Creating Layer bn3_tnet1
I0602 08:50:20.351311 27704 net.cpp:406] bn3_tnet1 <- conv3_tnet1
I0602 08:50:20.351316 27704 net.cpp:367] bn3_tnet1 -> conv3_tnet1 (in-place)
I0602 08:50:20.351447 27704 net.cpp:122] Setting up bn3_tnet1
I0602 08:50:20.351454 27704 net.cpp:129] Top shape: 32 1024 2048 1 (67108864)
I0602 08:50:20.351457 27704 net.cpp:137] Memory required for data: 741343616
I0602 08:50:20.351465 27704 layer_factory.hpp:77] Creating layer scale3_tnet1
I0602 08:50:20.351481 27704 net.cpp:84] Creating Layer scale3_tnet1
I0602 08:50:20.351485 27704 net.cpp:406] scale3_tnet1 <- conv3_tnet1
I0602 08:50:20.351490 27704 net.cpp:367] scale3_tnet1 -> conv3_tnet1 (in-place)
I0602 08:50:20.351516 27704 layer_factory.hpp:77] Creating layer scale3_tnet1
I0602 08:50:20.351591 27704 net.cpp:122] Setting up scale3_tnet1
I0602 08:50:20.351598 27704 net.cpp:129] Top shape: 32 1024 2048 1 (67108864)
I0602 08:50:20.351601 27704 net.cpp:137] Memory required for data: 1009779072
I0602 08:50:20.351606 27704 layer_factory.hpp:77] Creating layer relu3_tnet1
I0602 08:50:20.351611 27704 net.cpp:84] Creating Layer relu3_tnet1
I0602 08:50:20.351614 27704 net.cpp:406] relu3_tnet1 <- conv3_tnet1
I0602 08:50:20.351619 27704 net.cpp:367] relu3_tnet1 -> conv3_tnet1 (in-place)
I0602 08:50:20.351902 27704 net.cpp:122] Setting up relu3_tnet1
I0602 08:50:20.351912 27704 net.cpp:129] Top shape: 32 1024 2048 1 (67108864)
I0602 08:50:20.351915 27704 net.cpp:137] Memory required for data: 1278214528
I0602 08:50:20.351919 27704 layer_factory.hpp:77] Creating layer pool_tnet1
I0602 08:50:20.351927 27704 net.cpp:84] Creating Layer pool_tnet1
I0602 08:50:20.351930 27704 net.cpp:406] pool_tnet1 <- conv3_tnet1
I0602 08:50:20.351934 27704 net.cpp:380] pool_tnet1 -> global_feat_tnet1
I0602 08:50:20.351972 27704 net.cpp:122] Setting up pool_tnet1
I0602 08:50:20.351979 27704 net.cpp:129] Top shape: 32 1024 1 1 (32768)
I0602 08:50:20.351981 27704 net.cpp:137] Memory required for data: 1278345600
I0602 08:50:20.351984 27704 layer_factory.hpp:77] Creating layer fc1_tnet1
I0602 08:50:20.351990 27704 net.cpp:84] Creating Layer fc1_tnet1
I0602 08:50:20.351994 27704 net.cpp:406] fc1_tnet1 <- global_feat_tnet1
I0602 08:50:20.351999 27704 net.cpp:380] fc1_tnet1 -> fc1_tnet1
I0602 08:50:20.364491 27704 net.cpp:122] Setting up fc1_tnet1
I0602 08:50:20.364509 27704 net.cpp:129] Top shape: 32 512 (16384)
I0602 08:50:20.364512 27704 net.cpp:137] Memory required for data: 1278411136
I0602 08:50:20.364519 27704 layer_factory.hpp:77] Creating layer bn6_tnet1
I0602 08:50:20.364526 27704 net.cpp:84] Creating Layer bn6_tnet1
I0602 08:50:20.364528 27704 net.cpp:406] bn6_tnet1 <- fc1_tnet1
I0602 08:50:20.364533 27704 net.cpp:367] bn6_tnet1 -> fc1_tnet1 (in-place)
I0602 08:50:20.364672 27704 net.cpp:122] Setting up bn6_tnet1
I0602 08:50:20.364678 27704 net.cpp:129] Top shape: 32 512 (16384)
I0602 08:50:20.364681 27704 net.cpp:137] Memory required for data: 1278476672
I0602 08:50:20.364687 27704 layer_factory.hpp:77] Creating layer scale6_tnet1
I0602 08:50:20.364692 27704 net.cpp:84] Creating Layer scale6_tnet1
I0602 08:50:20.364696 27704 net.cpp:406] scale6_tnet1 <- fc1_tnet1
I0602 08:50:20.364698 27704 net.cpp:367] scale6_tnet1 -> fc1_tnet1 (in-place)
I0602 08:50:20.364725 27704 layer_factory.hpp:77] Creating layer scale6_tnet1
I0602 08:50:20.364804 27704 net.cpp:122] Setting up scale6_tnet1
I0602 08:50:20.364809 27704 net.cpp:129] Top shape: 32 512 (16384)
I0602 08:50:20.364811 27704 net.cpp:137] Memory required for data: 1278542208
I0602 08:50:20.364816 27704 layer_factory.hpp:77] Creating layer relu6_tnet1
I0602 08:50:20.364822 27704 net.cpp:84] Creating Layer relu6_tnet1
I0602 08:50:20.364825 27704 net.cpp:406] relu6_tnet1 <- fc1_tnet1
I0602 08:50:20.364830 27704 net.cpp:367] relu6_tnet1 -> fc1_tnet1 (in-place)
I0602 08:50:20.365018 27704 net.cpp:122] Setting up relu6_tnet1
I0602 08:50:20.365028 27704 net.cpp:129] Top shape: 32 512 (16384)
I0602 08:50:20.365031 27704 net.cpp:137] Memory required for data: 1278607744
I0602 08:50:20.365034 27704 layer_factory.hpp:77] Creating layer fc2_tnet1
I0602 08:50:20.365041 27704 net.cpp:84] Creating Layer fc2_tnet1
I0602 08:50:20.365044 27704 net.cpp:406] fc2_tnet1 <- fc1_tnet1
I0602 08:50:20.365049 27704 net.cpp:380] fc2_tnet1 -> fc2_tnet1
I0602 08:50:20.368083 27704 net.cpp:122] Setting up fc2_tnet1
I0602 08:50:20.368095 27704 net.cpp:129] Top shape: 32 256 (8192)
I0602 08:50:20.368098 27704 net.cpp:137] Memory required for data: 1278640512
I0602 08:50:20.368119 27704 layer_factory.hpp:77] Creating layer bn7_tnet1
I0602 08:50:20.368126 27704 net.cpp:84] Creating Layer bn7_tnet1
I0602 08:50:20.368129 27704 net.cpp:406] bn7_tnet1 <- fc2_tnet1
I0602 08:50:20.368134 27704 net.cpp:367] bn7_tnet1 -> fc2_tnet1 (in-place)
I0602 08:50:20.368269 27704 net.cpp:122] Setting up bn7_tnet1
I0602 08:50:20.368275 27704 net.cpp:129] Top shape: 32 256 (8192)
I0602 08:50:20.368278 27704 net.cpp:137] Memory required for data: 1278673280
I0602 08:50:20.368288 27704 layer_factory.hpp:77] Creating layer scale7_tnet1
I0602 08:50:20.368294 27704 net.cpp:84] Creating Layer scale7_tnet1
I0602 08:50:20.368296 27704 net.cpp:406] scale7_tnet1 <- fc2_tnet1
I0602 08:50:20.368301 27704 net.cpp:367] scale7_tnet1 -> fc2_tnet1 (in-place)
I0602 08:50:20.368330 27704 layer_factory.hpp:77] Creating layer scale7_tnet1
I0602 08:50:20.368407 27704 net.cpp:122] Setting up scale7_tnet1
I0602 08:50:20.368412 27704 net.cpp:129] Top shape: 32 256 (8192)
I0602 08:50:20.368414 27704 net.cpp:137] Memory required for data: 1278706048
I0602 08:50:20.368418 27704 layer_factory.hpp:77] Creating layer relu7_tnet1
I0602 08:50:20.368424 27704 net.cpp:84] Creating Layer relu7_tnet1
I0602 08:50:20.368428 27704 net.cpp:406] relu7_tnet1 <- fc2_tnet1
I0602 08:50:20.368432 27704 net.cpp:367] relu7_tnet1 -> fc2_tnet1 (in-place)
I0602 08:50:20.368786 27704 net.cpp:122] Setting up relu7_tnet1
I0602 08:50:20.368798 27704 net.cpp:129] Top shape: 32 256 (8192)
I0602 08:50:20.368800 27704 net.cpp:137] Memory required for data: 1278738816
I0602 08:50:20.368803 27704 layer_factory.hpp:77] Creating layer fc3_tnet1
I0602 08:50:20.368810 27704 net.cpp:84] Creating Layer fc3_tnet1
I0602 08:50:20.368814 27704 net.cpp:406] fc3_tnet1 <- fc2_tnet1
I0602 08:50:20.368819 27704 net.cpp:380] fc3_tnet1 -> fc3_tnet1
I0602 08:50:20.368912 27704 net.cpp:122] Setting up fc3_tnet1
I0602 08:50:20.368919 27704 net.cpp:129] Top shape: 32 9 (288)
I0602 08:50:20.368922 27704 net.cpp:137] Memory required for data: 1278739968
I0602 08:50:20.368927 27704 layer_factory.hpp:77] Creating layer fc3_tnet1_fc3_tnet1_0_split
I0602 08:50:20.368932 27704 net.cpp:84] Creating Layer fc3_tnet1_fc3_tnet1_0_split
I0602 08:50:20.368935 27704 net.cpp:406] fc3_tnet1_fc3_tnet1_0_split <- fc3_tnet1
I0602 08:50:20.368939 27704 net.cpp:380] fc3_tnet1_fc3_tnet1_0_split -> fc3_tnet1_fc3_tnet1_0_split_0
I0602 08:50:20.368943 27704 net.cpp:380] fc3_tnet1_fc3_tnet1_0_split -> fc3_tnet1_fc3_tnet1_0_split_1
I0602 08:50:20.368970 27704 net.cpp:122] Setting up fc3_tnet1_fc3_tnet1_0_split
I0602 08:50:20.368976 27704 net.cpp:129] Top shape: 32 9 (288)
I0602 08:50:20.368979 27704 net.cpp:129] Top shape: 32 9 (288)
I0602 08:50:20.368983 27704 net.cpp:137] Memory required for data: 1278742272
I0602 08:50:20.368984 27704 layer_factory.hpp:77] Creating layer reshape_tnet1
I0602 08:50:20.368991 27704 net.cpp:84] Creating Layer reshape_tnet1
I0602 08:50:20.368995 27704 net.cpp:406] reshape_tnet1 <- fc3_tnet1_fc3_tnet1_0_split_0
I0602 08:50:20.368999 27704 net.cpp:380] reshape_tnet1 -> fc3_tnet1_reshape
I0602 08:50:20.369020 27704 net.cpp:122] Setting up reshape_tnet1
I0602 08:50:20.369025 27704 net.cpp:129] Top shape: 32 3 3 (288)
I0602 08:50:20.369029 27704 net.cpp:137] Memory required for data: 1278743424
I0602 08:50:20.369030 27704 layer_factory.hpp:77] Creating layer eye_tnet1
I0602 08:50:21.001458 27704 net.cpp:84] Creating Layer eye_tnet1
I0602 08:50:21.001484 27704 net.cpp:406] eye_tnet1 <- fc3_tnet1_fc3_tnet1_0_split_1
I0602 08:50:21.001497 27704 net.cpp:380] eye_tnet1 -> eye_tnet1
I0602 08:50:21.001714 27704 net.cpp:122] Setting up eye_tnet1
I0602 08:50:21.001727 27704 net.cpp:129] Top shape: 32 3 3 (288)
I0602 08:50:21.001730 27704 net.cpp:137] Memory required for data: 1278744576
I0602 08:50:21.001736 27704 layer_factory.hpp:77] Creating layer eltwise_sum_tnet1
I0602 08:50:21.001744 27704 net.cpp:84] Creating Layer eltwise_sum_tnet1
I0602 08:50:21.001746 27704 net.cpp:406] eltwise_sum_tnet1 <- fc3_tnet1_reshape
I0602 08:50:21.001751 27704 net.cpp:406] eltwise_sum_tnet1 <- eye_tnet1
I0602 08:50:21.001772 27704 net.cpp:380] eltwise_sum_tnet1 -> transform1
I0602 08:50:21.001799 27704 net.cpp:122] Setting up eltwise_sum_tnet1
I0602 08:50:21.001806 27704 net.cpp:129] Top shape: 32 3 3 (288)
I0602 08:50:21.001808 27704 net.cpp:137] Memory required for data: 1278745728
I0602 08:50:21.001811 27704 layer_factory.hpp:77] Creating layer matmul_input
I0602 08:50:21.001816 27704 net.cpp:84] Creating Layer matmul_input
I0602 08:50:21.001818 27704 net.cpp:406] matmul_input <- data_data_0_split_1
I0602 08:50:21.001822 27704 net.cpp:406] matmul_input <- transform1
I0602 08:50:21.001826 27704 net.cpp:380] matmul_input -> data_transform1
I0602 08:50:21.001844 27704 net.cpp:122] Setting up matmul_input
I0602 08:50:21.001849 27704 net.cpp:129] Top shape: 32 2048 3 (196608)
I0602 08:50:21.001852 27704 net.cpp:137] Memory required for data: 1279532160
I0602 08:50:21.001854 27704 layer_factory.hpp:77] Creating layer reshape_input_data
I0602 08:50:21.001860 27704 net.cpp:84] Creating Layer reshape_input_data
I0602 08:50:21.001863 27704 net.cpp:406] reshape_input_data <- data_transform1
I0602 08:50:21.001868 27704 net.cpp:380] reshape_input_data -> data_transform1_reshape
I0602 08:50:21.001891 27704 net.cpp:122] Setting up reshape_input_data
I0602 08:50:21.001896 27704 net.cpp:129] Top shape: 32 1 2048 3 (196608)
I0602 08:50:21.001899 27704 net.cpp:137] Memory required for data: 1280318592
I0602 08:50:21.001902 27704 layer_factory.hpp:77] Creating layer conv1
I0602 08:50:21.001929 27704 net.cpp:84] Creating Layer conv1
I0602 08:50:21.001933 27704 net.cpp:406] conv1 <- data_transform1_reshape
I0602 08:50:21.001938 27704 net.cpp:380] conv1 -> conv1
I0602 08:50:21.003069 27704 net.cpp:122] Setting up conv1
I0602 08:50:21.003082 27704 net.cpp:129] Top shape: 32 64 2048 1 (4194304)
I0602 08:50:21.003085 27704 net.cpp:137] Memory required for data: 1297095808
I0602 08:50:21.003094 27704 layer_factory.hpp:77] Creating layer bn1
I0602 08:50:21.003099 27704 net.cpp:84] Creating Layer bn1
I0602 08:50:21.003103 27704 net.cpp:406] bn1 <- conv1
I0602 08:50:21.003106 27704 net.cpp:367] bn1 -> conv1 (in-place)
I0602 08:50:21.003259 27704 net.cpp:122] Setting up bn1
I0602 08:50:21.003267 27704 net.cpp:129] Top shape: 32 64 2048 1 (4194304)
I0602 08:50:21.003269 27704 net.cpp:137] Memory required for data: 1313873024
I0602 08:50:21.003275 27704 layer_factory.hpp:77] Creating layer scale1
I0602 08:50:21.003280 27704 net.cpp:84] Creating Layer scale1
I0602 08:50:21.003283 27704 net.cpp:406] scale1 <- conv1
I0602 08:50:21.003289 27704 net.cpp:367] scale1 -> conv1 (in-place)
I0602 08:50:21.003324 27704 layer_factory.hpp:77] Creating layer scale1
I0602 08:50:21.003408 27704 net.cpp:122] Setting up scale1
I0602 08:50:21.003414 27704 net.cpp:129] Top shape: 32 64 2048 1 (4194304)
I0602 08:50:21.003417 27704 net.cpp:137] Memory required for data: 1330650240
I0602 08:50:21.003422 27704 layer_factory.hpp:77] Creating layer relu1
I0602 08:50:21.003427 27704 net.cpp:84] Creating Layer relu1
I0602 08:50:21.003429 27704 net.cpp:406] relu1 <- conv1
I0602 08:50:21.003433 27704 net.cpp:367] relu1 -> conv1 (in-place)
I0602 08:50:21.003727 27704 net.cpp:122] Setting up relu1
I0602 08:50:21.003738 27704 net.cpp:129] Top shape: 32 64 2048 1 (4194304)
I0602 08:50:21.003741 27704 net.cpp:137] Memory required for data: 1347427456
I0602 08:50:21.003744 27704 layer_factory.hpp:77] Creating layer conv2
I0602 08:50:21.003752 27704 net.cpp:84] Creating Layer conv2
I0602 08:50:21.003756 27704 net.cpp:406] conv2 <- conv1
I0602 08:50:21.003762 27704 net.cpp:380] conv2 -> conv2
I0602 08:50:21.004685 27704 net.cpp:122] Setting up conv2
I0602 08:50:21.004698 27704 net.cpp:129] Top shape: 32 64 2048 1 (4194304)
I0602 08:50:21.004700 27704 net.cpp:137] Memory required for data: 1364204672
I0602 08:50:21.004706 27704 layer_factory.hpp:77] Creating layer bn2
I0602 08:50:21.004711 27704 net.cpp:84] Creating Layer bn2
I0602 08:50:21.004715 27704 net.cpp:406] bn2 <- conv2
I0602 08:50:21.004721 27704 net.cpp:367] bn2 -> conv2 (in-place)
I0602 08:50:21.004873 27704 net.cpp:122] Setting up bn2
I0602 08:50:21.004889 27704 net.cpp:129] Top shape: 32 64 2048 1 (4194304)
I0602 08:50:21.004892 27704 net.cpp:137] Memory required for data: 1380981888
I0602 08:50:21.004899 27704 layer_factory.hpp:77] Creating layer scale2
I0602 08:50:21.004905 27704 net.cpp:84] Creating Layer scale2
I0602 08:50:21.004909 27704 net.cpp:406] scale2 <- conv2
I0602 08:50:21.004912 27704 net.cpp:367] scale2 -> conv2 (in-place)
I0602 08:50:21.004943 27704 layer_factory.hpp:77] Creating layer scale2
I0602 08:50:21.005028 27704 net.cpp:122] Setting up scale2
I0602 08:50:21.005033 27704 net.cpp:129] Top shape: 32 64 2048 1 (4194304)
I0602 08:50:21.005035 27704 net.cpp:137] Memory required for data: 1397759104
I0602 08:50:21.005041 27704 layer_factory.hpp:77] Creating layer relu2
I0602 08:50:21.005048 27704 net.cpp:84] Creating Layer relu2
I0602 08:50:21.005050 27704 net.cpp:406] relu2 <- conv2
I0602 08:50:21.005054 27704 net.cpp:367] relu2 -> conv2 (in-place)
I0602 08:50:21.005206 27704 net.cpp:122] Setting up relu2
I0602 08:50:21.005214 27704 net.cpp:129] Top shape: 32 64 2048 1 (4194304)
I0602 08:50:21.005218 27704 net.cpp:137] Memory required for data: 1414536320
I0602 08:50:21.005220 27704 layer_factory.hpp:77] Creating layer conv2_relu2_0_split
I0602 08:50:21.005226 27704 net.cpp:84] Creating Layer conv2_relu2_0_split
I0602 08:50:21.005228 27704 net.cpp:406] conv2_relu2_0_split <- conv2
I0602 08:50:21.005234 27704 net.cpp:380] conv2_relu2_0_split -> conv2_relu2_0_split_0
I0602 08:50:21.005239 27704 net.cpp:380] conv2_relu2_0_split -> conv2_relu2_0_split_1
I0602 08:50:21.005268 27704 net.cpp:122] Setting up conv2_relu2_0_split
I0602 08:50:21.005275 27704 net.cpp:129] Top shape: 32 64 2048 1 (4194304)
I0602 08:50:21.005277 27704 net.cpp:129] Top shape: 32 64 2048 1 (4194304)
I0602 08:50:21.005280 27704 net.cpp:137] Memory required for data: 1448090752
I0602 08:50:21.005282 27704 layer_factory.hpp:77] Creating layer conv1_tnet2
I0602 08:50:21.005290 27704 net.cpp:84] Creating Layer conv1_tnet2
I0602 08:50:21.005295 27704 net.cpp:406] conv1_tnet2 <- conv2_relu2_0_split_0
I0602 08:50:21.005300 27704 net.cpp:380] conv1_tnet2 -> conv1_tnet2
I0602 08:50:21.006217 27704 net.cpp:122] Setting up conv1_tnet2
I0602 08:50:21.006228 27704 net.cpp:129] Top shape: 32 64 2048 1 (4194304)
I0602 08:50:21.006232 27704 net.cpp:137] Memory required for data: 1464867968
I0602 08:50:21.006237 27704 layer_factory.hpp:77] Creating layer bn1_tnet2
I0602 08:50:21.006242 27704 net.cpp:84] Creating Layer bn1_tnet2
I0602 08:50:21.006245 27704 net.cpp:406] bn1_tnet2 <- conv1_tnet2
I0602 08:50:21.006248 27704 net.cpp:367] bn1_tnet2 -> conv1_tnet2 (in-place)
I0602 08:50:21.006397 27704 net.cpp:122] Setting up bn1_tnet2
I0602 08:50:21.006402 27704 net.cpp:129] Top shape: 32 64 2048 1 (4194304)
I0602 08:50:21.006405 27704 net.cpp:137] Memory required for data: 1481645184
I0602 08:50:21.006412 27704 layer_factory.hpp:77] Creating layer scale1_tnet2
I0602 08:50:21.006419 27704 net.cpp:84] Creating Layer scale1_tnet2
I0602 08:50:21.006423 27704 net.cpp:406] scale1_tnet2 <- conv1_tnet2
I0602 08:50:21.006428 27704 net.cpp:367] scale1_tnet2 -> conv1_tnet2 (in-place)
I0602 08:50:21.006458 27704 layer_factory.hpp:77] Creating layer scale1_tnet2
I0602 08:50:21.006553 27704 net.cpp:122] Setting up scale1_tnet2
I0602 08:50:21.006561 27704 net.cpp:129] Top shape: 32 64 2048 1 (4194304)
I0602 08:50:21.006563 27704 net.cpp:137] Memory required for data: 1498422400
I0602 08:50:21.006568 27704 layer_factory.hpp:77] Creating layer relu1_tnet2
I0602 08:50:21.006574 27704 net.cpp:84] Creating Layer relu1_tnet2
I0602 08:50:21.006578 27704 net.cpp:406] relu1_tnet2 <- conv1_tnet2
I0602 08:50:21.006584 27704 net.cpp:367] relu1_tnet2 -> conv1_tnet2 (in-place)
I0602 08:50:21.006880 27704 net.cpp:122] Setting up relu1_tnet2
I0602 08:50:21.006891 27704 net.cpp:129] Top shape: 32 64 2048 1 (4194304)
I0602 08:50:21.006894 27704 net.cpp:137] Memory required for data: 1515199616
I0602 08:50:21.006896 27704 layer_factory.hpp:77] Creating layer conv2_tnet2
I0602 08:50:21.006904 27704 net.cpp:84] Creating Layer conv2_tnet2
I0602 08:50:21.006916 27704 net.cpp:406] conv2_tnet2 <- conv1_tnet2
I0602 08:50:21.006923 27704 net.cpp:380] conv2_tnet2 -> conv2_tnet2
I0602 08:50:21.007872 27704 net.cpp:122] Setting up conv2_tnet2
I0602 08:50:21.007885 27704 net.cpp:129] Top shape: 32 128 2048 1 (8388608)
I0602 08:50:21.007889 27704 net.cpp:137] Memory required for data: 1548754048
I0602 08:50:21.007894 27704 layer_factory.hpp:77] Creating layer bn2_tnet2
I0602 08:50:21.007899 27704 net.cpp:84] Creating Layer bn2_tnet2
I0602 08:50:21.007901 27704 net.cpp:406] bn2_tnet2 <- conv2_tnet2
I0602 08:50:21.007907 27704 net.cpp:367] bn2_tnet2 -> conv2_tnet2 (in-place)
I0602 08:50:21.008054 27704 net.cpp:122] Setting up bn2_tnet2
I0602 08:50:21.008060 27704 net.cpp:129] Top shape: 32 128 2048 1 (8388608)
I0602 08:50:21.008062 27704 net.cpp:137] Memory required for data: 1582308480
I0602 08:50:21.008069 27704 layer_factory.hpp:77] Creating layer scale2_tnet2
I0602 08:50:21.008074 27704 net.cpp:84] Creating Layer scale2_tnet2
I0602 08:50:21.008077 27704 net.cpp:406] scale2_tnet2 <- conv2_tnet2
I0602 08:50:21.008081 27704 net.cpp:367] scale2_tnet2 -> conv2_tnet2 (in-place)
I0602 08:50:21.008113 27704 layer_factory.hpp:77] Creating layer scale2_tnet2
I0602 08:50:21.008194 27704 net.cpp:122] Setting up scale2_tnet2
I0602 08:50:21.008199 27704 net.cpp:129] Top shape: 32 128 2048 1 (8388608)
I0602 08:50:21.008203 27704 net.cpp:137] Memory required for data: 1615862912
I0602 08:50:21.008222 27704 layer_factory.hpp:77] Creating layer relu2_tnet2
I0602 08:50:21.008229 27704 net.cpp:84] Creating Layer relu2_tnet2
I0602 08:50:21.008231 27704 net.cpp:406] relu2_tnet2 <- conv2_tnet2
I0602 08:50:21.008235 27704 net.cpp:367] relu2_tnet2 -> conv2_tnet2 (in-place)
I0602 08:50:21.008386 27704 net.cpp:122] Setting up relu2_tnet2
I0602 08:50:21.008394 27704 net.cpp:129] Top shape: 32 128 2048 1 (8388608)
I0602 08:50:21.008397 27704 net.cpp:137] Memory required for data: 1649417344
I0602 08:50:21.008399 27704 layer_factory.hpp:77] Creating layer conv3_tnet2
I0602 08:50:21.008409 27704 net.cpp:84] Creating Layer conv3_tnet2
I0602 08:50:21.008411 27704 net.cpp:406] conv3_tnet2 <- conv2_tnet2
I0602 08:50:21.008416 27704 net.cpp:380] conv3_tnet2 -> conv3_tnet2
I0602 08:50:21.010411 27704 net.cpp:122] Setting up conv3_tnet2
I0602 08:50:21.010422 27704 net.cpp:129] Top shape: 32 1024 2048 1 (67108864)
I0602 08:50:21.010426 27704 net.cpp:137] Memory required for data: 1917852800
I0602 08:50:21.010432 27704 layer_factory.hpp:77] Creating layer bn3_tnet2
I0602 08:50:21.010438 27704 net.cpp:84] Creating Layer bn3_tnet2
I0602 08:50:21.010442 27704 net.cpp:406] bn3_tnet2 <- conv3_tnet2
I0602 08:50:21.010447 27704 net.cpp:367] bn3_tnet2 -> conv3_tnet2 (in-place)
I0602 08:50:21.010597 27704 net.cpp:122] Setting up bn3_tnet2
I0602 08:50:21.010604 27704 net.cpp:129] Top shape: 32 1024 2048 1 (67108864)
I0602 08:50:21.010607 27704 net.cpp:137] Memory required for data: 2186288256
I0602 08:50:21.010613 27704 layer_factory.hpp:77] Creating layer scale3_tnet2
I0602 08:50:21.010620 27704 net.cpp:84] Creating Layer scale3_tnet2
I0602 08:50:21.010623 27704 net.cpp:406] scale3_tnet2 <- conv3_tnet2
I0602 08:50:21.010627 27704 net.cpp:367] scale3_tnet2 -> conv3_tnet2 (in-place)
I0602 08:50:21.010655 27704 layer_factory.hpp:77] Creating layer scale3_tnet2
I0602 08:50:21.010740 27704 net.cpp:122] Setting up scale3_tnet2
I0602 08:50:21.010746 27704 net.cpp:129] Top shape: 32 1024 2048 1 (67108864)
I0602 08:50:21.010748 27704 net.cpp:137] Memory required for data: 2454723712
I0602 08:50:21.010753 27704 layer_factory.hpp:77] Creating layer relu3_tnet2
I0602 08:50:21.010757 27704 net.cpp:84] Creating Layer relu3_tnet2
I0602 08:50:21.010759 27704 net.cpp:406] relu3_tnet2 <- conv3_tnet2
I0602 08:50:21.010764 27704 net.cpp:367] relu3_tnet2 -> conv3_tnet2 (in-place)
I0602 08:50:21.011059 27704 net.cpp:122] Setting up relu3_tnet2
I0602 08:50:21.011068 27704 net.cpp:129] Top shape: 32 1024 2048 1 (67108864)
I0602 08:50:21.011071 27704 net.cpp:137] Memory required for data: 2723159168
I0602 08:50:21.011075 27704 layer_factory.hpp:77] Creating layer pool_tnet2
I0602 08:50:21.011090 27704 net.cpp:84] Creating Layer pool_tnet2
I0602 08:50:21.011095 27704 net.cpp:406] pool_tnet2 <- conv3_tnet2
I0602 08:50:21.011098 27704 net.cpp:380] pool_tnet2 -> global_feat_tnet2
I0602 08:50:21.011137 27704 net.cpp:122] Setting up pool_tnet2
I0602 08:50:21.011143 27704 net.cpp:129] Top shape: 32 1024 1 1 (32768)
I0602 08:50:21.011147 27704 net.cpp:137] Memory required for data: 2723290240
I0602 08:50:21.011148 27704 layer_factory.hpp:77] Creating layer fc1_tnet2
I0602 08:50:21.011155 27704 net.cpp:84] Creating Layer fc1_tnet2
I0602 08:50:21.011158 27704 net.cpp:406] fc1_tnet2 <- global_feat_tnet2
I0602 08:50:21.011163 27704 net.cpp:380] fc1_tnet2 -> fc1_tnet2
I0602 08:50:21.022925 27704 net.cpp:122] Setting up fc1_tnet2
I0602 08:50:21.022945 27704 net.cpp:129] Top shape: 32 512 (16384)
I0602 08:50:21.022948 27704 net.cpp:137] Memory required for data: 2723355776
I0602 08:50:21.022960 27704 layer_factory.hpp:77] Creating layer bn6_tnet2
I0602 08:50:21.022969 27704 net.cpp:84] Creating Layer bn6_tnet2
I0602 08:50:21.022974 27704 net.cpp:406] bn6_tnet2 <- fc1_tnet2
I0602 08:50:21.022979 27704 net.cpp:367] bn6_tnet2 -> fc1_tnet2 (in-place)
I0602 08:50:21.023136 27704 net.cpp:122] Setting up bn6_tnet2
I0602 08:50:21.023144 27704 net.cpp:129] Top shape: 32 512 (16384)
I0602 08:50:21.023146 27704 net.cpp:137] Memory required for data: 2723421312
I0602 08:50:21.023152 27704 layer_factory.hpp:77] Creating layer scale6_tnet2
I0602 08:50:21.023157 27704 net.cpp:84] Creating Layer scale6_tnet2
I0602 08:50:21.023161 27704 net.cpp:406] scale6_tnet2 <- fc1_tnet2
I0602 08:50:21.023165 27704 net.cpp:367] scale6_tnet2 -> fc1_tnet2 (in-place)
I0602 08:50:21.023196 27704 layer_factory.hpp:77] Creating layer scale6_tnet2
I0602 08:50:21.023280 27704 net.cpp:122] Setting up scale6_tnet2
I0602 08:50:21.023285 27704 net.cpp:129] Top shape: 32 512 (16384)
I0602 08:50:21.023288 27704 net.cpp:137] Memory required for data: 2723486848
I0602 08:50:21.023293 27704 layer_factory.hpp:77] Creating layer relu6_tnet2
I0602 08:50:21.023298 27704 net.cpp:84] Creating Layer relu6_tnet2
I0602 08:50:21.023301 27704 net.cpp:406] relu6_tnet2 <- fc1_tnet2
I0602 08:50:21.023304 27704 net.cpp:367] relu6_tnet2 -> fc1_tnet2 (in-place)
I0602 08:50:21.023696 27704 net.cpp:122] Setting up relu6_tnet2
I0602 08:50:21.023708 27704 net.cpp:129] Top shape: 32 512 (16384)
I0602 08:50:21.023711 27704 net.cpp:137] Memory required for data: 2723552384
I0602 08:50:21.023715 27704 layer_factory.hpp:77] Creating layer fc2_tnet2
I0602 08:50:21.023722 27704 net.cpp:84] Creating Layer fc2_tnet2
I0602 08:50:21.023725 27704 net.cpp:406] fc2_tnet2 <- fc1_tnet2
I0602 08:50:21.023730 27704 net.cpp:380] fc2_tnet2 -> fc2_tnet2
I0602 08:50:21.026602 27704 net.cpp:122] Setting up fc2_tnet2
I0602 08:50:21.026609 27704 net.cpp:129] Top shape: 32 256 (8192)
I0602 08:50:21.026612 27704 net.cpp:137] Memory required for data: 2723585152
I0602 08:50:21.026618 27704 layer_factory.hpp:77] Creating layer bn7_tnet2
I0602 08:50:21.026623 27704 net.cpp:84] Creating Layer bn7_tnet2
I0602 08:50:21.026625 27704 net.cpp:406] bn7_tnet2 <- fc2_tnet2
I0602 08:50:21.026629 27704 net.cpp:367] bn7_tnet2 -> fc2_tnet2 (in-place)
I0602 08:50:21.026780 27704 net.cpp:122] Setting up bn7_tnet2
I0602 08:50:21.026788 27704 net.cpp:129] Top shape: 32 256 (8192)
I0602 08:50:21.026792 27704 net.cpp:137] Memory required for data: 2723617920
I0602 08:50:21.026796 27704 layer_factory.hpp:77] Creating layer scale7_tnet2
I0602 08:50:21.026803 27704 net.cpp:84] Creating Layer scale7_tnet2
I0602 08:50:21.026808 27704 net.cpp:406] scale7_tnet2 <- fc2_tnet2
I0602 08:50:21.026810 27704 net.cpp:367] scale7_tnet2 -> fc2_tnet2 (in-place)
I0602 08:50:21.026840 27704 layer_factory.hpp:77] Creating layer scale7_tnet2
I0602 08:50:21.026919 27704 net.cpp:122] Setting up scale7_tnet2
I0602 08:50:21.026926 27704 net.cpp:129] Top shape: 32 256 (8192)
I0602 08:50:21.026927 27704 net.cpp:137] Memory required for data: 2723650688
I0602 08:50:21.026932 27704 layer_factory.hpp:77] Creating layer relu7_tnet2
I0602 08:50:21.026948 27704 net.cpp:84] Creating Layer relu7_tnet2
I0602 08:50:21.026952 27704 net.cpp:406] relu7_tnet2 <- fc2_tnet2
I0602 08:50:21.026957 27704 net.cpp:367] relu7_tnet2 -> fc2_tnet2 (in-place)
I0602 08:50:21.027120 27704 net.cpp:122] Setting up relu7_tnet2
I0602 08:50:21.027128 27704 net.cpp:129] Top shape: 32 256 (8192)
I0602 08:50:21.027132 27704 net.cpp:137] Memory required for data: 2723683456
I0602 08:50:21.027133 27704 layer_factory.hpp:77] Creating layer fc3_tnet2
I0602 08:50:21.027142 27704 net.cpp:84] Creating Layer fc3_tnet2
I0602 08:50:21.027145 27704 net.cpp:406] fc3_tnet2 <- fc2_tnet2
I0602 08:50:21.027150 27704 net.cpp:380] fc3_tnet2 -> fc3_tnet2
I0602 08:50:21.028904 27704 net.cpp:122] Setting up fc3_tnet2
I0602 08:50:21.028921 27704 net.cpp:129] Top shape: 32 4096 (131072)
I0602 08:50:21.028924 27704 net.cpp:137] Memory required for data: 2724207744
I0602 08:50:21.028934 27704 layer_factory.hpp:77] Creating layer fc3_tnet2_fc3_tnet2_0_split
I0602 08:50:21.028940 27704 net.cpp:84] Creating Layer fc3_tnet2_fc3_tnet2_0_split
I0602 08:50:21.028945 27704 net.cpp:406] fc3_tnet2_fc3_tnet2_0_split <- fc3_tnet2
I0602 08:50:21.028949 27704 net.cpp:380] fc3_tnet2_fc3_tnet2_0_split -> fc3_tnet2_fc3_tnet2_0_split_0
I0602 08:50:21.028964 27704 net.cpp:380] fc3_tnet2_fc3_tnet2_0_split -> fc3_tnet2_fc3_tnet2_0_split_1
I0602 08:50:21.028996 27704 net.cpp:122] Setting up fc3_tnet2_fc3_tnet2_0_split
I0602 08:50:21.029002 27704 net.cpp:129] Top shape: 32 4096 (131072)
I0602 08:50:21.029006 27704 net.cpp:129] Top shape: 32 4096 (131072)
I0602 08:50:21.029008 27704 net.cpp:137] Memory required for data: 2725256320
I0602 08:50:21.029011 27704 layer_factory.hpp:77] Creating layer reshape_tnet2
I0602 08:50:21.029022 27704 net.cpp:84] Creating Layer reshape_tnet2
I0602 08:50:21.029027 27704 net.cpp:406] reshape_tnet2 <- fc3_tnet2_fc3_tnet2_0_split_0
I0602 08:50:21.029031 27704 net.cpp:380] reshape_tnet2 -> fc3_tnet2_reshape
I0602 08:50:21.029052 27704 net.cpp:122] Setting up reshape_tnet2
I0602 08:50:21.029058 27704 net.cpp:129] Top shape: 32 64 64 (131072)
I0602 08:50:21.029062 27704 net.cpp:137] Memory required for data: 2725780608
I0602 08:50:21.029064 27704 layer_factory.hpp:77] Creating layer eye_tnet2
I0602 08:50:21.029109 27704 net.cpp:84] Creating Layer eye_tnet2
I0602 08:50:21.029114 27704 net.cpp:406] eye_tnet2 <- fc3_tnet2_fc3_tnet2_0_split_1
I0602 08:50:21.029119 27704 net.cpp:380] eye_tnet2 -> eye_tnet2
I0602 08:50:21.029682 27704 net.cpp:122] Setting up eye_tnet2
I0602 08:50:21.029695 27704 net.cpp:129] Top shape: 32 64 64 (131072)
I0602 08:50:21.029700 27704 net.cpp:137] Memory required for data: 2726304896
I0602 08:50:21.029702 27704 layer_factory.hpp:77] Creating layer eye_tnet2_eye_tnet2_0_split
I0602 08:50:21.029707 27704 net.cpp:84] Creating Layer eye_tnet2_eye_tnet2_0_split
I0602 08:50:21.029711 27704 net.cpp:406] eye_tnet2_eye_tnet2_0_split <- eye_tnet2
I0602 08:50:21.029714 27704 net.cpp:380] eye_tnet2_eye_tnet2_0_split -> eye_tnet2_eye_tnet2_0_split_0
I0602 08:50:21.029721 27704 net.cpp:380] eye_tnet2_eye_tnet2_0_split -> eye_tnet2_eye_tnet2_0_split_1
I0602 08:50:21.029750 27704 net.cpp:122] Setting up eye_tnet2_eye_tnet2_0_split
I0602 08:50:21.029757 27704 net.cpp:129] Top shape: 32 64 64 (131072)
I0602 08:50:21.029759 27704 net.cpp:129] Top shape: 32 64 64 (131072)
I0602 08:50:21.029762 27704 net.cpp:137] Memory required for data: 2727353472
I0602 08:50:21.029767 27704 layer_factory.hpp:77] Creating layer eltwise_sum_tnet2
I0602 08:50:21.029772 27704 net.cpp:84] Creating Layer eltwise_sum_tnet2
I0602 08:50:21.029775 27704 net.cpp:406] eltwise_sum_tnet2 <- fc3_tnet2_reshape
I0602 08:50:21.029779 27704 net.cpp:406] eltwise_sum_tnet2 <- eye_tnet2_eye_tnet2_0_split_0
I0602 08:50:21.029783 27704 net.cpp:380] eltwise_sum_tnet2 -> transform2
I0602 08:50:21.029801 27704 net.cpp:122] Setting up eltwise_sum_tnet2
I0602 08:50:21.029806 27704 net.cpp:129] Top shape: 32 64 64 (131072)
I0602 08:50:21.029808 27704 net.cpp:137] Memory required for data: 2727877760
I0602 08:50:21.029824 27704 layer_factory.hpp:77] Creating layer transform2_eltwise_sum_tnet2_0_split
I0602 08:50:21.029829 27704 net.cpp:84] Creating Layer transform2_eltwise_sum_tnet2_0_split
I0602 08:50:21.029832 27704 net.cpp:406] transform2_eltwise_sum_tnet2_0_split <- transform2
I0602 08:50:21.029836 27704 net.cpp:380] transform2_eltwise_sum_tnet2_0_split -> transform2_eltwise_sum_tnet2_0_split_0
I0602 08:50:21.029840 27704 net.cpp:380] transform2_eltwise_sum_tnet2_0_split -> transform2_eltwise_sum_tnet2_0_split_1
I0602 08:50:21.029845 27704 net.cpp:380] transform2_eltwise_sum_tnet2_0_split -> transform2_eltwise_sum_tnet2_0_split_2
I0602 08:50:21.029883 27704 net.cpp:122] Setting up transform2_eltwise_sum_tnet2_0_split
I0602 08:50:21.029888 27704 net.cpp:129] Top shape: 32 64 64 (131072)
I0602 08:50:21.029892 27704 net.cpp:129] Top shape: 32 64 64 (131072)
I0602 08:50:21.029896 27704 net.cpp:129] Top shape: 32 64 64 (131072)
I0602 08:50:21.029899 27704 net.cpp:137] Memory required for data: 2729450624
I0602 08:50:21.029902 27704 layer_factory.hpp:77] Creating layer perm_scale2
I0602 08:50:21.029909 27704 net.cpp:84] Creating Layer perm_scale2
I0602 08:50:21.029913 27704 net.cpp:406] perm_scale2 <- conv2_relu2_0_split_1
I0602 08:50:21.029918 27704 net.cpp:380] perm_scale2 -> scale2_permute
I0602 08:50:21.030001 27704 net.cpp:122] Setting up perm_scale2
I0602 08:50:21.030007 27704 net.cpp:129] Top shape: 32 2048 64 1 (4194304)
I0602 08:50:21.030010 27704 net.cpp:137] Memory required for data: 2746227840
I0602 08:50:21.030014 27704 layer_factory.hpp:77] Creating layer reshape_scale2
I0602 08:50:21.030019 27704 net.cpp:84] Creating Layer reshape_scale2
I0602 08:50:21.030021 27704 net.cpp:406] reshape_scale2 <- scale2_permute
I0602 08:50:21.030027 27704 net.cpp:380] reshape_scale2 -> scale2_reshape
I0602 08:50:21.030046 27704 net.cpp:122] Setting up reshape_scale2
I0602 08:50:21.030051 27704 net.cpp:129] Top shape: 32 2048 64 (4194304)
I0602 08:50:21.030055 27704 net.cpp:137] Memory required for data: 2763005056
I0602 08:50:21.030058 27704 layer_factory.hpp:77] Creating layer matmul_feat
I0602 08:50:21.030064 27704 net.cpp:84] Creating Layer matmul_feat
I0602 08:50:21.030067 27704 net.cpp:406] matmul_feat <- scale2_reshape
I0602 08:50:21.030071 27704 net.cpp:406] matmul_feat <- transform2_eltwise_sum_tnet2_0_split_0
I0602 08:50:21.030076 27704 net.cpp:380] matmul_feat -> scale2_transform2
I0602 08:50:21.030092 27704 net.cpp:122] Setting up matmul_feat
I0602 08:50:21.030097 27704 net.cpp:129] Top shape: 32 2048 64 (4194304)
I0602 08:50:21.030102 27704 net.cpp:137] Memory required for data: 2779782272
I0602 08:50:21.030103 27704 layer_factory.hpp:77] Creating layer perm_scale2_transform2
I0602 08:50:21.030110 27704 net.cpp:84] Creating Layer perm_scale2_transform2
I0602 08:50:21.030114 27704 net.cpp:406] perm_scale2_transform2 <- scale2_transform2
I0602 08:50:21.030117 27704 net.cpp:380] perm_scale2_transform2 -> scale2_permute_transform2
I0602 08:50:21.030189 27704 net.cpp:122] Setting up perm_scale2_transform2
I0602 08:50:21.030194 27704 net.cpp:129] Top shape: 32 64 2048 (4194304)
I0602 08:50:21.030198 27704 net.cpp:137] Memory required for data: 2796559488
I0602 08:50:21.030200 27704 layer_factory.hpp:77] Creating layer reshape_scale2_transform2
I0602 08:50:21.030205 27704 net.cpp:84] Creating Layer reshape_scale2_transform2
I0602 08:50:21.030208 27704 net.cpp:406] reshape_scale2_transform2 <- scale2_permute_transform2
I0602 08:50:21.030212 27704 net.cpp:380] reshape_scale2_transform2 -> scale2_transform2_reshape
I0602 08:50:21.030230 27704 net.cpp:122] Setting up reshape_scale2_transform2
I0602 08:50:21.030236 27704 net.cpp:129] Top shape: 32 64 2048 1 (4194304)
I0602 08:50:21.030239 27704 net.cpp:137] Memory required for data: 2813336704
I0602 08:50:21.030242 27704 layer_factory.hpp:77] Creating layer conv3
I0602 08:50:21.030251 27704 net.cpp:84] Creating Layer conv3
I0602 08:50:21.030254 27704 net.cpp:406] conv3 <- scale2_transform2_reshape
I0602 08:50:21.030258 27704 net.cpp:380] conv3 -> conv3
I0602 08:50:21.031282 27704 net.cpp:122] Setting up conv3
I0602 08:50:21.031302 27704 net.cpp:129] Top shape: 32 64 2048 1 (4194304)
I0602 08:50:21.031307 27704 net.cpp:137] Memory required for data: 2830113920
I0602 08:50:21.031314 27704 layer_factory.hpp:77] Creating layer bn3
I0602 08:50:21.031322 27704 net.cpp:84] Creating Layer bn3
I0602 08:50:21.031325 27704 net.cpp:406] bn3 <- conv3
I0602 08:50:21.031329 27704 net.cpp:367] bn3 -> conv3 (in-place)
I0602 08:50:21.031488 27704 net.cpp:122] Setting up bn3
I0602 08:50:21.031494 27704 net.cpp:129] Top shape: 32 64 2048 1 (4194304)
I0602 08:50:21.031497 27704 net.cpp:137] Memory required for data: 2846891136
I0602 08:50:21.031503 27704 layer_factory.hpp:77] Creating layer scale3
I0602 08:50:21.031510 27704 net.cpp:84] Creating Layer scale3
I0602 08:50:21.031513 27704 net.cpp:406] scale3 <- conv3
I0602 08:50:21.031517 27704 net.cpp:367] scale3 -> conv3 (in-place)
I0602 08:50:21.031553 27704 layer_factory.hpp:77] Creating layer scale3
I0602 08:50:21.031644 27704 net.cpp:122] Setting up scale3
I0602 08:50:21.031651 27704 net.cpp:129] Top shape: 32 64 2048 1 (4194304)
I0602 08:50:21.031653 27704 net.cpp:137] Memory required for data: 2863668352
I0602 08:50:21.031658 27704 layer_factory.hpp:77] Creating layer relu3
I0602 08:50:21.031664 27704 net.cpp:84] Creating Layer relu3
I0602 08:50:21.031668 27704 net.cpp:406] relu3 <- conv3
I0602 08:50:21.031672 27704 net.cpp:367] relu3 -> conv3 (in-place)
I0602 08:50:21.031991 27704 net.cpp:122] Setting up relu3
I0602 08:50:21.032001 27704 net.cpp:129] Top shape: 32 64 2048 1 (4194304)
I0602 08:50:21.032006 27704 net.cpp:137] Memory required for data: 2880445568
I0602 08:50:21.032008 27704 layer_factory.hpp:77] Creating layer conv4
I0602 08:50:21.032017 27704 net.cpp:84] Creating Layer conv4
I0602 08:50:21.032021 27704 net.cpp:406] conv4 <- conv3
I0602 08:50:21.032027 27704 net.cpp:380] conv4 -> conv4
I0602 08:50:21.033021 27704 net.cpp:122] Setting up conv4
I0602 08:50:21.033035 27704 net.cpp:129] Top shape: 32 128 2048 1 (8388608)
I0602 08:50:21.033041 27704 net.cpp:137] Memory required for data: 2914000000
I0602 08:50:21.033051 27704 layer_factory.hpp:77] Creating layer bn4
I0602 08:50:21.033059 27704 net.cpp:84] Creating Layer bn4
I0602 08:50:21.033067 27704 net.cpp:406] bn4 <- conv4
I0602 08:50:21.033076 27704 net.cpp:367] bn4 -> conv4 (in-place)
I0602 08:50:21.033237 27704 net.cpp:122] Setting up bn4
I0602 08:50:21.033246 27704 net.cpp:129] Top shape: 32 128 2048 1 (8388608)
I0602 08:50:21.033252 27704 net.cpp:137] Memory required for data: 2947554432
I0602 08:50:21.033262 27704 layer_factory.hpp:77] Creating layer scale4
I0602 08:50:21.033272 27704 net.cpp:84] Creating Layer scale4
I0602 08:50:21.033277 27704 net.cpp:406] scale4 <- conv4
I0602 08:50:21.033285 27704 net.cpp:367] scale4 -> conv4 (in-place)
I0602 08:50:21.033327 27704 layer_factory.hpp:77] Creating layer scale4
I0602 08:50:21.033419 27704 net.cpp:122] Setting up scale4
I0602 08:50:21.033428 27704 net.cpp:129] Top shape: 32 128 2048 1 (8388608)
I0602 08:50:21.033433 27704 net.cpp:137] Memory required for data: 2981108864
I0602 08:50:21.033442 27704 layer_factory.hpp:77] Creating layer relu4
I0602 08:50:21.033449 27704 net.cpp:84] Creating Layer relu4
I0602 08:50:21.033454 27704 net.cpp:406] relu4 <- conv4
I0602 08:50:21.033464 27704 net.cpp:367] relu4 -> conv4 (in-place)
I0602 08:50:21.033632 27704 net.cpp:122] Setting up relu4
I0602 08:50:21.033643 27704 net.cpp:129] Top shape: 32 128 2048 1 (8388608)
I0602 08:50:21.033648 27704 net.cpp:137] Memory required for data: 3014663296
I0602 08:50:21.033651 27704 layer_factory.hpp:77] Creating layer conv5
I0602 08:50:21.033664 27704 net.cpp:84] Creating Layer conv5
I0602 08:50:21.033669 27704 net.cpp:406] conv5 <- conv4
I0602 08:50:21.033679 27704 net.cpp:380] conv5 -> conv5
I0602 08:50:21.035217 27704 net.cpp:122] Setting up conv5
I0602 08:50:21.035229 27704 net.cpp:129] Top shape: 32 1024 2048 1 (67108864)
I0602 08:50:21.035235 27704 net.cpp:137] Memory required for data: 3283098752
I0602 08:50:21.035246 27704 layer_factory.hpp:77] Creating layer bn5
I0602 08:50:21.035265 27704 net.cpp:84] Creating Layer bn5
I0602 08:50:21.035274 27704 net.cpp:406] bn5 <- conv5
I0602 08:50:21.035280 27704 net.cpp:367] bn5 -> conv5 (in-place)
I0602 08:50:21.035440 27704 net.cpp:122] Setting up bn5
I0602 08:50:21.035450 27704 net.cpp:129] Top shape: 32 1024 2048 1 (67108864)
I0602 08:50:21.035455 27704 net.cpp:137] Memory required for data: 3551534208
I0602 08:50:21.035467 27704 layer_factory.hpp:77] Creating layer scale5
I0602 08:50:21.035476 27704 net.cpp:84] Creating Layer scale5
I0602 08:50:21.035481 27704 net.cpp:406] scale5 <- conv5
I0602 08:50:21.035490 27704 net.cpp:367] scale5 -> conv5 (in-place)
I0602 08:50:21.035528 27704 layer_factory.hpp:77] Creating layer scale5
I0602 08:50:21.035625 27704 net.cpp:122] Setting up scale5
I0602 08:50:21.035634 27704 net.cpp:129] Top shape: 32 1024 2048 1 (67108864)
I0602 08:50:21.035639 27704 net.cpp:137] Memory required for data: 3819969664
I0602 08:50:21.035647 27704 layer_factory.hpp:77] Creating layer relu5
I0602 08:50:21.035655 27704 net.cpp:84] Creating Layer relu5
I0602 08:50:21.035660 27704 net.cpp:406] relu5 <- conv5
I0602 08:50:21.035668 27704 net.cpp:367] relu5 -> conv5 (in-place)
I0602 08:50:21.035974 27704 net.cpp:122] Setting up relu5
I0602 08:50:21.035986 27704 net.cpp:129] Top shape: 32 1024 2048 1 (67108864)
I0602 08:50:21.035992 27704 net.cpp:137] Memory required for data: 4088405120
I0602 08:50:21.035996 27704 layer_factory.hpp:77] Creating layer pool
I0602 08:50:21.036007 27704 net.cpp:84] Creating Layer pool
I0602 08:50:21.036015 27704 net.cpp:406] pool <- conv5
I0602 08:50:21.036023 27704 net.cpp:380] pool -> global_feat
I0602 08:50:21.036067 27704 net.cpp:122] Setting up pool
I0602 08:50:21.036077 27704 net.cpp:129] Top shape: 32 1024 1 1 (32768)
I0602 08:50:21.036082 27704 net.cpp:137] Memory required for data: 4088536192
I0602 08:50:21.036087 27704 layer_factory.hpp:77] Creating layer fc1
I0602 08:50:21.036100 27704 net.cpp:84] Creating Layer fc1
I0602 08:50:21.036105 27704 net.cpp:406] fc1 <- global_feat
I0602 08:50:21.036113 27704 net.cpp:380] fc1 -> fc1
I0602 08:50:21.047863 27704 net.cpp:122] Setting up fc1
I0602 08:50:21.047881 27704 net.cpp:129] Top shape: 32 512 (16384)
I0602 08:50:21.047888 27704 net.cpp:137] Memory required for data: 4088601728
I0602 08:50:21.047896 27704 layer_factory.hpp:77] Creating layer bn6
I0602 08:50:21.047906 27704 net.cpp:84] Creating Layer bn6
I0602 08:50:21.047914 27704 net.cpp:406] bn6 <- fc1
I0602 08:50:21.047924 27704 net.cpp:367] bn6 -> fc1 (in-place)
I0602 08:50:21.048085 27704 net.cpp:122] Setting up bn6
I0602 08:50:21.048094 27704 net.cpp:129] Top shape: 32 512 (16384)
I0602 08:50:21.048099 27704 net.cpp:137] Memory required for data: 4088667264
I0602 08:50:21.048110 27704 layer_factory.hpp:77] Creating layer scale6
I0602 08:50:21.048121 27704 net.cpp:84] Creating Layer scale6
I0602 08:50:21.048128 27704 net.cpp:406] scale6 <- fc1
I0602 08:50:21.048135 27704 net.cpp:367] scale6 -> fc1 (in-place)
I0602 08:50:21.048177 27704 layer_factory.hpp:77] Creating layer scale6
I0602 08:50:21.048271 27704 net.cpp:122] Setting up scale6
I0602 08:50:21.048280 27704 net.cpp:129] Top shape: 32 512 (16384)
I0602 08:50:21.048285 27704 net.cpp:137] Memory required for data: 4088732800
I0602 08:50:21.048295 27704 layer_factory.hpp:77] Creating layer relu6
I0602 08:50:21.048305 27704 net.cpp:84] Creating Layer relu6
I0602 08:50:21.048310 27704 net.cpp:406] relu6 <- fc1
I0602 08:50:21.048317 27704 net.cpp:367] relu6 -> fc1 (in-place)
I0602 08:50:21.048691 27704 net.cpp:122] Setting up relu6
I0602 08:50:21.048702 27704 net.cpp:129] Top shape: 32 512 (16384)
I0602 08:50:21.048707 27704 net.cpp:137] Memory required for data: 4088798336
I0602 08:50:21.048712 27704 layer_factory.hpp:77] Creating layer fc2
I0602 08:50:21.048723 27704 net.cpp:84] Creating Layer fc2
I0602 08:50:21.048729 27704 net.cpp:406] fc2 <- fc1
I0602 08:50:21.048739 27704 net.cpp:380] fc2 -> fc2
I0602 08:50:21.051987 27704 net.cpp:122] Setting up fc2
I0602 08:50:21.052001 27704 net.cpp:129] Top shape: 32 256 (8192)
I0602 08:50:21.052018 27704 net.cpp:137] Memory required for data: 4088831104
I0602 08:50:21.052031 27704 layer_factory.hpp:77] Creating layer bn7
I0602 08:50:21.052040 27704 net.cpp:84] Creating Layer bn7
I0602 08:50:21.052049 27704 net.cpp:406] bn7 <- fc2
I0602 08:50:21.052058 27704 net.cpp:367] bn7 -> fc2 (in-place)
I0602 08:50:21.052215 27704 net.cpp:122] Setting up bn7
I0602 08:50:21.052224 27704 net.cpp:129] Top shape: 32 256 (8192)
I0602 08:50:21.052229 27704 net.cpp:137] Memory required for data: 4088863872
I0602 08:50:21.052242 27704 layer_factory.hpp:77] Creating layer scale7
I0602 08:50:21.052249 27704 net.cpp:84] Creating Layer scale7
I0602 08:50:21.052255 27704 net.cpp:406] scale7 <- fc2
I0602 08:50:21.052263 27704 net.cpp:367] scale7 -> fc2 (in-place)
I0602 08:50:21.052304 27704 layer_factory.hpp:77] Creating layer scale7
I0602 08:50:21.052395 27704 net.cpp:122] Setting up scale7
I0602 08:50:21.052404 27704 net.cpp:129] Top shape: 32 256 (8192)
I0602 08:50:21.052409 27704 net.cpp:137] Memory required for data: 4088896640
I0602 08:50:21.052417 27704 layer_factory.hpp:77] Creating layer relu7
I0602 08:50:21.052426 27704 net.cpp:84] Creating Layer relu7
I0602 08:50:21.052433 27704 net.cpp:406] relu7 <- fc2
I0602 08:50:21.052439 27704 net.cpp:367] relu7 -> fc2 (in-place)
I0602 08:50:21.052605 27704 net.cpp:122] Setting up relu7
I0602 08:50:21.052615 27704 net.cpp:129] Top shape: 32 256 (8192)
I0602 08:50:21.052620 27704 net.cpp:137] Memory required for data: 4088929408
I0602 08:50:21.052625 27704 layer_factory.hpp:77] Creating layer drop1
I0602 08:50:21.052637 27704 net.cpp:84] Creating Layer drop1
I0602 08:50:21.052644 27704 net.cpp:406] drop1 <- fc2
I0602 08:50:21.052651 27704 net.cpp:380] drop1 -> drop1
I0602 08:50:21.052696 27704 net.cpp:122] Setting up drop1
I0602 08:50:21.052705 27704 net.cpp:129] Top shape: 32 256 (8192)
I0602 08:50:21.052709 27704 net.cpp:137] Memory required for data: 4088962176
I0602 08:50:21.052713 27704 layer_factory.hpp:77] Creating layer fc3
I0602 08:50:21.052726 27704 net.cpp:84] Creating Layer fc3
I0602 08:50:21.052731 27704 net.cpp:406] fc3 <- drop1
I0602 08:50:21.052738 27704 net.cpp:380] fc3 -> fc3
I0602 08:50:21.053071 27704 net.cpp:122] Setting up fc3
I0602 08:50:21.053081 27704 net.cpp:129] Top shape: 32 40 (1280)
I0602 08:50:21.053086 27704 net.cpp:137] Memory required for data: 4088967296
I0602 08:50:21.053094 27704 layer_factory.hpp:77] Creating layer fc3_fc3_0_split
I0602 08:50:21.053103 27704 net.cpp:84] Creating Layer fc3_fc3_0_split
I0602 08:50:21.053110 27704 net.cpp:406] fc3_fc3_0_split <- fc3
I0602 08:50:21.053118 27704 net.cpp:380] fc3_fc3_0_split -> fc3_fc3_0_split_0
I0602 08:50:21.053128 27704 net.cpp:380] fc3_fc3_0_split -> fc3_fc3_0_split_1
I0602 08:50:21.053167 27704 net.cpp:122] Setting up fc3_fc3_0_split
I0602 08:50:21.053175 27704 net.cpp:129] Top shape: 32 40 (1280)
I0602 08:50:21.053182 27704 net.cpp:129] Top shape: 32 40 (1280)
I0602 08:50:21.053189 27704 net.cpp:137] Memory required for data: 4088977536
I0602 08:50:21.053194 27704 layer_factory.hpp:77] Creating layer accuracy
I0602 08:50:21.053202 27704 net.cpp:84] Creating Layer accuracy
I0602 08:50:21.053208 27704 net.cpp:406] accuracy <- fc3_fc3_0_split_0
I0602 08:50:21.053215 27704 net.cpp:406] accuracy <- label_data_1_split_0
I0602 08:50:21.053223 27704 net.cpp:380] accuracy -> accuracy
…
