…
I0807 15:36:34.674198 25799 caffe.cpp:270] GPU device name: Tesla K40c
I0807 15:36:34.863723 25799 net.cpp:294] The NetState phase (1) differed from the phase (0) specified by a rule in layer data
I0807 15:36:34.863994 25799 net.cpp:51] Initializing net from parameters: 
name: "pointnet_cls_input_tnet"
state {
  phase: TEST
  level: 0
  stage: ""
}
layer {
  name: "data"
  type: "HDF5Data"
  top: "data"
  top: "label"
  include {
    phase: TEST
  }
  hdf5_data_param {
    source: "data/modelnet40_ply_hdf5_2048/test_files.txt"
    batch_size: 32
  }
}
layer {
  name: "reshape"
  type: "Reshape"
  bottom: "data"
  top: "data_reshape"
  reshape_param {
    shape {
      dim: 0
      dim: 1
      dim: -1
      dim: 3
    }
  }
}
layer {
  name: "conv1_tnet1"
  type: "Convolution"
  bottom: "data_reshape"
  top: "conv1_tnet1"
  param {
    lr_mult: 1
  }
  param {
    lr_mult: 2
  }
  convolution_param {
    num_output: 64
    pad: 0
    stride: 1
    weight_filler {
      type: "xavier"
    }
    bias_filler {
      type: "constant"
      value: 0
    }
    kernel_h: 1
    kernel_w: 3
  }
}
layer {
  name: "bn1_tnet1"
  type: "BatchNorm"
  bottom: "conv1_tnet1"
  top: "conv1_tnet1"
}
layer {
  name: "scale1_tnet1"
  type: "Scale"
  bottom: "conv1_tnet1"
  top: "conv1_tnet1"
  scale_param {
    bias_term: true
  }
}
layer {
  name: "relu1_tnet1"
  type: "ReLU"
  bottom: "conv1_tnet1"
  top: "conv1_tnet1"
}
layer {
  name: "conv2_tnet1"
  type: "Convolution"
  bottom: "conv1_tnet1"
  top: "conv2_tnet1"
  param {
    lr_mult: 1
  }
  param {
    lr_mult: 2
  }
  convolution_param {
    num_output: 128
    pad: 0
    stride: 1
    weight_filler {
      type: "xavier"
    }
    bias_filler {
      type: "constant"
      value: 0
    }
    kernel_h: 1
    kernel_w: 1
  }
}
layer {
  name: "bn2_tnet1"
  type: "BatchNorm"
  bottom: "conv2_tnet1"
  top: "conv2_tnet1"
}
layer {
  name: "scale2_tnet1"
  type: "Scale"
  bottom: "conv2_tnet1"
  top: "conv2_tnet1"
  scale_param {
    bias_term: true
  }
}
layer {
  name: "relu2_tnet1"
  type: "ReLU"
  bottom: "conv2_tnet1"
  top: "conv2_tnet1"
}
layer {
  name: "conv3_tnet1"
  type: "Convolution"
  bottom: "conv2_tnet1"
  top: "conv3_tnet1"
  param {
    lr_mult: 1
  }
  param {
    lr_mult: 2
  }
  convolution_param {
    num_output: 1024
    pad: 0
    stride: 1
    weight_filler {
      type: "xavier"
    }
    bias_filler {
      type: "constant"
      value: 0
    }
    kernel_h: 1
    kernel_w: 1
  }
}
layer {
  name: "bn3_tnet1"
  type: "BatchNorm"
  bottom: "conv3_tnet1"
  top: "conv3_tnet1"
}
layer {
  name: "scale3_tnet1"
  type: "Scale"
  bottom: "conv3_tnet1"
  top: "conv3_tnet1"
  scale_param {
    bias_term: true
  }
}
layer {
  name: "relu3_tnet1"
  type: "ReLU"
  bottom: "conv3_tnet1"
  top: "conv3_tnet1"
}
layer {
  name: "pool_tnet1"
  type: "Pooling"
  bottom: "conv3_tnet1"
  top: "global_feat_tnet1"
  pooling_param {
    pool: MAX
    stride: 1
    pad: 0
    kernel_h: 2048
    kernel_w: 1
  }
}
layer {
  name: "fc1_tnet1"
  type: "InnerProduct"
  bottom: "global_feat_tnet1"
  top: "fc1_tnet1"
  param {
    lr_mult: 1
    decay_mult: 1
  }
  param {
    lr_mult: 1
    decay_mult: 1
  }
  inner_product_param {
    num_output: 512
    weight_filler {
      type: "gaussian"
      std: 0.001
    }
    bias_filler {
      type: "constant"
      value: 0
    }
  }
}
layer {
  name: "bn6_tnet1"
  type: "BatchNorm"
  bottom: "fc1_tnet1"
  top: "fc1_tnet1"
}
layer {
  name: "scale6_tnet1"
  type: "Scale"
  bottom: "fc1_tnet1"
  top: "fc1_tnet1"
  scale_param {
    bias_term: true
  }
}
layer {
  name: "relu6_tnet1"
  type: "ReLU"
  bottom: "fc1_tnet1"
  top: "fc1_tnet1"
}
layer {
  name: "fc2_tnet1"
  type: "InnerProduct"
  bottom: "fc1_tnet1"
  top: "fc2_tnet1"
  param {
    lr_mult: 1
    decay_mult: 1
  }
  param {
    lr_mult: 1
    decay_mult: 1
  }
  inner_product_param {
    num_output: 256
    weight_filler {
      type: "gaussian"
      std: 0.001
    }
    bias_filler {
      type: "constant"
      value: 0
    }
  }
}
layer {
  name: "bn7_tnet1"
  type: "BatchNorm"
  bottom: "fc2_tnet1"
  top: "fc2_tnet1"
}
layer {
  name: "scale7_tnet1"
  type: "Scale"
  bottom: "fc2_tnet1"
  top: "fc2_tnet1"
  scale_param {
    bias_term: true
  }
}
layer {
  name: "relu7_tnet1"
  type: "ReLU"
  bottom: "fc2_tnet1"
  top: "fc2_tnet1"
}
layer {
  name: "fc3_tnet1"
  type: "InnerProduct"
  bottom: "fc2_tnet1"
  top: "fc3_tnet1"
  param {
    lr_mult: 1
    decay_mult: 1
  }
  param {
    lr_mult: 1
    decay_mult: 1
  }
  inner_product_param {
    num_output: 9
    weight_filler {
      type: "constant"
      value: 0
    }
    bias_filler {
      type: "constant"
      value: 0
    }
  }
}
layer {
  name: "reshape_tnet1"
  type: "Reshape"
  bottom: "fc3_tnet1"
  top: "fc3_tnet1_reshape"
  reshape_param {
    shape {
      dim: -1
      dim: 3
      dim: 3
    }
  }
}
layer {
  name: "eye_tnet1"
  type: "Python"
  bottom: "fc3_tnet1"
  top: "eye_tnet1"
  python_param {
    module: "eye_matrix_layer"
    layer: "EyeMatrixLayer"
    param_str: "{\'K\': 3}"
  }
}
layer {
  name: "eltwise_sum_tnet1"
  type: "Eltwise"
  bottom: "fc3_tnet1_reshape"
  bottom: "eye_tnet1"
  top: "transform1"
  eltwise_param {
    operation: SUM
  }
}
layer {
  name: "matmul_input"
  type: "MatrixMultiplication"
  bottom: "data"
  bottom: "transform1"
  top: "data_transform1"
}
layer {
  name: "reshape_input_data"
  type: "Reshape"
  bottom: "data_transform1"
  top: "data_transform1_reshape"
  reshape_param {
    shape {
      dim: 0
      dim: 1
      dim: -1
      dim: 3
    }
  }
}
layer {
  name: "conv1"
  type: "Convolution"
  bottom: "data_transform1_reshape"
  top: "conv1"
  param {
    lr_mult: 1
  }
  param {
    lr_mult: 2
  }
  convolution_param {
    num_output: 64
    pad: 0
    stride: 1
    weight_filler {
      type: "xavier"
    }
    bias_filler {
      type: "constant"
      value: 0
    }
    kernel_h: 1
    kernel_w: 3
  }
}
layer {
  name: "bn1"
  type: "BatchNorm"
  bottom: "conv1"
  top: "conv1"
}
layer {
  name: "scale1"
  type: "Scale"
  bottom: "conv1"
  top: "conv1"
  scale_param {
    bias_term: true
  }
}
layer {
  name: "relu1"
  type: "ReLU"
  bottom: "conv1"
  top: "conv1"
}
layer {
  name: "conv2"
  type: "Convolution"
  bottom: "conv1"
  top: "conv2"
  param {
    lr_mult: 1
  }
  param {
    lr_mult: 2
  }
  convolution_param {
    num_output: 64
    pad: 0
    stride: 1
    weight_filler {
      type: "xavier"
    }
    bias_filler {
      type: "constant"
      value: 0
    }
    kernel_h: 1
    kernel_w: 1
  }
}
layer {
  name: "bn2"
  type: "BatchNorm"
  bottom: "conv2"
  top: "conv2"
}
layer {
  name: "scale2"
  type: "Scale"
  bottom: "conv2"
  top: "conv2"
  scale_param {
    bias_term: true
  }
}
layer {
  name: "relu2"
  type: "ReLU"
  bottom: "conv2"
  top: "conv2"
}
layer {
  name: "conv3"
  type: "Convolution"
  bottom: "conv2"
  top: "conv3"
  param {
    lr_mult: 1
  }
  param {
    lr_mult: 2
  }
  convolution_param {
    num_output: 64
    pad: 0
    stride: 1
    weight_filler {
      type: "xavier"
    }
    bias_filler {
      type: "constant"
      value: 0
    }
    kernel_h: 1
    kernel_w: 1
  }
}
layer {
  name: "bn3"
  type: "BatchNorm"
  bottom: "conv3"
  top: "conv3"
}
layer {
  name: "scale3"
  type: "Scale"
  bottom: "conv3"
  top: "conv3"
  scale_param {
    bias_term: true
  }
}
layer {
  name: "relu3"
  type: "ReLU"
  bottom: "conv3"
  top: "conv3"
}
layer {
  name: "conv4"
  type: "Convolution"
  bottom: "conv3"
  top: "conv4"
  param {
    lr_mult: 1
  }
  param {
    lr_mult: 2
  }
  convolution_param {
    num_output: 128
    pad: 0
    stride: 1
    weight_filler {
      type: "xavier"
    }
    bias_filler {
      type: "constant"
      value: 0
    }
    kernel_h: 1
    kernel_w: 1
  }
}
layer {
  name: "bn4"
  type: "BatchNorm"
  bottom: "conv4"
  top: "conv4"
}
layer {
  name: "scale4"
  type: "Scale"
  bottom: "conv4"
  top: "conv4"
  scale_param {
    bias_term: true
  }
}
layer {
  name: "relu4"
  type: "ReLU"
  bottom: "conv4"
  top: "conv4"
}
layer {
  name: "conv5"
  type: "Convolution"
  bottom: "conv4"
  top: "conv5"
  param {
    lr_mult: 1
  }
  param {
    lr_mult: 2
  }
  convolution_param {
    num_output: 1024
    pad: 0
    stride: 1
    weight_filler {
      type: "xavier"
    }
    bias_filler {
      type: "constant"
      value: 0
    }
    kernel_h: 1
    kernel_w: 1
  }
}
layer {
  name: "bn5"
  type: "BatchNorm"
  bottom: "conv5"
  top: "conv5"
}
layer {
  name: "scale5"
  type: "Scale"
  bottom: "conv5"
  top: "conv5"
  scale_param {
    bias_term: true
  }
}
layer {
  name: "relu5"
  type: "ReLU"
  bottom: "conv5"
  top: "conv5"
}
layer {
  name: "pool"
  type: "Pooling"
  bottom: "conv5"
  top: "global_feat"
  pooling_param {
    pool: MAX
    stride: 1
    pad: 0
    kernel_h: 2048
    kernel_w: 1
  }
}
layer {
  name: "fc1"
  type: "InnerProduct"
  bottom: "global_feat"
  top: "fc1"
  param {
    lr_mult: 1
    decay_mult: 1
  }
  param {
    lr_mult: 1
    decay_mult: 1
  }
  inner_product_param {
    num_output: 512
    weight_filler {
      type: "gaussian"
      std: 0.001
    }
    bias_filler {
      type: "constant"
      value: 0
    }
  }
}
layer {
  name: "bn6"
  type: "BatchNorm"
  bottom: "fc1"
  top: "fc1"
}
layer {
  name: "scale6"
  type: "Scale"
  bottom: "fc1"
  top: "fc1"
  scale_param {
    bias_term: true
  }
}
layer {
  name: "relu6"
  type: "ReLU"
  bottom: "fc1"
  top: "fc1"
}
layer {
  name: "fc2"
  type: "InnerProduct"
  bottom: "fc1"
  top: "fc2"
  param {
    lr_mult: 1
    decay_mult: 1
  }
  param {
    lr_mult: 1
    decay_mult: 1
  }
  inner_product_param {
    num_output: 256
    weight_filler {
      type: "gaussian"
      std: 0.001
    }
    bias_filler {
      type: "constant"
      value: 0
    }
  }
}
layer {
  name: "bn7"
  type: "BatchNorm"
  bottom: "fc2"
  top: "fc2"
}
layer {
  name: "scale7"
  type: "Scale"
  bottom: "fc2"
  top: "fc2"
  scale_param {
    bias_term: true
  }
}
layer {
  name: "relu7"
  type: "ReLU"
  bottom: "fc2"
  top: "fc2"
}
layer {
  name: "drop1"
  type: "Dropout"
  bottom: "fc2"
  top: "drop1"
  dropout_param {
    dropout_ratio: 0.3
  }
}
layer {
  name: "fc3"
  type: "InnerProduct"
  bottom: "drop1"
  top: "fc3"
  param {
    lr_mult: 1
    decay_mult: 1
  }
  param {
    lr_mult: 1
    decay_mult: 1
  }
  inner_product_param {
    num_output: 40
    weight_filler {
      type: "gaussian"
      std: 0.001
    }
    bias_filler {
      type: "constant"
      value: 0
    }
  }
}
layer {
  name: "accuracy"
  type: "Accuracy"
  bottom: "fc3"
  bottom: "label"
  top: "accuracy"
  include {
    phase: TEST
  }
}
layer {
  name: "loss"
  type: "SoftmaxWithLoss"
  bottom: "fc3"
  bottom: "label"
  top: "loss"
}
I0807 15:36:34.864277 25799 layer_factory.hpp:77] Creating layer data
I0807 15:36:34.864293 25799 net.cpp:84] Creating Layer data
I0807 15:36:34.864300 25799 net.cpp:380] data -> data
I0807 15:36:34.864320 25799 net.cpp:380] data -> label
I0807 15:36:34.864331 25799 hdf5_data_layer.cpp:80] Loading list of HDF5 filenames from: data/modelnet40_ply_hdf5_2048/test_files.txt
I0807 15:36:34.864367 25799 hdf5_data_layer.cpp:94] Number of HDF5 files: 2
I0807 15:36:34.864959 25799 hdf5.cpp:32] Datatype class: H5T_FLOAT
I0807 15:36:35.207536 25799 hdf5.cpp:35] Datatype class: H5T_INTEGER
I0807 15:36:35.208240 25799 net.cpp:122] Setting up data
I0807 15:36:35.208257 25799 net.cpp:129] Top shape: 32 2048 3 (196608)
I0807 15:36:35.208262 25799 net.cpp:129] Top shape: 32 1 (32)
I0807 15:36:35.208266 25799 net.cpp:137] Memory required for data: 786560
I0807 15:36:35.208272 25799 layer_factory.hpp:77] Creating layer data_data_0_split
I0807 15:36:35.208281 25799 net.cpp:84] Creating Layer data_data_0_split
I0807 15:36:35.208287 25799 net.cpp:406] data_data_0_split <- data
I0807 15:36:35.208299 25799 net.cpp:380] data_data_0_split -> data_data_0_split_0
I0807 15:36:35.208312 25799 net.cpp:380] data_data_0_split -> data_data_0_split_1
I0807 15:36:35.208340 25799 net.cpp:122] Setting up data_data_0_split
I0807 15:36:35.208348 25799 net.cpp:129] Top shape: 32 2048 3 (196608)
I0807 15:36:35.208354 25799 net.cpp:129] Top shape: 32 2048 3 (196608)
I0807 15:36:35.208360 25799 net.cpp:137] Memory required for data: 2359424
I0807 15:36:35.208376 25799 layer_factory.hpp:77] Creating layer label_data_1_split
I0807 15:36:35.208386 25799 net.cpp:84] Creating Layer label_data_1_split
I0807 15:36:35.208390 25799 net.cpp:406] label_data_1_split <- label
I0807 15:36:35.208397 25799 net.cpp:380] label_data_1_split -> label_data_1_split_0
I0807 15:36:35.208406 25799 net.cpp:380] label_data_1_split -> label_data_1_split_1
I0807 15:36:35.208432 25799 net.cpp:122] Setting up label_data_1_split
I0807 15:36:35.208439 25799 net.cpp:129] Top shape: 32 1 (32)
I0807 15:36:35.208446 25799 net.cpp:129] Top shape: 32 1 (32)
I0807 15:36:35.208449 25799 net.cpp:137] Memory required for data: 2359680
I0807 15:36:35.208452 25799 layer_factory.hpp:77] Creating layer reshape
I0807 15:36:35.208461 25799 net.cpp:84] Creating Layer reshape
I0807 15:36:35.208464 25799 net.cpp:406] reshape <- data_data_0_split_0
I0807 15:36:35.208470 25799 net.cpp:380] reshape -> data_reshape
I0807 15:36:35.208498 25799 net.cpp:122] Setting up reshape
I0807 15:36:35.208505 25799 net.cpp:129] Top shape: 32 1 2048 3 (196608)
I0807 15:36:35.208508 25799 net.cpp:137] Memory required for data: 3146112
I0807 15:36:35.208510 25799 layer_factory.hpp:77] Creating layer conv1_tnet1
I0807 15:36:35.208529 25799 net.cpp:84] Creating Layer conv1_tnet1
I0807 15:36:35.208534 25799 net.cpp:406] conv1_tnet1 <- data_reshape
I0807 15:36:35.208537 25799 net.cpp:380] conv1_tnet1 -> conv1_tnet1
I0807 15:36:35.456264 25799 net.cpp:122] Setting up conv1_tnet1
I0807 15:36:35.456293 25799 net.cpp:129] Top shape: 32 64 2048 1 (4194304)
I0807 15:36:35.456296 25799 net.cpp:137] Memory required for data: 19923328
I0807 15:36:35.456315 25799 layer_factory.hpp:77] Creating layer bn1_tnet1
I0807 15:36:35.456323 25799 net.cpp:84] Creating Layer bn1_tnet1
I0807 15:36:35.456327 25799 net.cpp:406] bn1_tnet1 <- conv1_tnet1
I0807 15:36:35.456332 25799 net.cpp:367] bn1_tnet1 -> conv1_tnet1 (in-place)
I0807 15:36:35.456473 25799 net.cpp:122] Setting up bn1_tnet1
I0807 15:36:35.456480 25799 net.cpp:129] Top shape: 32 64 2048 1 (4194304)
I0807 15:36:35.456483 25799 net.cpp:137] Memory required for data: 36700544
I0807 15:36:35.456491 25799 layer_factory.hpp:77] Creating layer scale1_tnet1
I0807 15:36:35.456497 25799 net.cpp:84] Creating Layer scale1_tnet1
I0807 15:36:35.456501 25799 net.cpp:406] scale1_tnet1 <- conv1_tnet1
I0807 15:36:35.456504 25799 net.cpp:367] scale1_tnet1 -> conv1_tnet1 (in-place)
I0807 15:36:35.456538 25799 layer_factory.hpp:77] Creating layer scale1_tnet1
I0807 15:36:35.456619 25799 net.cpp:122] Setting up scale1_tnet1
I0807 15:36:35.456625 25799 net.cpp:129] Top shape: 32 64 2048 1 (4194304)
I0807 15:36:35.456629 25799 net.cpp:137] Memory required for data: 53477760
I0807 15:36:35.456634 25799 layer_factory.hpp:77] Creating layer relu1_tnet1
I0807 15:36:35.456638 25799 net.cpp:84] Creating Layer relu1_tnet1
I0807 15:36:35.456641 25799 net.cpp:406] relu1_tnet1 <- conv1_tnet1
I0807 15:36:35.456645 25799 net.cpp:367] relu1_tnet1 -> conv1_tnet1 (in-place)
I0807 15:36:35.456925 25799 net.cpp:122] Setting up relu1_tnet1
I0807 15:36:35.456936 25799 net.cpp:129] Top shape: 32 64 2048 1 (4194304)
I0807 15:36:35.456939 25799 net.cpp:137] Memory required for data: 70254976
I0807 15:36:35.456943 25799 layer_factory.hpp:77] Creating layer conv2_tnet1
I0807 15:36:35.456953 25799 net.cpp:84] Creating Layer conv2_tnet1
I0807 15:36:35.456955 25799 net.cpp:406] conv2_tnet1 <- conv1_tnet1
I0807 15:36:35.456960 25799 net.cpp:380] conv2_tnet1 -> conv2_tnet1
I0807 15:36:35.458238 25799 net.cpp:122] Setting up conv2_tnet1
I0807 15:36:35.458251 25799 net.cpp:129] Top shape: 32 128 2048 1 (8388608)
I0807 15:36:35.458256 25799 net.cpp:137] Memory required for data: 103809408
I0807 15:36:35.458263 25799 layer_factory.hpp:77] Creating layer bn2_tnet1
I0807 15:36:35.458271 25799 net.cpp:84] Creating Layer bn2_tnet1
I0807 15:36:35.458276 25799 net.cpp:406] bn2_tnet1 <- conv2_tnet1
I0807 15:36:35.458283 25799 net.cpp:367] bn2_tnet1 -> conv2_tnet1 (in-place)
I0807 15:36:35.458431 25799 net.cpp:122] Setting up bn2_tnet1
I0807 15:36:35.458451 25799 net.cpp:129] Top shape: 32 128 2048 1 (8388608)
I0807 15:36:35.458453 25799 net.cpp:137] Memory required for data: 137363840
I0807 15:36:35.458459 25799 layer_factory.hpp:77] Creating layer scale2_tnet1
I0807 15:36:35.458468 25799 net.cpp:84] Creating Layer scale2_tnet1
I0807 15:36:35.458473 25799 net.cpp:406] scale2_tnet1 <- conv2_tnet1
I0807 15:36:35.458478 25799 net.cpp:367] scale2_tnet1 -> conv2_tnet1 (in-place)
I0807 15:36:35.458513 25799 layer_factory.hpp:77] Creating layer scale2_tnet1
I0807 15:36:35.458592 25799 net.cpp:122] Setting up scale2_tnet1
I0807 15:36:35.458600 25799 net.cpp:129] Top shape: 32 128 2048 1 (8388608)
I0807 15:36:35.458604 25799 net.cpp:137] Memory required for data: 170918272
I0807 15:36:35.458609 25799 layer_factory.hpp:77] Creating layer relu2_tnet1
I0807 15:36:35.458613 25799 net.cpp:84] Creating Layer relu2_tnet1
I0807 15:36:35.458617 25799 net.cpp:406] relu2_tnet1 <- conv2_tnet1
I0807 15:36:35.458622 25799 net.cpp:367] relu2_tnet1 -> conv2_tnet1 (in-place)
I0807 15:36:35.458775 25799 net.cpp:122] Setting up relu2_tnet1
I0807 15:36:35.458786 25799 net.cpp:129] Top shape: 32 128 2048 1 (8388608)
I0807 15:36:35.458789 25799 net.cpp:137] Memory required for data: 204472704
I0807 15:36:35.458792 25799 layer_factory.hpp:77] Creating layer conv3_tnet1
I0807 15:36:35.458801 25799 net.cpp:84] Creating Layer conv3_tnet1
I0807 15:36:35.458803 25799 net.cpp:406] conv3_tnet1 <- conv2_tnet1
I0807 15:36:35.458809 25799 net.cpp:380] conv3_tnet1 -> conv3_tnet1
I0807 15:36:35.461031 25799 net.cpp:122] Setting up conv3_tnet1
I0807 15:36:35.461045 25799 net.cpp:129] Top shape: 32 1024 2048 1 (67108864)
I0807 15:36:35.461050 25799 net.cpp:137] Memory required for data: 472908160
I0807 15:36:35.461060 25799 layer_factory.hpp:77] Creating layer bn3_tnet1
I0807 15:36:35.461067 25799 net.cpp:84] Creating Layer bn3_tnet1
I0807 15:36:35.461074 25799 net.cpp:406] bn3_tnet1 <- conv3_tnet1
I0807 15:36:35.461079 25799 net.cpp:367] bn3_tnet1 -> conv3_tnet1 (in-place)
I0807 15:36:35.461221 25799 net.cpp:122] Setting up bn3_tnet1
I0807 15:36:35.461227 25799 net.cpp:129] Top shape: 32 1024 2048 1 (67108864)
I0807 15:36:35.461230 25799 net.cpp:137] Memory required for data: 741343616
I0807 15:36:35.461238 25799 layer_factory.hpp:77] Creating layer scale3_tnet1
I0807 15:36:35.461244 25799 net.cpp:84] Creating Layer scale3_tnet1
I0807 15:36:35.461247 25799 net.cpp:406] scale3_tnet1 <- conv3_tnet1
I0807 15:36:35.461251 25799 net.cpp:367] scale3_tnet1 -> conv3_tnet1 (in-place)
I0807 15:36:35.461277 25799 layer_factory.hpp:77] Creating layer scale3_tnet1
I0807 15:36:35.461355 25799 net.cpp:122] Setting up scale3_tnet1
I0807 15:36:35.461360 25799 net.cpp:129] Top shape: 32 1024 2048 1 (67108864)
I0807 15:36:35.461364 25799 net.cpp:137] Memory required for data: 1009779072
I0807 15:36:35.461369 25799 layer_factory.hpp:77] Creating layer relu3_tnet1
I0807 15:36:35.461374 25799 net.cpp:84] Creating Layer relu3_tnet1
I0807 15:36:35.461375 25799 net.cpp:406] relu3_tnet1 <- conv3_tnet1
I0807 15:36:35.461380 25799 net.cpp:367] relu3_tnet1 -> conv3_tnet1 (in-place)
I0807 15:36:35.461668 25799 net.cpp:122] Setting up relu3_tnet1
I0807 15:36:35.461678 25799 net.cpp:129] Top shape: 32 1024 2048 1 (67108864)
I0807 15:36:35.461681 25799 net.cpp:137] Memory required for data: 1278214528
I0807 15:36:35.461684 25799 layer_factory.hpp:77] Creating layer pool_tnet1
I0807 15:36:35.461693 25799 net.cpp:84] Creating Layer pool_tnet1
I0807 15:36:35.461696 25799 net.cpp:406] pool_tnet1 <- conv3_tnet1
I0807 15:36:35.461701 25799 net.cpp:380] pool_tnet1 -> global_feat_tnet1
I0807 15:36:35.461740 25799 net.cpp:122] Setting up pool_tnet1
I0807 15:36:35.461746 25799 net.cpp:129] Top shape: 32 1024 1 1 (32768)
I0807 15:36:35.461750 25799 net.cpp:137] Memory required for data: 1278345600
I0807 15:36:35.461751 25799 layer_factory.hpp:77] Creating layer fc1_tnet1
I0807 15:36:35.461758 25799 net.cpp:84] Creating Layer fc1_tnet1
I0807 15:36:35.461761 25799 net.cpp:406] fc1_tnet1 <- global_feat_tnet1
I0807 15:36:35.461766 25799 net.cpp:380] fc1_tnet1 -> fc1_tnet1
I0807 15:36:35.473513 25799 net.cpp:122] Setting up fc1_tnet1
I0807 15:36:35.473533 25799 net.cpp:129] Top shape: 32 512 (16384)
I0807 15:36:35.473537 25799 net.cpp:137] Memory required for data: 1278411136
I0807 15:36:35.473548 25799 layer_factory.hpp:77] Creating layer bn6_tnet1
I0807 15:36:35.473561 25799 net.cpp:84] Creating Layer bn6_tnet1
I0807 15:36:35.473565 25799 net.cpp:406] bn6_tnet1 <- fc1_tnet1
I0807 15:36:35.473572 25799 net.cpp:367] bn6_tnet1 -> fc1_tnet1 (in-place)
I0807 15:36:35.473726 25799 net.cpp:122] Setting up bn6_tnet1
I0807 15:36:35.473732 25799 net.cpp:129] Top shape: 32 512 (16384)
I0807 15:36:35.473738 25799 net.cpp:137] Memory required for data: 1278476672
I0807 15:36:35.473747 25799 layer_factory.hpp:77] Creating layer scale6_tnet1
I0807 15:36:35.473754 25799 net.cpp:84] Creating Layer scale6_tnet1
I0807 15:36:35.473760 25799 net.cpp:406] scale6_tnet1 <- fc1_tnet1
I0807 15:36:35.473764 25799 net.cpp:367] scale6_tnet1 -> fc1_tnet1 (in-place)
I0807 15:36:35.473795 25799 layer_factory.hpp:77] Creating layer scale6_tnet1
I0807 15:36:35.473882 25799 net.cpp:122] Setting up scale6_tnet1
I0807 15:36:35.473888 25799 net.cpp:129] Top shape: 32 512 (16384)
I0807 15:36:35.473894 25799 net.cpp:137] Memory required for data: 1278542208
I0807 15:36:35.473902 25799 layer_factory.hpp:77] Creating layer relu6_tnet1
I0807 15:36:35.473909 25799 net.cpp:84] Creating Layer relu6_tnet1
I0807 15:36:35.473914 25799 net.cpp:406] relu6_tnet1 <- fc1_tnet1
I0807 15:36:35.473917 25799 net.cpp:367] relu6_tnet1 -> fc1_tnet1 (in-place)
I0807 15:36:35.474100 25799 net.cpp:122] Setting up relu6_tnet1
I0807 15:36:35.474108 25799 net.cpp:129] Top shape: 32 512 (16384)
I0807 15:36:35.474112 25799 net.cpp:137] Memory required for data: 1278607744
I0807 15:36:35.474114 25799 layer_factory.hpp:77] Creating layer fc2_tnet1
I0807 15:36:35.474122 25799 net.cpp:84] Creating Layer fc2_tnet1
I0807 15:36:35.474125 25799 net.cpp:406] fc2_tnet1 <- fc1_tnet1
I0807 15:36:35.474130 25799 net.cpp:380] fc2_tnet1 -> fc2_tnet1
I0807 15:36:35.476979 25799 net.cpp:122] Setting up fc2_tnet1
I0807 15:36:35.476987 25799 net.cpp:129] Top shape: 32 256 (8192)
I0807 15:36:35.476989 25799 net.cpp:137] Memory required for data: 1278640512
I0807 15:36:35.476994 25799 layer_factory.hpp:77] Creating layer bn7_tnet1
I0807 15:36:35.476999 25799 net.cpp:84] Creating Layer bn7_tnet1
I0807 15:36:35.477002 25799 net.cpp:406] bn7_tnet1 <- fc2_tnet1
I0807 15:36:35.477006 25799 net.cpp:367] bn7_tnet1 -> fc2_tnet1 (in-place)
I0807 15:36:35.477138 25799 net.cpp:122] Setting up bn7_tnet1
I0807 15:36:35.477143 25799 net.cpp:129] Top shape: 32 256 (8192)
I0807 15:36:35.477145 25799 net.cpp:137] Memory required for data: 1278673280
I0807 15:36:35.477157 25799 layer_factory.hpp:77] Creating layer scale7_tnet1
I0807 15:36:35.477162 25799 net.cpp:84] Creating Layer scale7_tnet1
I0807 15:36:35.477165 25799 net.cpp:406] scale7_tnet1 <- fc2_tnet1
I0807 15:36:35.477169 25799 net.cpp:367] scale7_tnet1 -> fc2_tnet1 (in-place)
I0807 15:36:35.477197 25799 layer_factory.hpp:77] Creating layer scale7_tnet1
I0807 15:36:35.477270 25799 net.cpp:122] Setting up scale7_tnet1
I0807 15:36:35.477277 25799 net.cpp:129] Top shape: 32 256 (8192)
I0807 15:36:35.477282 25799 net.cpp:137] Memory required for data: 1278706048
I0807 15:36:35.477289 25799 layer_factory.hpp:77] Creating layer relu7_tnet1
I0807 15:36:35.477294 25799 net.cpp:84] Creating Layer relu7_tnet1
I0807 15:36:35.477298 25799 net.cpp:406] relu7_tnet1 <- fc2_tnet1
I0807 15:36:35.477304 25799 net.cpp:367] relu7_tnet1 -> fc2_tnet1 (in-place)
I0807 15:36:35.477630 25799 net.cpp:122] Setting up relu7_tnet1
I0807 15:36:35.477641 25799 net.cpp:129] Top shape: 32 256 (8192)
I0807 15:36:35.477648 25799 net.cpp:137] Memory required for data: 1278738816
I0807 15:36:35.477651 25799 layer_factory.hpp:77] Creating layer fc3_tnet1
I0807 15:36:35.477661 25799 net.cpp:84] Creating Layer fc3_tnet1
I0807 15:36:35.477665 25799 net.cpp:406] fc3_tnet1 <- fc2_tnet1
I0807 15:36:35.477672 25799 net.cpp:380] fc3_tnet1 -> fc3_tnet1
I0807 15:36:35.477773 25799 net.cpp:122] Setting up fc3_tnet1
I0807 15:36:35.477782 25799 net.cpp:129] Top shape: 32 9 (288)
I0807 15:36:35.477787 25799 net.cpp:137] Memory required for data: 1278739968
I0807 15:36:35.477794 25799 layer_factory.hpp:77] Creating layer fc3_tnet1_fc3_tnet1_0_split
I0807 15:36:35.477802 25799 net.cpp:84] Creating Layer fc3_tnet1_fc3_tnet1_0_split
I0807 15:36:35.477807 25799 net.cpp:406] fc3_tnet1_fc3_tnet1_0_split <- fc3_tnet1
I0807 15:36:35.477811 25799 net.cpp:380] fc3_tnet1_fc3_tnet1_0_split -> fc3_tnet1_fc3_tnet1_0_split_0
I0807 15:36:35.477819 25799 net.cpp:380] fc3_tnet1_fc3_tnet1_0_split -> fc3_tnet1_fc3_tnet1_0_split_1
I0807 15:36:35.477851 25799 net.cpp:122] Setting up fc3_tnet1_fc3_tnet1_0_split
I0807 15:36:35.477857 25799 net.cpp:129] Top shape: 32 9 (288)
I0807 15:36:35.477864 25799 net.cpp:129] Top shape: 32 9 (288)
I0807 15:36:35.477869 25799 net.cpp:137] Memory required for data: 1278742272
I0807 15:36:35.477872 25799 layer_factory.hpp:77] Creating layer reshape_tnet1
I0807 15:36:35.477880 25799 net.cpp:84] Creating Layer reshape_tnet1
I0807 15:36:35.477885 25799 net.cpp:406] reshape_tnet1 <- fc3_tnet1_fc3_tnet1_0_split_0
I0807 15:36:35.477893 25799 net.cpp:380] reshape_tnet1 -> fc3_tnet1_reshape
I0807 15:36:35.477916 25799 net.cpp:122] Setting up reshape_tnet1
I0807 15:36:35.477922 25799 net.cpp:129] Top shape: 32 3 3 (288)
I0807 15:36:35.477927 25799 net.cpp:137] Memory required for data: 1278743424
I0807 15:36:35.477931 25799 layer_factory.hpp:77] Creating layer eye_tnet1
I0807 15:36:35.947502 25799 net.cpp:84] Creating Layer eye_tnet1
I0807 15:36:35.947527 25799 net.cpp:406] eye_tnet1 <- fc3_tnet1_fc3_tnet1_0_split_1
I0807 15:36:35.947540 25799 net.cpp:380] eye_tnet1 -> eye_tnet1
I0807 15:36:35.947764 25799 net.cpp:122] Setting up eye_tnet1
I0807 15:36:35.947777 25799 net.cpp:129] Top shape: 32 3 3 (288)
I0807 15:36:35.947780 25799 net.cpp:137] Memory required for data: 1278744576
I0807 15:36:35.947785 25799 layer_factory.hpp:77] Creating layer eltwise_sum_tnet1
I0807 15:36:35.947793 25799 net.cpp:84] Creating Layer eltwise_sum_tnet1
I0807 15:36:35.947799 25799 net.cpp:406] eltwise_sum_tnet1 <- fc3_tnet1_reshape
I0807 15:36:35.947808 25799 net.cpp:406] eltwise_sum_tnet1 <- eye_tnet1
I0807 15:36:35.947815 25799 net.cpp:380] eltwise_sum_tnet1 -> transform1
I0807 15:36:35.947842 25799 net.cpp:122] Setting up eltwise_sum_tnet1
I0807 15:36:35.947849 25799 net.cpp:129] Top shape: 32 3 3 (288)
I0807 15:36:35.947851 25799 net.cpp:137] Memory required for data: 1278745728
I0807 15:36:35.947854 25799 layer_factory.hpp:77] Creating layer matmul_input
I0807 15:36:35.947860 25799 net.cpp:84] Creating Layer matmul_input
I0807 15:36:35.947862 25799 net.cpp:406] matmul_input <- data_data_0_split_1
I0807 15:36:35.947866 25799 net.cpp:406] matmul_input <- transform1
I0807 15:36:35.947872 25799 net.cpp:380] matmul_input -> data_transform1
I0807 15:36:35.947894 25799 net.cpp:122] Setting up matmul_input
I0807 15:36:35.947901 25799 net.cpp:129] Top shape: 32 2048 3 (196608)
I0807 15:36:35.947903 25799 net.cpp:137] Memory required for data: 1279532160
I0807 15:36:35.947906 25799 layer_factory.hpp:77] Creating layer reshape_input_data
I0807 15:36:35.947911 25799 net.cpp:84] Creating Layer reshape_input_data
I0807 15:36:35.947914 25799 net.cpp:406] reshape_input_data <- data_transform1
I0807 15:36:35.947919 25799 net.cpp:380] reshape_input_data -> data_transform1_reshape
I0807 15:36:35.947947 25799 net.cpp:122] Setting up reshape_input_data
I0807 15:36:35.947953 25799 net.cpp:129] Top shape: 32 1 2048 3 (196608)
I0807 15:36:35.947957 25799 net.cpp:137] Memory required for data: 1280318592
I0807 15:36:35.947960 25799 layer_factory.hpp:77] Creating layer conv1
I0807 15:36:35.947988 25799 net.cpp:84] Creating Layer conv1
I0807 15:36:35.947993 25799 net.cpp:406] conv1 <- data_transform1_reshape
I0807 15:36:35.947999 25799 net.cpp:380] conv1 -> conv1
I0807 15:36:35.949129 25799 net.cpp:122] Setting up conv1
I0807 15:36:35.949142 25799 net.cpp:129] Top shape: 32 64 2048 1 (4194304)
I0807 15:36:35.949146 25799 net.cpp:137] Memory required for data: 1297095808
I0807 15:36:35.949170 25799 layer_factory.hpp:77] Creating layer bn1
I0807 15:36:35.949177 25799 net.cpp:84] Creating Layer bn1
I0807 15:36:35.949180 25799 net.cpp:406] bn1 <- conv1
I0807 15:36:35.949185 25799 net.cpp:367] bn1 -> conv1 (in-place)
I0807 15:36:35.949342 25799 net.cpp:122] Setting up bn1
I0807 15:36:35.949349 25799 net.cpp:129] Top shape: 32 64 2048 1 (4194304)
I0807 15:36:35.949352 25799 net.cpp:137] Memory required for data: 1313873024
I0807 15:36:35.949358 25799 layer_factory.hpp:77] Creating layer scale1
I0807 15:36:35.949364 25799 net.cpp:84] Creating Layer scale1
I0807 15:36:35.949368 25799 net.cpp:406] scale1 <- conv1
I0807 15:36:35.949373 25799 net.cpp:367] scale1 -> conv1 (in-place)
I0807 15:36:35.949409 25799 layer_factory.hpp:77] Creating layer scale1
I0807 15:36:35.949496 25799 net.cpp:122] Setting up scale1
I0807 15:36:35.949501 25799 net.cpp:129] Top shape: 32 64 2048 1 (4194304)
I0807 15:36:35.949504 25799 net.cpp:137] Memory required for data: 1330650240
I0807 15:36:35.949513 25799 layer_factory.hpp:77] Creating layer relu1
I0807 15:36:35.949519 25799 net.cpp:84] Creating Layer relu1
I0807 15:36:35.949523 25799 net.cpp:406] relu1 <- conv1
I0807 15:36:35.949530 25799 net.cpp:367] relu1 -> conv1 (in-place)
I0807 15:36:35.949820 25799 net.cpp:122] Setting up relu1
I0807 15:36:35.949831 25799 net.cpp:129] Top shape: 32 64 2048 1 (4194304)
I0807 15:36:35.949837 25799 net.cpp:137] Memory required for data: 1347427456
I0807 15:36:35.949842 25799 layer_factory.hpp:77] Creating layer conv2
I0807 15:36:35.949854 25799 net.cpp:84] Creating Layer conv2
I0807 15:36:35.949859 25799 net.cpp:406] conv2 <- conv1
I0807 15:36:35.949864 25799 net.cpp:380] conv2 -> conv2
I0807 15:36:35.950789 25799 net.cpp:122] Setting up conv2
I0807 15:36:35.950801 25799 net.cpp:129] Top shape: 32 64 2048 1 (4194304)
I0807 15:36:35.950805 25799 net.cpp:137] Memory required for data: 1364204672
I0807 15:36:35.950811 25799 layer_factory.hpp:77] Creating layer bn2
I0807 15:36:35.950817 25799 net.cpp:84] Creating Layer bn2
I0807 15:36:35.950820 25799 net.cpp:406] bn2 <- conv2
I0807 15:36:35.950824 25799 net.cpp:367] bn2 -> conv2 (in-place)
I0807 15:36:35.950973 25799 net.cpp:122] Setting up bn2
I0807 15:36:35.950980 25799 net.cpp:129] Top shape: 32 64 2048 1 (4194304)
I0807 15:36:35.950983 25799 net.cpp:137] Memory required for data: 1380981888
I0807 15:36:35.950989 25799 layer_factory.hpp:77] Creating layer scale2
I0807 15:36:35.950994 25799 net.cpp:84] Creating Layer scale2
I0807 15:36:35.950997 25799 net.cpp:406] scale2 <- conv2
I0807 15:36:35.951000 25799 net.cpp:367] scale2 -> conv2 (in-place)
I0807 15:36:35.951031 25799 layer_factory.hpp:77] Creating layer scale2
I0807 15:36:35.951115 25799 net.cpp:122] Setting up scale2
I0807 15:36:35.951122 25799 net.cpp:129] Top shape: 32 64 2048 1 (4194304)
I0807 15:36:35.951123 25799 net.cpp:137] Memory required for data: 1397759104
I0807 15:36:35.951128 25799 layer_factory.hpp:77] Creating layer relu2
I0807 15:36:35.951133 25799 net.cpp:84] Creating Layer relu2
I0807 15:36:35.951136 25799 net.cpp:406] relu2 <- conv2
I0807 15:36:35.951140 25799 net.cpp:367] relu2 -> conv2 (in-place)
I0807 15:36:35.951292 25799 net.cpp:122] Setting up relu2
I0807 15:36:35.951299 25799 net.cpp:129] Top shape: 32 64 2048 1 (4194304)
I0807 15:36:35.951303 25799 net.cpp:137] Memory required for data: 1414536320
I0807 15:36:35.951305 25799 layer_factory.hpp:77] Creating layer conv3
I0807 15:36:35.951313 25799 net.cpp:84] Creating Layer conv3
I0807 15:36:35.951315 25799 net.cpp:406] conv3 <- conv2
I0807 15:36:35.951321 25799 net.cpp:380] conv3 -> conv3
I0807 15:36:35.952235 25799 net.cpp:122] Setting up conv3
I0807 15:36:35.952247 25799 net.cpp:129] Top shape: 32 64 2048 1 (4194304)
I0807 15:36:35.952250 25799 net.cpp:137] Memory required for data: 1431313536
I0807 15:36:35.952256 25799 layer_factory.hpp:77] Creating layer bn3
I0807 15:36:35.952260 25799 net.cpp:84] Creating Layer bn3
I0807 15:36:35.952263 25799 net.cpp:406] bn3 <- conv3
I0807 15:36:35.952270 25799 net.cpp:367] bn3 -> conv3 (in-place)
I0807 15:36:35.952427 25799 net.cpp:122] Setting up bn3
I0807 15:36:35.952435 25799 net.cpp:129] Top shape: 32 64 2048 1 (4194304)
I0807 15:36:35.952436 25799 net.cpp:137] Memory required for data: 1448090752
I0807 15:36:35.952443 25799 layer_factory.hpp:77] Creating layer scale3
I0807 15:36:35.952448 25799 net.cpp:84] Creating Layer scale3
I0807 15:36:35.952452 25799 net.cpp:406] scale3 <- conv3
I0807 15:36:35.952457 25799 net.cpp:367] scale3 -> conv3 (in-place)
I0807 15:36:35.952488 25799 layer_factory.hpp:77] Creating layer scale3
I0807 15:36:35.952574 25799 net.cpp:122] Setting up scale3
I0807 15:36:35.952579 25799 net.cpp:129] Top shape: 32 64 2048 1 (4194304)
I0807 15:36:35.952581 25799 net.cpp:137] Memory required for data: 1464867968
I0807 15:36:35.952586 25799 layer_factory.hpp:77] Creating layer relu3
I0807 15:36:35.952590 25799 net.cpp:84] Creating Layer relu3
I0807 15:36:35.952594 25799 net.cpp:406] relu3 <- conv3
I0807 15:36:35.952597 25799 net.cpp:367] relu3 -> conv3 (in-place)
I0807 15:36:35.952898 25799 net.cpp:122] Setting up relu3
I0807 15:36:35.952909 25799 net.cpp:129] Top shape: 32 64 2048 1 (4194304)
I0807 15:36:35.952915 25799 net.cpp:137] Memory required for data: 1481645184
I0807 15:36:35.952921 25799 layer_factory.hpp:77] Creating layer conv4
I0807 15:36:35.952934 25799 net.cpp:84] Creating Layer conv4
I0807 15:36:35.952939 25799 net.cpp:406] conv4 <- conv3
I0807 15:36:35.952946 25799 net.cpp:380] conv4 -> conv4
I0807 15:36:35.953908 25799 net.cpp:122] Setting up conv4
I0807 15:36:35.953923 25799 net.cpp:129] Top shape: 32 128 2048 1 (8388608)
I0807 15:36:35.953930 25799 net.cpp:137] Memory required for data: 1515199616
I0807 15:36:35.953939 25799 layer_factory.hpp:77] Creating layer bn4
I0807 15:36:35.953948 25799 net.cpp:84] Creating Layer bn4
I0807 15:36:35.953951 25799 net.cpp:406] bn4 <- conv4
I0807 15:36:35.953959 25799 net.cpp:367] bn4 -> conv4 (in-place)
I0807 15:36:35.954107 25799 net.cpp:122] Setting up bn4
I0807 15:36:35.954113 25799 net.cpp:129] Top shape: 32 128 2048 1 (8388608)
I0807 15:36:35.954115 25799 net.cpp:137] Memory required for data: 1548754048
I0807 15:36:35.954121 25799 layer_factory.hpp:77] Creating layer scale4
I0807 15:36:35.954126 25799 net.cpp:84] Creating Layer scale4
I0807 15:36:35.954130 25799 net.cpp:406] scale4 <- conv4
I0807 15:36:35.954133 25799 net.cpp:367] scale4 -> conv4 (in-place)
I0807 15:36:35.954164 25799 layer_factory.hpp:77] Creating layer scale4
I0807 15:36:35.954242 25799 net.cpp:122] Setting up scale4
I0807 15:36:35.954247 25799 net.cpp:129] Top shape: 32 128 2048 1 (8388608)
I0807 15:36:35.954250 25799 net.cpp:137] Memory required for data: 1582308480
I0807 15:36:35.954274 25799 layer_factory.hpp:77] Creating layer relu4
I0807 15:36:35.954282 25799 net.cpp:84] Creating Layer relu4
I0807 15:36:35.954284 25799 net.cpp:406] relu4 <- conv4
I0807 15:36:35.954288 25799 net.cpp:367] relu4 -> conv4 (in-place)
I0807 15:36:35.954444 25799 net.cpp:122] Setting up relu4
I0807 15:36:35.954452 25799 net.cpp:129] Top shape: 32 128 2048 1 (8388608)
I0807 15:36:35.954455 25799 net.cpp:137] Memory required for data: 1615862912
I0807 15:36:35.954459 25799 layer_factory.hpp:77] Creating layer conv5
I0807 15:36:35.954468 25799 net.cpp:84] Creating Layer conv5
I0807 15:36:35.954471 25799 net.cpp:406] conv5 <- conv4
I0807 15:36:35.954476 25799 net.cpp:380] conv5 -> conv5
I0807 15:36:35.956425 25799 net.cpp:122] Setting up conv5
I0807 15:36:35.956439 25799 net.cpp:129] Top shape: 32 1024 2048 1 (67108864)
I0807 15:36:35.956441 25799 net.cpp:137] Memory required for data: 1884298368
I0807 15:36:35.956447 25799 layer_factory.hpp:77] Creating layer bn5
I0807 15:36:35.956452 25799 net.cpp:84] Creating Layer bn5
I0807 15:36:35.956456 25799 net.cpp:406] bn5 <- conv5
I0807 15:36:35.956461 25799 net.cpp:367] bn5 -> conv5 (in-place)
I0807 15:36:35.956609 25799 net.cpp:122] Setting up bn5
I0807 15:36:35.956615 25799 net.cpp:129] Top shape: 32 1024 2048 1 (67108864)
I0807 15:36:35.956617 25799 net.cpp:137] Memory required for data: 2152733824
I0807 15:36:35.956632 25799 layer_factory.hpp:77] Creating layer scale5
I0807 15:36:35.956638 25799 net.cpp:84] Creating Layer scale5
I0807 15:36:35.956641 25799 net.cpp:406] scale5 <- conv5
I0807 15:36:35.956646 25799 net.cpp:367] scale5 -> conv5 (in-place)
I0807 15:36:35.956676 25799 layer_factory.hpp:77] Creating layer scale5
I0807 15:36:35.956761 25799 net.cpp:122] Setting up scale5
I0807 15:36:35.956766 25799 net.cpp:129] Top shape: 32 1024 2048 1 (67108864)
I0807 15:36:35.956769 25799 net.cpp:137] Memory required for data: 2421169280
I0807 15:36:35.956774 25799 layer_factory.hpp:77] Creating layer relu5
I0807 15:36:35.956779 25799 net.cpp:84] Creating Layer relu5
I0807 15:36:35.956780 25799 net.cpp:406] relu5 <- conv5
I0807 15:36:35.956787 25799 net.cpp:367] relu5 -> conv5 (in-place)
I0807 15:36:35.957085 25799 net.cpp:122] Setting up relu5
I0807 15:36:35.957096 25799 net.cpp:129] Top shape: 32 1024 2048 1 (67108864)
I0807 15:36:35.957099 25799 net.cpp:137] Memory required for data: 2689604736
I0807 15:36:35.957103 25799 layer_factory.hpp:77] Creating layer pool
I0807 15:36:35.957109 25799 net.cpp:84] Creating Layer pool
I0807 15:36:35.957115 25799 net.cpp:406] pool <- conv5
I0807 15:36:35.957121 25799 net.cpp:380] pool -> global_feat
I0807 15:36:35.957159 25799 net.cpp:122] Setting up pool
I0807 15:36:35.957165 25799 net.cpp:129] Top shape: 32 1024 1 1 (32768)
I0807 15:36:35.957167 25799 net.cpp:137] Memory required for data: 2689735808
I0807 15:36:35.957170 25799 layer_factory.hpp:77] Creating layer fc1
I0807 15:36:35.957175 25799 net.cpp:84] Creating Layer fc1
I0807 15:36:35.957180 25799 net.cpp:406] fc1 <- global_feat
I0807 15:36:35.957190 25799 net.cpp:380] fc1 -> fc1
I0807 15:36:35.968853 25799 net.cpp:122] Setting up fc1
I0807 15:36:35.968873 25799 net.cpp:129] Top shape: 32 512 (16384)
I0807 15:36:35.968876 25799 net.cpp:137] Memory required for data: 2689801344
I0807 15:36:35.968885 25799 layer_factory.hpp:77] Creating layer bn6
I0807 15:36:35.968895 25799 net.cpp:84] Creating Layer bn6
I0807 15:36:35.968900 25799 net.cpp:406] bn6 <- fc1
I0807 15:36:35.968910 25799 net.cpp:367] bn6 -> fc1 (in-place)
I0807 15:36:35.969069 25799 net.cpp:122] Setting up bn6
I0807 15:36:35.969075 25799 net.cpp:129] Top shape: 32 512 (16384)
I0807 15:36:35.969079 25799 net.cpp:137] Memory required for data: 2689866880
I0807 15:36:35.969084 25799 layer_factory.hpp:77] Creating layer scale6
I0807 15:36:35.969092 25799 net.cpp:84] Creating Layer scale6
I0807 15:36:35.969097 25799 net.cpp:406] scale6 <- fc1
I0807 15:36:35.969105 25799 net.cpp:367] scale6 -> fc1 (in-place)
I0807 15:36:35.969138 25799 layer_factory.hpp:77] Creating layer scale6
I0807 15:36:35.969225 25799 net.cpp:122] Setting up scale6
I0807 15:36:35.969233 25799 net.cpp:129] Top shape: 32 512 (16384)
I0807 15:36:35.969236 25799 net.cpp:137] Memory required for data: 2689932416
I0807 15:36:35.969241 25799 layer_factory.hpp:77] Creating layer relu6
I0807 15:36:35.969245 25799 net.cpp:84] Creating Layer relu6
I0807 15:36:35.969249 25799 net.cpp:406] relu6 <- fc1
I0807 15:36:35.969256 25799 net.cpp:367] relu6 -> fc1 (in-place)
I0807 15:36:35.969611 25799 net.cpp:122] Setting up relu6
I0807 15:36:35.969622 25799 net.cpp:129] Top shape: 32 512 (16384)
I0807 15:36:35.969625 25799 net.cpp:137] Memory required for data: 2689997952
I0807 15:36:35.969629 25799 layer_factory.hpp:77] Creating layer fc2
I0807 15:36:35.969635 25799 net.cpp:84] Creating Layer fc2
I0807 15:36:35.969637 25799 net.cpp:406] fc2 <- fc1
I0807 15:36:35.969646 25799 net.cpp:380] fc2 -> fc2
I0807 15:36:35.972527 25799 net.cpp:122] Setting up fc2
I0807 15:36:35.972537 25799 net.cpp:129] Top shape: 32 256 (8192)
I0807 15:36:35.972539 25799 net.cpp:137] Memory required for data: 2690030720
I0807 15:36:35.972544 25799 layer_factory.hpp:77] Creating layer bn7
I0807 15:36:35.972550 25799 net.cpp:84] Creating Layer bn7
I0807 15:36:35.972553 25799 net.cpp:406] bn7 <- fc2
I0807 15:36:35.972559 25799 net.cpp:367] bn7 -> fc2 (in-place)
I0807 15:36:35.972708 25799 net.cpp:122] Setting up bn7
I0807 15:36:35.972715 25799 net.cpp:129] Top shape: 32 256 (8192)
I0807 15:36:35.972731 25799 net.cpp:137] Memory required for data: 2690063488
I0807 15:36:35.972741 25799 layer_factory.hpp:77] Creating layer scale7
I0807 15:36:35.972749 25799 net.cpp:84] Creating Layer scale7
I0807 15:36:35.972755 25799 net.cpp:406] scale7 <- fc2
I0807 15:36:35.972760 25799 net.cpp:367] scale7 -> fc2 (in-place)
I0807 15:36:35.972797 25799 layer_factory.hpp:77] Creating layer scale7
I0807 15:36:35.972883 25799 net.cpp:122] Setting up scale7
I0807 15:36:35.972889 25799 net.cpp:129] Top shape: 32 256 (8192)
I0807 15:36:35.972895 25799 net.cpp:137] Memory required for data: 2690096256
I0807 15:36:35.972903 25799 layer_factory.hpp:77] Creating layer relu7
I0807 15:36:35.972908 25799 net.cpp:84] Creating Layer relu7
I0807 15:36:35.972913 25799 net.cpp:406] relu7 <- fc2
I0807 15:36:35.972920 25799 net.cpp:367] relu7 -> fc2 (in-place)
I0807 15:36:35.973078 25799 net.cpp:122] Setting up relu7
I0807 15:36:35.973086 25799 net.cpp:129] Top shape: 32 256 (8192)
I0807 15:36:35.973091 25799 net.cpp:137] Memory required for data: 2690129024
I0807 15:36:35.973098 25799 layer_factory.hpp:77] Creating layer drop1
I0807 15:36:35.973107 25799 net.cpp:84] Creating Layer drop1
I0807 15:36:35.973111 25799 net.cpp:406] drop1 <- fc2
I0807 15:36:35.973119 25799 net.cpp:380] drop1 -> drop1
I0807 15:36:35.973157 25799 net.cpp:122] Setting up drop1
I0807 15:36:35.973163 25799 net.cpp:129] Top shape: 32 256 (8192)
I0807 15:36:35.973170 25799 net.cpp:137] Memory required for data: 2690161792
I0807 15:36:35.973175 25799 layer_factory.hpp:77] Creating layer fc3
I0807 15:36:35.973184 25799 net.cpp:84] Creating Layer fc3
I0807 15:36:35.973187 25799 net.cpp:406] fc3 <- drop1
I0807 15:36:35.973196 25799 net.cpp:380] fc3 -> fc3
I0807 15:36:35.973508 25799 net.cpp:122] Setting up fc3
I0807 15:36:35.973515 25799 net.cpp:129] Top shape: 32 40 (1280)
I0807 15:36:35.973520 25799 net.cpp:137] Memory required for data: 2690166912
I0807 15:36:35.973528 25799 layer_factory.hpp:77] Creating layer fc3_fc3_0_split
I0807 15:36:35.973537 25799 net.cpp:84] Creating Layer fc3_fc3_0_split
I0807 15:36:35.973541 25799 net.cpp:406] fc3_fc3_0_split <- fc3
I0807 15:36:35.973547 25799 net.cpp:380] fc3_fc3_0_split -> fc3_fc3_0_split_0
I0807 15:36:35.973554 25799 net.cpp:380] fc3_fc3_0_split -> fc3_fc3_0_split_1
I0807 15:36:35.973592 25799 net.cpp:122] Setting up fc3_fc3_0_split
I0807 15:36:35.973598 25799 net.cpp:129] Top shape: 32 40 (1280)
I0807 15:36:35.973606 25799 net.cpp:129] Top shape: 32 40 (1280)
I0807 15:36:35.973610 25799 net.cpp:137] Memory required for data: 2690177152
I0807 15:36:35.973614 25799 layer_factory.hpp:77] Creating layer accuracy
I0807 15:36:35.973628 25799 net.cpp:84] Creating Layer accuracy
I0807 15:36:35.973632 25799 net.cpp:406] accuracy <- fc3_fc3_0_split_0
I0807 15:36:35.973637 25799 net.cpp:406] accuracy <- label_data_1_split_0
I0807 15:36:35.973644 25799 net.cpp:380] accuracy -> accuracy
…
