…
D 0
I0531 12:39:39.931484  6387 caffe.cpp:279] GPU device name: Tesla K40c
I0531 12:39:40.380769  6387 net.cpp:294] The NetState phase (1) differed from the phase (0) specified by a rule in layer data
I0531 12:39:40.380952  6387 net.cpp:51] Initializing net from parameters: 
name: "pointnet_cls_basic"
state {
  phase: TEST
  level: 0
  stage: ""
}
layer {
  name: "data"
  type: "HDF5Data"
  top: "data"
  top: "label"
  include {
    phase: TEST
  }
  hdf5_data_param {
    source: "data/modelnet40_ply_hdf5_2048/test_files.txt"
    batch_size: 32
  }
}
layer {
  name: "reshape"
  type: "Reshape"
  bottom: "data"
  top: "data_reshape"
  reshape_param {
    shape {
      dim: 0
      dim: 1
      dim: -1
      dim: 3
    }
  }
}
layer {
  name: "conv1"
  type: "Convolution"
  bottom: "data_reshape"
  top: "conv1"
  param {
    lr_mult: 1
  }
  param {
    lr_mult: 2
  }
  convolution_param {
    num_output: 64
    pad: 0
    stride: 1
    weight_filler {
      type: "xavier"
    }
    bias_filler {
      type: "constant"
      value: 0
    }
    kernel_h: 1
    kernel_w: 3
  }
}
layer {
  name: "bn1"
  type: "BatchNorm"
  bottom: "conv1"
  top: "bn1"
}
layer {
  name: "scale1"
  type: "Scale"
  bottom: "bn1"
  top: "scale1"
  scale_param {
    bias_term: true
  }
}
layer {
  name: "relu1"
  type: "ReLU"
  bottom: "scale1"
  top: "scale1"
}
layer {
  name: "conv2"
  type: "Convolution"
  bottom: "scale1"
  top: "conv2"
  param {
    lr_mult: 1
  }
  param {
    lr_mult: 2
  }
  convolution_param {
    num_output: 64
    pad: 0
    stride: 1
    weight_filler {
      type: "xavier"
    }
    bias_filler {
      type: "constant"
      value: 0
    }
    kernel_h: 1
    kernel_w: 1
  }
}
layer {
  name: "bn2"
  type: "BatchNorm"
  bottom: "conv2"
  top: "bn2"
}
layer {
  name: "scale2"
  type: "Scale"
  bottom: "bn2"
  top: "scale2"
  scale_param {
    bias_term: true
  }
}
layer {
  name: "relu2"
  type: "ReLU"
  bottom: "scale2"
  top: "scale2"
}
layer {
  name: "conv3"
  type: "Convolution"
  bottom: "scale2"
  top: "conv3"
  param {
    lr_mult: 1
  }
  param {
    lr_mult: 2
  }
  convolution_param {
    num_output: 64
    pad: 0
    stride: 1
    weight_filler {
      type: "xavier"
    }
    bias_filler {
      type: "constant"
      value: 0
    }
    kernel_h: 1
    kernel_w: 1
  }
}
layer {
  name: "bn3"
  type: "BatchNorm"
  bottom: "conv3"
  top: "bn3"
}
layer {
  name: "scale3"
  type: "Scale"
  bottom: "bn3"
  top: "scale3"
  scale_param {
    bias_term: true
  }
}
layer {
  name: "relu3"
  type: "ReLU"
  bottom: "scale3"
  top: "scale3"
}
layer {
  name: "conv4"
  type: "Convolution"
  bottom: "scale3"
  top: "conv4"
  param {
    lr_mult: 1
  }
  param {
    lr_mult: 2
  }
  convolution_param {
    num_output: 128
    pad: 0
    stride: 1
    weight_filler {
      type: "xavier"
    }
    bias_filler {
      type: "constant"
      value: 0
    }
    kernel_h: 1
    kernel_w: 1
  }
}
layer {
  name: "bn4"
  type: "BatchNorm"
  bottom: "conv4"
  top: "bn4"
}
layer {
  name: "scale4"
  type: "Scale"
  bottom: "bn4"
  top: "scale4"
  scale_param {
    bias_term: true
  }
}
layer {
  name: "relu4"
  type: "ReLU"
  bottom: "scale4"
  top: "scale4"
}
layer {
  name: "conv5"
  type: "Convolution"
  bottom: "scale4"
  top: "conv5"
  param {
    lr_mult: 1
  }
  param {
    lr_mult: 2
  }
  convolution_param {
    num_output: 1024
    pad: 0
    stride: 1
    weight_filler {
      type: "xavier"
    }
    bias_filler {
      type: "constant"
      value: 0
    }
    kernel_h: 1
    kernel_w: 1
  }
}
layer {
  name: "bn5"
  type: "BatchNorm"
  bottom: "conv5"
  top: "bn5"
}
layer {
  name: "scale5"
  type: "Scale"
  bottom: "bn5"
  top: "scale5"
  scale_param {
    bias_term: true
  }
}
layer {
  name: "relu5"
  type: "ReLU"
  bottom: "scale5"
  top: "scale5"
}
layer {
  name: "pool"
  type: "Pooling"
  bottom: "scale5"
  top: "global_feat"
  pooling_param {
    pool: MAX
    stride: 1
    pad: 0
    kernel_h: 2048
    kernel_w: 1
  }
}
layer {
  name: "fc1"
  type: "InnerProduct"
  bottom: "global_feat"
  top: "fc1"
  param {
    lr_mult: 1
    decay_mult: 1
  }
  param {
    lr_mult: 1
    decay_mult: 1
  }
  inner_product_param {
    num_output: 512
    weight_filler {
      type: "gaussian"
      std: 0.001
    }
    bias_filler {
      type: "constant"
      value: 0
    }
  }
}
layer {
  name: "bn6"
  type: "BatchNorm"
  bottom: "fc1"
  top: "bn6"
}
layer {
  name: "scale6"
  type: "Scale"
  bottom: "bn6"
  top: "scale6"
  scale_param {
    bias_term: true
  }
}
layer {
  name: "relu6"
  type: "ReLU"
  bottom: "scale6"
  top: "scale6"
}
layer {
  name: "fc2"
  type: "InnerProduct"
  bottom: "scale6"
  top: "fc2"
  param {
    lr_mult: 1
    decay_mult: 1
  }
  param {
    lr_mult: 1
    decay_mult: 1
  }
  inner_product_param {
    num_output: 256
    weight_filler {
      type: "gaussian"
      std: 0.001
    }
    bias_filler {
      type: "constant"
      value: 0
    }
  }
}
layer {
  name: "bn7"
  type: "BatchNorm"
  bottom: "fc2"
  top: "bn7"
}
layer {
  name: "scale7"
  type: "Scale"
  bottom: "bn7"
  top: "scale7"
  scale_param {
    bias_term: true
  }
}
layer {
  name: "relu7"
  type: "ReLU"
  bottom: "scale7"
  top: "scale7"
}
layer {
  name: "drop1"
  type: "Dropout"
  bottom: "scale7"
  top: "drop1"
  dropout_param {
    dropout_ratio: 0.3
  }
}
layer {
  name: "fc3"
  type: "InnerProduct"
  bottom: "drop1"
  top: "fc3"
  param {
    lr_mult: 1
    decay_mult: 1
  }
  param {
    lr_mult: 1
    decay_mult: 1
  }
  inner_product_param {
    num_output: 40
    weight_filler {
      type: "gaussian"
      std: 0.001
    }
    bias_filler {
      type: "constant"
      value: 0
    }
  }
}
layer {
  name: "accuracy"
  type: "Accuracy"
  bottom: "fc3"
  bottom: "label"
  top: "accuracy"
  include {
    phase: TEST
  }
}
layer {
  name: "loss"
  type: "SoftmaxWithLoss"
  bottom: "fc3"
  bottom: "label"
  top: "loss"
}
I0531 12:39:40.381088  6387 layer_factory.hpp:77] Creating layer data
I0531 12:39:40.381101  6387 net.cpp:84] Creating Layer data
I0531 12:39:40.381108  6387 net.cpp:380] data -> data
I0531 12:39:40.381124  6387 net.cpp:380] data -> label
I0531 12:39:40.381132  6387 hdf5_data_layer.cpp:80] Loading list of HDF5 filenames from: data/modelnet40_ply_hdf5_2048/test_files.txt
I0531 12:39:40.381162  6387 hdf5_data_layer.cpp:94] Number of HDF5 files: 2
I0531 12:39:40.381844  6387 hdf5.cpp:32] Datatype class: H5T_FLOAT
I0531 12:39:40.832113  6387 hdf5.cpp:35] Datatype class: H5T_INTEGER
I0531 12:39:40.832845  6387 net.cpp:122] Setting up data
I0531 12:39:40.832871  6387 net.cpp:129] Top shape: 32 2048 3 (196608)
I0531 12:39:40.832880  6387 net.cpp:129] Top shape: 32 1 (32)
I0531 12:39:40.832885  6387 net.cpp:137] Memory required for data: 786560
I0531 12:39:40.832892  6387 layer_factory.hpp:77] Creating layer label_data_1_split
I0531 12:39:40.832904  6387 net.cpp:84] Creating Layer label_data_1_split
I0531 12:39:40.832911  6387 net.cpp:406] label_data_1_split <- label
I0531 12:39:40.832924  6387 net.cpp:380] label_data_1_split -> label_data_1_split_0
I0531 12:39:40.832936  6387 net.cpp:380] label_data_1_split -> label_data_1_split_1
I0531 12:39:40.832965  6387 net.cpp:122] Setting up label_data_1_split
I0531 12:39:40.832973  6387 net.cpp:129] Top shape: 32 1 (32)
I0531 12:39:40.832978  6387 net.cpp:129] Top shape: 32 1 (32)
I0531 12:39:40.832983  6387 net.cpp:137] Memory required for data: 786816
I0531 12:39:40.832988  6387 layer_factory.hpp:77] Creating layer reshape
I0531 12:39:40.832995  6387 net.cpp:84] Creating Layer reshape
I0531 12:39:40.833000  6387 net.cpp:406] reshape <- data
I0531 12:39:40.833007  6387 net.cpp:380] reshape -> data_reshape
I0531 12:39:40.833034  6387 net.cpp:122] Setting up reshape
I0531 12:39:40.833042  6387 net.cpp:129] Top shape: 32 1 2048 3 (196608)
I0531 12:39:40.833045  6387 net.cpp:137] Memory required for data: 1573248
I0531 12:39:40.833048  6387 layer_factory.hpp:77] Creating layer conv1
I0531 12:39:40.833062  6387 net.cpp:84] Creating Layer conv1
I0531 12:39:40.833067  6387 net.cpp:406] conv1 <- data_reshape
I0531 12:39:40.833076  6387 net.cpp:380] conv1 -> conv1
I0531 12:39:41.418258  6387 net.cpp:122] Setting up conv1
I0531 12:39:41.418310  6387 net.cpp:129] Top shape: 32 64 2048 1 (4194304)
I0531 12:39:41.418316  6387 net.cpp:137] Memory required for data: 18350464
I0531 12:39:41.418336  6387 layer_factory.hpp:77] Creating layer bn1
I0531 12:39:41.418347  6387 net.cpp:84] Creating Layer bn1
I0531 12:39:41.418368  6387 net.cpp:406] bn1 <- conv1
I0531 12:39:41.418375  6387 net.cpp:380] bn1 -> bn1
I0531 12:39:41.418555  6387 net.cpp:122] Setting up bn1
I0531 12:39:41.418570  6387 net.cpp:129] Top shape: 32 64 2048 1 (4194304)
I0531 12:39:41.418576  6387 net.cpp:137] Memory required for data: 35127680
I0531 12:39:41.418591  6387 layer_factory.hpp:77] Creating layer scale1
I0531 12:39:41.418601  6387 net.cpp:84] Creating Layer scale1
I0531 12:39:41.418607  6387 net.cpp:406] scale1 <- bn1
I0531 12:39:41.418615  6387 net.cpp:380] scale1 -> scale1
I0531 12:39:41.418664  6387 layer_factory.hpp:77] Creating layer scale1
I0531 12:39:41.418776  6387 net.cpp:122] Setting up scale1
I0531 12:39:41.418788  6387 net.cpp:129] Top shape: 32 64 2048 1 (4194304)
I0531 12:39:41.418793  6387 net.cpp:137] Memory required for data: 51904896
I0531 12:39:41.418803  6387 layer_factory.hpp:77] Creating layer relu1
I0531 12:39:41.418813  6387 net.cpp:84] Creating Layer relu1
I0531 12:39:41.418820  6387 net.cpp:406] relu1 <- scale1
I0531 12:39:41.418830  6387 net.cpp:367] relu1 -> scale1 (in-place)
I0531 12:39:41.419450  6387 net.cpp:122] Setting up relu1
I0531 12:39:41.419466  6387 net.cpp:129] Top shape: 32 64 2048 1 (4194304)
I0531 12:39:41.419471  6387 net.cpp:137] Memory required for data: 68682112
I0531 12:39:41.419476  6387 layer_factory.hpp:77] Creating layer conv2
I0531 12:39:41.419492  6387 net.cpp:84] Creating Layer conv2
I0531 12:39:41.419498  6387 net.cpp:406] conv2 <- scale1
I0531 12:39:41.419508  6387 net.cpp:380] conv2 -> conv2
I0531 12:39:41.423931  6387 net.cpp:122] Setting up conv2
I0531 12:39:41.423946  6387 net.cpp:129] Top shape: 32 64 2048 1 (4194304)
I0531 12:39:41.423950  6387 net.cpp:137] Memory required for data: 85459328
I0531 12:39:41.423959  6387 layer_factory.hpp:77] Creating layer bn2
I0531 12:39:41.423966  6387 net.cpp:84] Creating Layer bn2
I0531 12:39:41.423970  6387 net.cpp:406] bn2 <- conv2
I0531 12:39:41.423976  6387 net.cpp:380] bn2 -> bn2
I0531 12:39:41.424140  6387 net.cpp:122] Setting up bn2
I0531 12:39:41.424149  6387 net.cpp:129] Top shape: 32 64 2048 1 (4194304)
I0531 12:39:41.424151  6387 net.cpp:137] Memory required for data: 102236544
I0531 12:39:41.424159  6387 layer_factory.hpp:77] Creating layer scale2
I0531 12:39:41.424165  6387 net.cpp:84] Creating Layer scale2
I0531 12:39:41.424170  6387 net.cpp:406] scale2 <- bn2
I0531 12:39:41.424175  6387 net.cpp:380] scale2 -> scale2
I0531 12:39:41.424208  6387 layer_factory.hpp:77] Creating layer scale2
I0531 12:39:41.424290  6387 net.cpp:122] Setting up scale2
I0531 12:39:41.424298  6387 net.cpp:129] Top shape: 32 64 2048 1 (4194304)
I0531 12:39:41.424300  6387 net.cpp:137] Memory required for data: 119013760
I0531 12:39:41.424306  6387 layer_factory.hpp:77] Creating layer relu2
I0531 12:39:41.424314  6387 net.cpp:84] Creating Layer relu2
I0531 12:39:41.424319  6387 net.cpp:406] relu2 <- scale2
I0531 12:39:41.424327  6387 net.cpp:367] relu2 -> scale2 (in-place)
I0531 12:39:41.426049  6387 net.cpp:122] Setting up relu2
I0531 12:39:41.426061  6387 net.cpp:129] Top shape: 32 64 2048 1 (4194304)
I0531 12:39:41.426067  6387 net.cpp:137] Memory required for data: 135790976
I0531 12:39:41.426072  6387 layer_factory.hpp:77] Creating layer conv3
I0531 12:39:41.426090  6387 net.cpp:84] Creating Layer conv3
I0531 12:39:41.426096  6387 net.cpp:406] conv3 <- scale2
I0531 12:39:41.426105  6387 net.cpp:380] conv3 -> conv3
I0531 12:39:41.432785  6387 net.cpp:122] Setting up conv3
I0531 12:39:41.432798  6387 net.cpp:129] Top shape: 32 64 2048 1 (4194304)
I0531 12:39:41.432804  6387 net.cpp:137] Memory required for data: 152568192
I0531 12:39:41.432814  6387 layer_factory.hpp:77] Creating layer bn3
I0531 12:39:41.432824  6387 net.cpp:84] Creating Layer bn3
I0531 12:39:41.432831  6387 net.cpp:406] bn3 <- conv3
I0531 12:39:41.432857  6387 net.cpp:380] bn3 -> bn3
I0531 12:39:41.433027  6387 net.cpp:122] Setting up bn3
I0531 12:39:41.433040  6387 net.cpp:129] Top shape: 32 64 2048 1 (4194304)
I0531 12:39:41.433045  6387 net.cpp:137] Memory required for data: 169345408
I0531 12:39:41.433059  6387 layer_factory.hpp:77] Creating layer scale3
I0531 12:39:41.433082  6387 net.cpp:84] Creating Layer scale3
I0531 12:39:41.433096  6387 net.cpp:406] scale3 <- bn3
I0531 12:39:41.433106  6387 net.cpp:380] scale3 -> scale3
I0531 12:39:41.433147  6387 layer_factory.hpp:77] Creating layer scale3
I0531 12:39:41.433231  6387 net.cpp:122] Setting up scale3
I0531 12:39:41.433238  6387 net.cpp:129] Top shape: 32 64 2048 1 (4194304)
I0531 12:39:41.433243  6387 net.cpp:137] Memory required for data: 186122624
I0531 12:39:41.433248  6387 layer_factory.hpp:77] Creating layer relu3
I0531 12:39:41.433254  6387 net.cpp:84] Creating Layer relu3
I0531 12:39:41.433259  6387 net.cpp:406] relu3 <- scale3
I0531 12:39:41.433264  6387 net.cpp:367] relu3 -> scale3 (in-place)
I0531 12:39:41.434912  6387 net.cpp:122] Setting up relu3
I0531 12:39:41.434924  6387 net.cpp:129] Top shape: 32 64 2048 1 (4194304)
I0531 12:39:41.434928  6387 net.cpp:137] Memory required for data: 202899840
I0531 12:39:41.434932  6387 layer_factory.hpp:77] Creating layer conv4
I0531 12:39:41.434942  6387 net.cpp:84] Creating Layer conv4
I0531 12:39:41.434947  6387 net.cpp:406] conv4 <- scale3
I0531 12:39:41.434954  6387 net.cpp:380] conv4 -> conv4
I0531 12:39:41.441622  6387 net.cpp:122] Setting up conv4
I0531 12:39:41.441634  6387 net.cpp:129] Top shape: 32 128 2048 1 (8388608)
I0531 12:39:41.441638  6387 net.cpp:137] Memory required for data: 236454272
I0531 12:39:41.441644  6387 layer_factory.hpp:77] Creating layer bn4
I0531 12:39:41.441653  6387 net.cpp:84] Creating Layer bn4
I0531 12:39:41.441658  6387 net.cpp:406] bn4 <- conv4
I0531 12:39:41.441663  6387 net.cpp:380] bn4 -> bn4
I0531 12:39:41.441808  6387 net.cpp:122] Setting up bn4
I0531 12:39:41.441815  6387 net.cpp:129] Top shape: 32 128 2048 1 (8388608)
I0531 12:39:41.441818  6387 net.cpp:137] Memory required for data: 270008704
I0531 12:39:41.441825  6387 layer_factory.hpp:77] Creating layer scale4
I0531 12:39:41.441830  6387 net.cpp:84] Creating Layer scale4
I0531 12:39:41.441834  6387 net.cpp:406] scale4 <- bn4
I0531 12:39:41.441841  6387 net.cpp:380] scale4 -> scale4
I0531 12:39:41.441876  6387 layer_factory.hpp:77] Creating layer scale4
I0531 12:39:41.441967  6387 net.cpp:122] Setting up scale4
I0531 12:39:41.441977  6387 net.cpp:129] Top shape: 32 128 2048 1 (8388608)
I0531 12:39:41.441982  6387 net.cpp:137] Memory required for data: 303563136
I0531 12:39:41.441992  6387 layer_factory.hpp:77] Creating layer relu4
I0531 12:39:41.442000  6387 net.cpp:84] Creating Layer relu4
I0531 12:39:41.442008  6387 net.cpp:406] relu4 <- scale4
I0531 12:39:41.442014  6387 net.cpp:367] relu4 -> scale4 (in-place)
I0531 12:39:41.443728  6387 net.cpp:122] Setting up relu4
I0531 12:39:41.443739  6387 net.cpp:129] Top shape: 32 128 2048 1 (8388608)
I0531 12:39:41.443744  6387 net.cpp:137] Memory required for data: 337117568
I0531 12:39:41.443750  6387 layer_factory.hpp:77] Creating layer conv5
I0531 12:39:41.443764  6387 net.cpp:84] Creating Layer conv5
I0531 12:39:41.443770  6387 net.cpp:406] conv5 <- scale4
I0531 12:39:41.443780  6387 net.cpp:380] conv5 -> conv5
I0531 12:39:41.450561  6387 net.cpp:122] Setting up conv5
I0531 12:39:41.450577  6387 net.cpp:129] Top shape: 32 1024 2048 1 (67108864)
I0531 12:39:41.450583  6387 net.cpp:137] Memory required for data: 605553024
I0531 12:39:41.450594  6387 layer_factory.hpp:77] Creating layer bn5
I0531 12:39:41.450604  6387 net.cpp:84] Creating Layer bn5
I0531 12:39:41.450611  6387 net.cpp:406] bn5 <- conv5
I0531 12:39:41.450623  6387 net.cpp:380] bn5 -> bn5
I0531 12:39:41.450784  6387 net.cpp:122] Setting up bn5
I0531 12:39:41.450793  6387 net.cpp:129] Top shape: 32 1024 2048 1 (67108864)
I0531 12:39:41.450799  6387 net.cpp:137] Memory required for data: 873988480
I0531 12:39:41.450845  6387 layer_factory.hpp:77] Creating layer scale5
I0531 12:39:41.450855  6387 net.cpp:84] Creating Layer scale5
I0531 12:39:41.450861  6387 net.cpp:406] scale5 <- bn5
I0531 12:39:41.450870  6387 net.cpp:380] scale5 -> scale5
I0531 12:39:41.450911  6387 layer_factory.hpp:77] Creating layer scale5
I0531 12:39:41.451006  6387 net.cpp:122] Setting up scale5
I0531 12:39:41.451017  6387 net.cpp:129] Top shape: 32 1024 2048 1 (67108864)
I0531 12:39:41.451022  6387 net.cpp:137] Memory required for data: 1142423936
I0531 12:39:41.451030  6387 layer_factory.hpp:77] Creating layer relu5
I0531 12:39:41.451038  6387 net.cpp:84] Creating Layer relu5
I0531 12:39:41.451042  6387 net.cpp:406] relu5 <- scale5
I0531 12:39:41.451050  6387 net.cpp:367] relu5 -> scale5 (in-place)
I0531 12:39:41.452436  6387 net.cpp:122] Setting up relu5
I0531 12:39:41.452450  6387 net.cpp:129] Top shape: 32 1024 2048 1 (67108864)
I0531 12:39:41.452455  6387 net.cpp:137] Memory required for data: 1410859392
I0531 12:39:41.452458  6387 layer_factory.hpp:77] Creating layer pool
I0531 12:39:41.452466  6387 net.cpp:84] Creating Layer pool
I0531 12:39:41.452471  6387 net.cpp:406] pool <- scale5
I0531 12:39:41.452476  6387 net.cpp:380] pool -> global_feat
I0531 12:39:41.452527  6387 net.cpp:122] Setting up pool
I0531 12:39:41.452538  6387 net.cpp:129] Top shape: 32 1024 1 1 (32768)
I0531 12:39:41.452543  6387 net.cpp:137] Memory required for data: 1410990464
I0531 12:39:41.452548  6387 layer_factory.hpp:77] Creating layer fc1
I0531 12:39:41.452558  6387 net.cpp:84] Creating Layer fc1
I0531 12:39:41.452564  6387 net.cpp:406] fc1 <- global_feat
I0531 12:39:41.452572  6387 net.cpp:380] fc1 -> fc1
I0531 12:39:41.465844  6387 net.cpp:122] Setting up fc1
I0531 12:39:41.465860  6387 net.cpp:129] Top shape: 32 512 (16384)
I0531 12:39:41.465864  6387 net.cpp:137] Memory required for data: 1411056000
I0531 12:39:41.465872  6387 layer_factory.hpp:77] Creating layer bn6
I0531 12:39:41.465878  6387 net.cpp:84] Creating Layer bn6
I0531 12:39:41.465883  6387 net.cpp:406] bn6 <- fc1
I0531 12:39:41.465888  6387 net.cpp:380] bn6 -> bn6
I0531 12:39:41.466042  6387 net.cpp:122] Setting up bn6
I0531 12:39:41.466051  6387 net.cpp:129] Top shape: 32 512 (16384)
I0531 12:39:41.466054  6387 net.cpp:137] Memory required for data: 1411121536
I0531 12:39:41.466061  6387 layer_factory.hpp:77] Creating layer scale6
I0531 12:39:41.466066  6387 net.cpp:84] Creating Layer scale6
I0531 12:39:41.466070  6387 net.cpp:406] scale6 <- bn6
I0531 12:39:41.466075  6387 net.cpp:380] scale6 -> scale6
I0531 12:39:41.466106  6387 layer_factory.hpp:77] Creating layer scale6
I0531 12:39:41.466190  6387 net.cpp:122] Setting up scale6
I0531 12:39:41.466197  6387 net.cpp:129] Top shape: 32 512 (16384)
I0531 12:39:41.466200  6387 net.cpp:137] Memory required for data: 1411187072
I0531 12:39:41.466205  6387 layer_factory.hpp:77] Creating layer relu6
I0531 12:39:41.466210  6387 net.cpp:84] Creating Layer relu6
I0531 12:39:41.466214  6387 net.cpp:406] relu6 <- scale6
I0531 12:39:41.466219  6387 net.cpp:367] relu6 -> scale6 (in-place)
I0531 12:39:41.466660  6387 net.cpp:122] Setting up relu6
I0531 12:39:41.466671  6387 net.cpp:129] Top shape: 32 512 (16384)
I0531 12:39:41.466675  6387 net.cpp:137] Memory required for data: 1411252608
I0531 12:39:41.466678  6387 layer_factory.hpp:77] Creating layer fc2
I0531 12:39:41.466686  6387 net.cpp:84] Creating Layer fc2
I0531 12:39:41.466689  6387 net.cpp:406] fc2 <- scale6
I0531 12:39:41.466696  6387 net.cpp:380] fc2 -> fc2
I0531 12:39:41.469581  6387 net.cpp:122] Setting up fc2
I0531 12:39:41.469591  6387 net.cpp:129] Top shape: 32 256 (8192)
I0531 12:39:41.469594  6387 net.cpp:137] Memory required for data: 1411285376
I0531 12:39:41.469600  6387 layer_factory.hpp:77] Creating layer bn7
I0531 12:39:41.469607  6387 net.cpp:84] Creating Layer bn7
I0531 12:39:41.469610  6387 net.cpp:406] bn7 <- fc2
I0531 12:39:41.469615  6387 net.cpp:380] bn7 -> bn7
I0531 12:39:41.469768  6387 net.cpp:122] Setting up bn7
I0531 12:39:41.469776  6387 net.cpp:129] Top shape: 32 256 (8192)
I0531 12:39:41.469794  6387 net.cpp:137] Memory required for data: 1411318144
I0531 12:39:41.469800  6387 layer_factory.hpp:77] Creating layer scale7
I0531 12:39:41.469806  6387 net.cpp:84] Creating Layer scale7
I0531 12:39:41.469810  6387 net.cpp:406] scale7 <- bn7
I0531 12:39:41.469815  6387 net.cpp:380] scale7 -> scale7
I0531 12:39:41.469851  6387 layer_factory.hpp:77] Creating layer scale7
I0531 12:39:41.469930  6387 net.cpp:122] Setting up scale7
I0531 12:39:41.469938  6387 net.cpp:129] Top shape: 32 256 (8192)
I0531 12:39:41.469940  6387 net.cpp:137] Memory required for data: 1411350912
I0531 12:39:41.469945  6387 layer_factory.hpp:77] Creating layer relu7
I0531 12:39:41.469951  6387 net.cpp:84] Creating Layer relu7
I0531 12:39:41.469956  6387 net.cpp:406] relu7 <- scale7
I0531 12:39:41.469961  6387 net.cpp:367] relu7 -> scale7 (in-place)
I0531 12:39:41.470134  6387 net.cpp:122] Setting up relu7
I0531 12:39:41.470144  6387 net.cpp:129] Top shape: 32 256 (8192)
I0531 12:39:41.470147  6387 net.cpp:137] Memory required for data: 1411383680
I0531 12:39:41.470150  6387 layer_factory.hpp:77] Creating layer drop1
I0531 12:39:41.470161  6387 net.cpp:84] Creating Layer drop1
I0531 12:39:41.470165  6387 net.cpp:406] drop1 <- scale7
I0531 12:39:41.470171  6387 net.cpp:380] drop1 -> drop1
I0531 12:39:41.470207  6387 net.cpp:122] Setting up drop1
I0531 12:39:41.470214  6387 net.cpp:129] Top shape: 32 256 (8192)
I0531 12:39:41.470217  6387 net.cpp:137] Memory required for data: 1411416448
I0531 12:39:41.470221  6387 layer_factory.hpp:77] Creating layer fc3
I0531 12:39:41.470227  6387 net.cpp:84] Creating Layer fc3
I0531 12:39:41.470232  6387 net.cpp:406] fc3 <- drop1
I0531 12:39:41.470237  6387 net.cpp:380] fc3 -> fc3
I0531 12:39:41.470546  6387 net.cpp:122] Setting up fc3
I0531 12:39:41.470553  6387 net.cpp:129] Top shape: 32 40 (1280)
I0531 12:39:41.470556  6387 net.cpp:137] Memory required for data: 1411421568
I0531 12:39:41.470562  6387 layer_factory.hpp:77] Creating layer fc3_fc3_0_split
I0531 12:39:41.470568  6387 net.cpp:84] Creating Layer fc3_fc3_0_split
I0531 12:39:41.470572  6387 net.cpp:406] fc3_fc3_0_split <- fc3
I0531 12:39:41.470577  6387 net.cpp:380] fc3_fc3_0_split -> fc3_fc3_0_split_0
I0531 12:39:41.470584  6387 net.cpp:380] fc3_fc3_0_split -> fc3_fc3_0_split_1
I0531 12:39:41.470616  6387 net.cpp:122] Setting up fc3_fc3_0_split
I0531 12:39:41.470623  6387 net.cpp:129] Top shape: 32 40 (1280)
I0531 12:39:41.470626  6387 net.cpp:129] Top shape: 32 40 (1280)
I0531 12:39:41.470629  6387 net.cpp:137] Memory required for data: 1411431808
I0531 12:39:41.470633  6387 layer_factory.hpp:77] Creating layer accuracy
I0531 12:39:41.470638  6387 net.cpp:84] Creating Layer accuracy
I0531 12:39:41.470643  6387 net.cpp:406] accuracy <- fc3_fc3_0_split_0
I0531 12:39:41.470646  6387 net.cpp:406] accuracy <- label_data_1_split_0
I0531 12:39:41.470651  6387 net.cpp:380] accuracy -> accuracy
…
